web/backend/models/LSTM_original.pth (torch, 13760 bytes, 29 tensors)

fc1.weight f4 [30, 30]
0.022107992 0.18891573 0.08290333 -0.4763667 -0.06820162 -1.2179619 -0.6525824 0.032544844
0.2603473 -0.3066601 0.03792683 0.016331509 -0.117165655 -0.2117614 -0.19681562 -0.01164836
0.01535827 -0.11773523 -0.21271886 -0.22400638 0.021563644 0.20110315 -0.02217002 -0.036729343
-0.1711464 -0.091740586 -0.174763 0.14188206 -0.09592593 -0.0036075837 0.0870035 0.07395175
-0.019727614 0.16094187 0.18482561 -0.16565318 -0.09207182 0.32500032 0.2540574 -0.119396865
0.3747663 -0.12158461 -0.06853709 0.35955453 -0.058005244 0.21138671 0.020849649 0.3902115
0.2036847 0.11046005 0.058858834 -0.010939326 -0.038099807 -0.08886052 0.16956545 0.040417586
-0.09060404 0.06308014 -0.032564253 -0.025225535 0.0814781 0.12298564 -0.088076904 -0.051046345
-0.13461947 0.018784769 -0.08945268 0.16929635 -0.08292444 0.020150388 -0.16303398 0.09727622
-0.08328405 0.11882064 -0.23280995 -0.14348058 0.074356735 -0.08817957 -0.13485558 -0.0990778
-0.13775204 0.07584305 -0.11185998 0.0016274041 -0.040563658 -0.10726355 -0.15322995 -0.14760768
0.05687194 0.079592414 -0.18607491 0.030662116 0.0674586 0.087593295 0.016019065 0.13885559
0.0040865177 -0.04670319 0.1820359 -0.110703185 -0.15517586 -0.14575256 -0.08875713 0.15608191
0.16442065 -0.09101532 0.009046853 0.055952977 -0.028787212 -0.14428337 -0.15343998 -0.15527321
0.12800904 -0.015113938 0.09925468 0.140273 -0.18175563 -0.00084221805 -0.16318066 -0.12412805
-0.15685122 0.09851289 -0.14448547 0.024591042 -0.07176699 0.18207319 0.16766831 -0.0068176286
-0.12862411 0.1642162 0.13603324 -0.18693854 -0.05954517 0.06694414 0.04217035 0.0017618522
-0.18220785 -0.16039181 0.02931041 -0.07219905 -0.19923003 0.1004575 -0.027295623 0.06771134
-0.03729047 -0.048807167 -0.06546565 -0.21405616 -0.14576346 -0.039743386 -0.12868422 -0.22507802
-0.3299194 0.1822076 -0.14266892 -0.60876673 -0.40647957 -0.24863431 0.07766898 0.24417974
0.01266384 0.09914583 -0.16025707 -0.24363704 0.101716764 -0.25706267 -0.012706922 -0.15246685
-0.13326292 -0.178363 0.021365257 -0.05590674 -0.21831816 -0.045946475 0.09656034 -0.1312132
0.03630834 -0.1309995 0.036920592 0.12747552 -0.07756129 0.023610989 -0.37951794 0.27072853
0.019302744 -0.69655126 -0.4860423 0.13579978 -0.1086465 0.04431863 0.22645499 -0.09925468
-0.053717453 0.22227712 -0.0635289 0.10144295 -0.12334047 0.3796197 0.18624473 0.035975367
0.025691513 0.17976624 -0.111531585 0.16159862 0.13832249 0.11588468 -0.097864084 0.05513322
0.024764223 0.112735234 0.098245025 0.08667659 -0.117015526 0.38821974 0.08699361 1.3282455
0.3905701 0.32275394 -0.0045393333 0.15203273 0.01093361 0.05379223 -0.036874607 0.24637456
0.01942009 0.21264152 0.014615503 0.20512083 0.13322903 0.3318231 0.05978746 -0.07275272
0.038346745 -0.17501372 -0.09833847 -0.51020074 0.009261882 0.17355858 0.16652408 0.21377756
-0.020650962 -0.22547658 0.10861708 0.65593064 0.08079612 1.1003782 0.84276503 0.0053001675
-0.19646895 0.5113456 -0.031997554 0.038986724 -0.027793549 0.10877759 0.09000056 0.23559706
00000000: d21b b53c 2073 413e 39c9 a93d 56e6 f3be
00000010: 4aad 8bbd 2de6 9bbf a40f 27bf be4d 053d
00000020: 3e4c 853e 8d02 9dbe 2a59 1b3d a8c9 853c
00000030: 8cf4 efbd fbd7 58be 098a 49be c3d8 3ebc
00000040: 41a1 7b3c 2b1f f1bd f9d2 59be ee61 65be
00000050: 3da6 b03c fced 4d3e e79d b5bc 8271 16bd
00000060: 0041 2fbe 7de2 bbbd 12f5 32be 8849 113e
00000070: d074 c4bd 366d 6cbb e42e b23d 0474 973d
00000080: ce9b a1bc f2cd 243e ed42 3d3e fda0 29be
00000090: 2690 bcbd 7166 a63e d013 823e 5886 f4bd
000000a0: 5ee1 bf3e 5a01 f9bd 2d5d 8cbd 8817 b83e
000000b0: e896 6dbd c275 583e e2cc aa3c cdc9 c73e
000000c0: b992 503e e138 e23d f615 713d dc3a 33bc
000000d0: 8b0e 1cbd 81fc b5bd 91a2 2d3e e98c 253d
000000e0: 9c8e b9bd 2930 813d 1862 05bd c8a5 cebc
000000f0: fddd a63d e5df fb3d aa61 b4bd f915 51bd
00000100: b0d9 09be 84e2 993c f732 b7bd 065c 2d3e
00000110: 4ad4 a9bd 6d12 a53c 61f2 26be c138 c73d
00000120: d490 aabd 3c58 f33d bb65 6ebe 93ec 12be
00000130: 5848 983d 7e97 b4bd 9517 0abe 4de9 cabd
00000140: df0e 0dbe 9a53 9b3d d816 e5bd 9f4e d53a
00000150: 1426 26bd feac dbbd 50e8 1cbe 7826 17be
00000160: 8df2 683d 5901 a33d 6c8a 3ebe 1e2f fb3c
00000170: bc27 8a3d 1d64 b33d 6a3a 833c 2930 0e3e
00000180: 32e8 853b d84b 3fbd 9e67 3a3e 5ab8 e2bd
00000190: 6ce6 1ebe 2940 15be 4cc6 b5bd f0d3 1f3e
000001a0: e35d 283e 3d66 babd 4039 143c f32e 653d
000001b0: 29d3 ebbc 05bf 13be 5f1f 1dbe f1ff 1ebe
000001c0: cd14 033e 73a0 77bc 0a46 cb3d baa3 0f3e
000001d0: 261e 3abe 4cc8 5cba d518 27be d936 febd
000001e0: 9b9d 20be 20c1 c93d 00f4 13be 2773 c93c
000001f0: 92fa 92bd 6571 3a3e 3eb1 2b3e 6a66 dfbb
00000200: 0ab6 03be 4b28 283e 4c4c 0b3e d16c 3fbe
00000210: a3e5 73bd 021a 893d d1ba 2c3d f3ed e63a
00000220: b294 3abe c03d 24be 631c f03c 18dd 93bd
00000230: f502 4cbe a9bc cd3d 129b dfbc 3eac 8a3d
00000240: e4bd 18bd 06ea 47bd db12 86bd 8a31 5bbe
00000250: 0443 15be f6c9 22bd ccc5 03be da7a 66be
00000260: 32eb a8be a194 3a3e cd17 12be 23d8 1bbf
00000270: 171e d0be fe99 7ebe ea10 9f3d 410a 7a3e
00000280: ff7b 4f3c f80c cb3d 6e1a 24be fd7b 79be
00000290: e150 d03d b89d 83be b230 50bc 4520 1cbe
000002a0: 1376 08be caa4 36be 3106 af3c 77fe 64bd
000002b0: cc8e 5fbe 5f32 3cbd 6dc1 c53d c15c 06be
000002c0: 0eb8 143d bc24 06be 0c3a 173d f188 023e
000002d0: 74d8 9ebd d56b c13c 2d50 c2be ee9c 8a3e
000002e0: ca20 9e3c 2f51 32bf 89da f8be 190f 0b3e
000002f0: 0e82 debd 7487 353d d1e3 673e 0a46 cbbd
00000300: d506 5cbd 9d9c 633e 711b 82bd 52c1 cf3d
00000310: ee99 fcbd 835d c23e f0b6 3e3e e85a 133d
00000320: 0277 d23c a414 383e ac6a e4bd 1c7a 253e
00000330: 69a4 0d3e f254 ed3d f76c c8bd 5fd3 613d
00000340: 57de ca3c bbe1 e63d b034 c93d 7f83 b13d
00000350: d6a5 efbd bdc4 c63e b529 b23d f303 aa3f
00000360: cef8 c73e 0140 a53e b0be 94bb 78ae 1b3e
00000370: e222 333c 3e55 5c3d d409 17bd 9d49 7c3e
00000380: e116 9f3c b3be 593e dd75 6f3c 320b 523e
00000390: 316d 083e b8e4 a93e b2e3 743d 61ff 94bd
000003a0: 7a11 1d3d cc36 33be ae65 c9bd 849c 02bf
000003b0: 26bf 173c 57b9 313e 4a85 2a3e 81e8 5a3e
000003c0: 352c a9bc 55e3 66be a272 de3d 12eb 273f
000003d0: 7078 a53d 31d9 8c3f 73bf 573f 07ad ad3b
000003e0: 282f 49be 8ce7 023f de0f 03bd 8bb0 1f3d
000003f0: 4caf e3bc c9c6 de3d 3752 b83d 5b40 713e

fc1.bias f4 [30]
0.21112803 -0.06271235 -0.17646469 -0.092095695 -0.05172518 0.11358597 -0.1421293 0.010275594
0.34038085 0.07223074 -0.13016592 -0.15731286 0.06870116 -0.07299715 -0.011476682 0.17214765
-0.15078409 0.12038058 -0.17469732 -0.063028 0.015469466 0.2608406 -0.1823859 0.14597145
0.025048828 0.2822647 -0.022784367 0.15908822 0.29969862 0.17345145
00000000: f231 583e 556f 80bd 29b3 34be ab9c bcbd
00000010: c8dd 53bd c39f e83d 588a 11be f75a 283c
00000020: 6646 ae3e b6ed 933d 374a 05be 9f16 21be
00000030: 32b3 8c3d 887f 95bd b108 3cbc 7947 303e
00000040: 2567 1abe 188a f63d dbe3 32be d314 81bd
00000050: a573 7d3c e68c 853e 5fc3 3abe 8a79 153e
00000060: 3333 cd3c 0085 903e 48a6 babc 06e8 223e
00000070: 1972 993e 429d 313e

fc2.weight_ih_l0 f4 [4, 30]
1.0153975 -0.3650191 0.7738518 -0.4890002 0.4278885 0.4898624 -0.5750956 0.57166415
0.60796106 0.13310939 -0.41786727 -0.63120425 0.83174795 -0.06269169 0.034123447 -0.15687172
0.5214345 0.9171942 0.8375236 -0.099892825 0.38842288 -0.16029786 0.6840439 1.2649206
0.008655259 0.63823605 0.054769397 -0.18278624 1.0021286 0.5833666 0.5979268 -0.0061694146
0.82741207 0.8000517 -0.4638554 -0.33671778 -0.17180535 1.0557646 1.0841957 0.4398385
-0.7032465 -0.3331651 0.8545089 -0.52020466 0.079919994 -0.3458269 0.9395946 0.7716455
0.78534466 -0.39420214 0.03938676 -0.3250336 0.2602383 0.46681023 -0.3498135 -0.5751362
1.2878084 0.795932 0.014241869 0.16346677 0.28124923 -0.26582798 0.79170763 -0.7621724
0.036195107 -0.58884525 0.7912618 -0.25412083 0.28514937 1.1614363 0.36462194 -0.54558635
0.49283674 0.47618267 0.51921874 -0.83896804 -0.18377514 0.51119053 0.9426798 1.2478976
-0.19824016 1.347719 0.54419196 0.63453954 -0.3384072 0.54227424 0.98914087 0.83017844
1.0197378 0.6881541 0.544288 -0.23295143 0.08957717 -0.9179716 -0.22796598 0.6345356
-0.36613256 -0.6041523 1.0451614 -0.6320196 0.11182561 -0.27430436 1.1182654 0.27055958
1.0763118 0.020246554 -0.77726185 0.81732744 0.64178616 -0.1996904 -1.2275449 1.122385
0.3718023 0.75400066 0.31423157 0.030581532 -0.2857208 1.154297 0.85439515 0.40213415
00000000: 8cf8 813f c9e3 babe 271b 463f 3c5e fabe
00000010: 3414 db3e 3fcf fa3e 7739 13bf 9558 123f
00000020: 56a3 1b3f d44d 083e b3f2 d5be 9a96 21bf
00000030: 6fed 543f 8064 80bd 07c5 0b3d fba2 20be
00000040: bb7c 053f 3dcd 6a3f f267 563f 9c94 ccbd
00000050: 5ddf c63e 1f25 24be 801d 2f3f ebe8 a13f
00000060: cace 0d3c 7063 233f e055 603d 512c 3bbe
00000070: c045 803f 8357 153f bb11 193f cd28 cabb
00000080: 47d1 533f 30d0 4c3f 747e edbe 4666 acbe
00000090: beed 2fbe 4b23 873f edc6 8a3f 8332 e13e
000000a0: f607 34bf 9e94 aabe 18c1 5a3f 222c 05bf
000000b0: 18ad a33d 3910 b1be 4689 703f 8f8a 453f
000000c0: 590c 493f ddd4 c9be 0354 213d ce6a a6be
000000d0: f43d 853e c001 ef3e c11a b3be 203c 13bf
000000e0: e8d6 a43f 33c2 4b3f ba56 693c d563 273e
000000f0: e6ff 8f3e 9b1a 88be 5aad 4a3f bb1d 43bf
00000100: 5241 143d 90be 16bf 2290 4a3f 201c 82be
00000110: 19ff 913e f2a9 943f baaf ba3e 8cab 0bbf
00000120: 1955 fc3e 37ce f33e 85eb 043f 9cc6 56bf
00000130: 8d2f 3cbe 62dd 023f 7753 713f 1cbb 9f3f
00000140: 78ff 4abe 0e82 ac3f 2a50 0b3f 2f71 223f
00000150: b543 adbe 7cd2 0a3f 5638 7d3f 9386 543f
00000160: c586 823f de2a 303f 7556 0b3f d28a 6ebe
00000170: 3c74 b73d 3000 6bbf ea6f 69be ed70 223f
00000180: ba75 bbbe baa9 1abf d9c7 853f 09cc 21bf
00000190: d304 e53d 9f71 8cbe 5223 8f3f c986 8a3e
000001a0: 96c4 893f 1adc a53c a2fa 46bf 5f3c 513f
000001b0: 194c 243f a47b 4cbe 3120 9dbf 50aa 8f3f
000001c0: df5c be3e 3006 413f f6e2 a03e 1f86 fa3c
000001d0: ff49 92be 01c0 933f a4b9 5a3f 87e4 cd3e

fc2.weight_hh_l0 f4 [4, 1]
0.0011289159 1.2103606 0.024420962 -0.49265856
00000000: 22f8 933a 19ed 9a3f 780e c83c be3d fcbe

fc2.bias_ih_l0 f4 [4]
0.46243355 1.322603 0.8994832 1.0215518
00000000: 17c4 ec3e 0e4b a93f 8844 663f 36c2 823f

fc2.bias_hh_l0 f4 [4]
0.51923865 0.18391123 0.56267637 0.41439912
00000000: d3ec 043f 3a53 3c3e 8f0b 103f 1f2c d43e

fc2.weight_ih_l0_reverse f4 [4, 30]
-0.77051026 0.44833928 0.25935775 0.9992482 -0.7145178 -0.4197036 0.049607642 -0.20610388
-0.032222547 -0.5124661 -0.65075296 -0.7316383 0.512118 0.062349696 0.24387385 0.6623837
1.2644178 0.8545655 0.2889659 1.0557827 -0.6435079 0.41515216 -0.36657834 -1.0336834
-0.73326296 0.3715064 0.14675103 0.38858438 -0.7459462 0.7680674 -0.07409942 -0.007417605
-0.1631023 -0.81902343 0.74065095 0.9106646 0.7752236 -0.84792745 0.71928287 0.17021279
0.23620588 -0.4513133 0.44173795 0.16614726 0.4103545 0.77895075 0.6490577 0.36463207
-0.28855568 0.39935726 -0.32770634 -0.31465673 -0.21862309 0.77549803 -0.43814066 -0.6361354
-0.65635216 0.8492355 0.6601548 0.929412 0.57646525 0.05161415 -0.34504795 0.49428573
0.8730926 0.02579394 -0.0429155 -0.64319026 -0.11685763 -0.5397369 -0.73814815 -0.5399834
0.1641976 -0.21158512 -0.9770752 1.0595719 -0.8460535 0.39517203 0.7730389 -0.06640793
-0.4056887 0.23489472 -0.18604247 0.019574692 -0.3336167 0.43993554 0.7138388 0.7297881
0.31203598 0.95680624 0.5604678 1.0121434 -0.8505723 -0.7802841 0.24367131 1.2095592
0.17445664 1.1293031 0.18920733 0.36719212 0.5342712 -0.5305449 1.2641673 -0.14912373
0.58822966 1.6860979 -0.55459636 2.1406806 0.97611076 0.9110539 1.032068 1.5041962
0.29133376 -0.05525353 0.6195688 1.3480711 -0.39144945 1.1596665 0.5548623 0.8577453
00000000: 2940 45bf ba8c e53e 8aca 843e bbce 7f3f
00000010: a3ea 36bf 64e3 d6be 6231 4b3d e50c 53be
00000020: cafb 03bd fa30 03bf bf97 26bf a64c 3bbf
00000030: 2a1a 033f 6562 7f3d 11ba 793e fa91 293f
00000040: 71d8 a13f cec4 5a3f 57f3 933e e323 873f
00000050: efbc 24bf d38e d43e 28b0 bbbe bd4f 84bf
00000060: 1fb7 3bbf 1636 be3e e745 163e 88f4 c63e
00000070: 55f6 3ebf 11a0 443f 70c1 97bd 610f f3bb
00000080: 4a04 27be 85ab 51bf 4d9b 3d3f 5121 693f
00000090: 0e75 463f c611 59bf ec22 383f 434c 2e3e
000000a0: f4df 713e 8912 e7be 7a2b e23e 8222 2a3e
000000b0: fc19 d23e 5169 473f a528 263f 0eb1 ba3e
000000c0: 92bd 93be 8e78 cc3e 20c9 a7be b01a a1be
000000d0: bbde 5fbe 0a87 463f f953 e0be c5d9 22bf
000000e0: b206 28bf 7f67 593f e8ff 283f f2ed 6d3f
000000f0: 3a93 133f 5c69 533d 20aa b0be 0513 fd3e
00000100: ff82 5f3f d04d d33c 2ac8 2fbd 1ea8 24bf
00000110: 0e53 efbd 332c 0abf 47f7 3cbf 5a3c 0abf
00000120: 6a23 283e c5a9 58be 9a21 7abf 0da0 873f
00000130: f696 58bf fd53 ca3e e1e5 453f e100 88bd
00000140: 6eb6 cfbe 3e88 703e eb81 3ebe 1b5b a03c
00000150: cfcf aabe 3b3f e13e 24be 363f 65d3 3a3f
00000160: 2ec3 9f3e 41f1 743f d17a 0f3f ea8d 813f
00000170: 1bbf 59bf b3c0 47bf f984 793e d6d2 9a3f
00000180: c3a4 323e 018d 903f 91bf 413e 9b00 bc3e
00000190: ffc5 083f cad1 07bf 3cd0 a13f e4b3 18be
000001a0: 3896 163f 0ed2 d73f 07fa 0dbf e900 0940
000001b0: 65e2 793f d43a 693f ce1a 843f 8089 c03f
000001c0: b329 953e 8751 62bd 109c 1e3f 988d ac3f
000001d0: 106c c8be f46f 943f 750b 0e3f 3295 5b3f

fc2.weight_hh_l0_reverse f4 [4, 1]
1.5063654 -1.1351577 -0.80571276 -0.13999023
00000000: 95d0 c03f d94c 91bf 3143 4ebf 9959 0fbe

fc2.bias_ih_l0_reverse f4 [4]
0.8771362 0.40748054 0.74987084 1.7301898
00000000: ff8b 603f 4aa1 d03e 89f7 3f3f dc76 dd3f

fc2.bias_hh_l0_reverse f4 [4]
-0.20320736 -0.37856108 -0.7022844 1.841254
00000000: 9715 50be c2d2 c1be e9c8 33bf 36ae eb3f

fc2.weight_ih_l1 f4 [4, 2]
-0.55748695 0.8291303 1.2325264 0.48749366 -0.7481629 0.8170545 1.5379874 -0.5508565
00000000: 77b7 0ebf e241 543f 6dc3 9d3f c598 f93e
00000010: 9b87 3fbf 7c2a 513f c5dc c43f ee04 0dbf

fc2.weight_hh_l1 f4 [4, 1]
0.3368516 -0.63585514 0.45570043 1.1590009
00000000: d077 ac3e 67c7 22bf 9151 e93e 245a 943f

fc2.bias_ih_l1 f4 [4]
0.5499955 -0.42315945 0.55897236 0.1598731
00000000: 81cc 0c3f 5ba8 d8be d018 0f3f c6b5 233e

fc2.bias_hh_l1 f4 [4]
-0.6471953 0.930089 0.34475058 0.9823498
00000000: 97ae 25bf 501a 6e3f 2683 b03e 477b 7b3f

fc2.weight_ih_l1_reverse f4 [4, 2]
0.27922788 0.16934694 -0.57178605 -0.11898366 0.12934941 -1.4416982 1.7635295 -0.21414855
00000000: f5f6 8e3e 4969 2d3e 9260 12bf b5ad f3bd
00000010: 2c74 043e 9189 b8bf 56bb e13f c249 5bbe

fc2.weight_hh_l1_reverse f4 [4, 1]
-1.1348654 0.6770706 -0.31755063 -0.5865985
00000000: 4543 91bf 8054 2d3f ff95 a2be 522b 16bf

fc2.bias_ih_l1_reverse f4 [4]
-0.17146038 0.05401594 0.31960267 1.7412424
00000000: 4f93 2fbe d13f 5d3d f6a2 a33e 08e1 de3f

fc2.bias_hh_l1_reverse f4 [4]
1.1434813 0.6160868 -0.124500796 0.7193561
00000000: 985d 923f ddb7 1d3f 46fa febd b927 383f

fc2.weight_ih_l2 f4 [4, 2]
1.1859283 -0.10979643 -0.1495119 -1.0614272 1.1665007 -0.2535793 1.7602413 -1.0853716
00000000: 80cc 973f f3dc e0bd a619 19be d9dc 87bf
00000010: e54f 953f 25d5 81be 964f e13f 75ed 8abf

fc2.weight_hh_l2 f4 [4, 1]
-0.07327794 0.5008673 0.29449588 1.1106378
00000000: bf12 96bd d738 003f 2ac8 963e 6129 8e3f

fc2.bias_ih_l2 f4 [4]
0.8059723 0.55962414 0.73320633 -0.20053333
00000000: 3354 4e3f 8743 0f3f 69b3 3b3f 9c58 4dbe

fc2.bias_hh_l2 f4 [4]
-0.9239076 -0.38965976 0.026065912 -0.26958942
00000000: 3585 6cbf 7c81 c7be 2e88 d53c a007 8abe

fc2.weight_ih_l2_reverse f4 [4, 2]
1.3444333 -0.84035087 0.42989904 -1.3732338 1.1976444 -0.043368038 1.6599375 -2.0992851
00000000: 6416 ac3f 3c21 57bf ba1b dc3e 20c6 afbf
00000010: 694c 993f afa2 31bd d578 d43f b05a 06c0

fc2.weight_hh_l2_reverse f4 [4, 1]
0.100395456 -0.5375679 -0.8414962 0.40269628
00000000: 229c cd3d 0d9e 09bf 4c6c 57bf 352e ce3e

fc2.bias_ih_l2_reverse f4 [4]
-0.789668 -0.25086084 0.7400611 0.40965232
00000000: af27 4abf d570 80be a574 3d3f f3bd d13e

fc2.bias_hh_l2_reverse f4 [4]
0.82589537 0.06623916 0.716734 -0.6567528
00000000: e16d 533f 66a8 873d e17b 373f f420 28bf

combination_layer.weight f4 [2, 2]
-0.10144869 -0.66995317 1.9217253 1.2745332
00000000: 55c4 cfbd 0d82 2bbf 18fb f53f e723 a33f

combination_layer.bias f4 [2]
-0.026399244 0.24639614
00000000: 3a43 d8bc 454f 7c3e

projection.weight f4 [1, 2]
-0.60014045 -1.927373
00000000: cea2 19bf 29b4 f6bf
