LSTMbest.pth (torch, 18462 bytes, 29 tensors)

fc1.weight f4 [44, 44]
-0.1258487 1.2837241 1.024146 0.2014282 1.7459226 0.21979593 -0.78774756 5.646639
4.832979 0.30608582 -0.92409456 -0.7643667 0.69394195 -0.3204918 -0.18773988 -0.5007198
-0.78462076 0.4057701 0.64336115 1.3834215 0.49910337 -0.025117468 0.5007061 -0.18154731
-0.63133323 0.33685583 -0.2661987 -0.3780541 -0.33452806 -0.56988084 3.5235827 -0.49061474
-0.010705237 0.03806201 0.425928 -0.058107756 -0.22486307 -0.2821 -0.50271595 0.33738172
0.16122518 -0.187712 -0.013121971 -0.3030256 0.18597585 -0.18791357 -1.0855142 -0.17002544
-0.34104967 0.5491312 -0.2531898 7.1012907 -11.04841 -0.46397185 -0.32444403 0.6977354
-0.19604607 0.08734548 0.4529664 0.18852727 -0.8658224 0.7364056 1.1621484 0.8220822
-0.24917465 0.40972325 -0.009580561 -0.40321392 -0.11204433 0.3814628 0.49347875 0.6550917
0.6352957 0.55252635 0.7035841 0.17547853 0.09722135 -0.057299707 -0.09832015 -0.62835896
-0.54318655 -0.16515277 0.26192147 0.20469059 0.21143593 0.19749828 -0.2924829 0.18063489
-0.2919696 -0.54736704 0.15885934 0.2897557 1.7568438 -0.75277746 -0.4439573 9.673881
-1.0712192 -1.6595473 0.09214772 9.522094 -0.667144 -0.053203594 -0.6774044 0.7490043
0.87143654 -1.9580024 -0.85373086 1.213078 0.76636785 0.24249223 -2.4579341 0.24660191
-0.8745926 -1.478997 -0.09754911 -0.26607776 -0.24359415 -0.2452052 -0.17890307 -0.381605
0.984689 -1.1361662 -0.0019103922 0.091111116 -0.046978302 0.024704 -0.5403308 0.33226117
-0.06336668 -0.8107412 0.19690341 -0.09414923 -0.25089815 0.629267 -0.013440712 -0.016202804
-1.3004781 1.0585095 0.73949516 -9.643672 4.6888356 -2.385324 0.64577955 -2.553007
0.9857792 0.05121557 -0.37430522 -0.3152437 -0.35730016 -1.5645405 0.57551277 -0.45801663
0.08280528 0.21151751 -0.41738403 0.16346925 -0.15008928 -2.6028132 0.33624318 -0.40882438
-0.5957131 -0.53521675 0.30811548 -0.043674905 -0.5596979 0.252137 0.29201898 -0.16448827
-0.23691615 -0.10578849 -0.14348282 0.21396641 -0.037778437 -0.08959379 -0.5848804 -0.25161138
0.44459927 0.15808456 -0.0973508 -0.20234624 0.6072654 0.06932103 0.23532867 -15.782371
3.7492545 -0.49100345 -0.028062204 -9.02826 0.03551442 -0.2196999 -0.16407396 0.40956566
0.6556427 0.0645074 -0.026059749 0.26881045 0.04964319 -0.10098808 -0.16356662 -0.16566847
-1.066041 -0.035903607 -0.42964876 0.3647678 0.22003712 0.34350947 -1.5186268 0.016327575
0.56925607 -0.17532897 0.06448381 0.08341191 0.040172737 -0.029181035 0.029997228 -0.05155541
0.3818314 -0.291468 0.09898212 -0.027844574 0.5316719 -0.40221325 -0.025834154 -0.3057153
-2.1402912 -0.1370861 0.72330433 -4.82209 -6.2850547 -0.30812132 0.70031464 1.5677602
-0.20887111 -0.19614321 -0.22408585 0.80776495 2.4233031 -0.81397134 -0.29804006 0.04856923
0.38223293 -0.55407953 -0.4549573 0.38382354 0.5307133 0.48542127 0.008137615 0.06670909
0.00075763266 0.331896 -1.8395685 0.30390134 -1.7958028 -0.16311345 -0.18419759 -0.057596203
00000000: 7bde 00be 1251 a43f 3717 833f 3243 4e3e
00000010: 647a df3f 2f12 613e d3a9 49bf 44b1 b440
00000020: c4a7 9a40 48b7 9c3e 7691 6cbf 89ad 43bf
00000030: 2ea6 313f 8017 a4be e23e 40be 2c2f 00bf
00000040: e8dc 48bf 19c1 cf3e 51b3 243f f513 b13f
00000050: 7a8a ff3e 26c3 cdbc 462e 003f 8ae7 39be
00000060: 0e9f 21bf 5e78 ac3e 324b 88be 4f90 c1be
00000070: 4347 abbe b6e3 11bf 6182 6140 db31 fbbe
00000080: 0565 2fbc e9e6 1b3d 3c13 da3e 6602 6ebd
00000090: 8142 66be 696f 90be feb1 00bf 4cbd ac3e
000000a0: 3718 253e 9337 40be 89fd 56bc 2c26 9bbe
000000b0: 7470 3e3e 6a6c 40be 21f2 8abf 261b 2ebe
000000c0: 109e aebe dd93 0c3f 18a2 81be c63d e340
000000d0: 4ac6 30c1 b88d edbe 871d a6be ca9e 323f
000000e0: 4dc0 48be 30e2 b23d 36eb e73e 4b0d 413e
000000f0: 89a6 5dbf 1485 3c3f 47c1 943f fb73 523f
00000100: a427 7fbe 3fc7 d13e c9f7 1cbc 0e72 cebe
00000110: 7f77 e5bd 184f c33e 3fa9 fc3e 17b4 273f
00000120: bda2 223f 5e72 0d3f 161e 343f a5b0 333e
00000130: fd1b c73d 19b3 6abd 135c c9bd 22dc 20bf
00000140: 460e 0bbf cf1d 29be 921a 863e 699a 513e
00000150: a982 583e fd3c 4a3e 52c0 95be 5af8 383e
00000160: 0a7d 95be 3f20 0cbf 06ac 223e dc5a 943e
00000170: 42e0 e03f 06b6 40bf 5f4e e3be 37c8 1a41
00000180: b61d 89bf 0c6c d4bf f2b7 bc3d 7f5a 1841
00000190: f3c9 2abf 03ec 59bd 606a 2dbf bfbe 3f3f
000001a0: 7716 5f3f d39f fabf 1b8e 5abf 2446 9b3f
000001b0: af30 443f e24f 783e cb4e 1dc0 3685 7c3e
000001c0: 4de5 5fbf c64f bdbf d4c7 c7bd 583b 88be
000001d0: bf70 79be 1217 7bbe 5e32 37be bb61 c3be
000001e0: 9414 7c3f e56d 91bf 2066 faba 7798 ba3d
000001f0: 526c 40bd 0b60 ca3c 1f53 0abf 231e aa3e
00000200: 64c6 81bd bc8c 4fbf 0ca1 493e 50d1 c0bd
00000210: b975 80be a417 213f 6f36 5cbc bebb 84bc
00000220: 1176 a6bf 3d7d 873f 8e4f 3d3f 7b4c 1ac1
00000230: f10a 9640 26a9 18c0 cf51 253f 7764 23c0
00000240: 075c 7c3f 6bc7 513d efa4 bfbe 9f67 a1be
00000250: 0cf0 b6be dd42 c8bf ce54 133f 2881 eabe
00000260: d195 a93d 0c98 583e 5cb3 d5be 7c64 273e
00000270: 01b1 19be 7e94 26c0 1128 ac3e 6e51 d1be
00000280: a780 18bf f703 09bf 50c1 9d3e 75e4 32bd
00000290: 5d48 0fbf 1a18 813e 8383 953e 9d6f 28be
000002a0: 269a 72be a3a7 d8bd 29ed 12be 031a 5b3e
000002b0: 90bd 1abd f37c b7bd b9ba 15bf 35d3 80be
000002c0: 84a2 e33e ebe0 213e db5f c7bd da33 4fbe
000002d0: bf75 1b3f 2ff8 8d3d 00fa 703e 9784 7cc1
000002e0: c9f3 6f40 ce64 fbbe b5e2 e5bc c173 10c1
000002f0: 9277 113d 03f9 60be 0103 28be 97b2 d13e
00000300: 33d8 273f 751c 843d 417b d5bc 86a1 893e
00000310: a856 4b3d d7d2 cebd 027e 27be ffa4 29be
00000320: 0874 88bf a90f 13bd ecfa dbbe d8c2 ba3e
00000330: 6951 613e 79e0 af3e 5d62 c2bf 68c1 853c
00000340: c4ba 113f 7089 33be 1610 843d ddd3 aa3d
00000350: 2b8c 243d 110d efbc bfbc f53c c42b 53bd
00000360: 687f c33e 4b3b 95be 23b7 ca3d 4e1a e4bc
00000370: a61b 083f e5ee cdbe 26a2 d3bc b786 9cbe
00000380: 88fa 08c0 4c60 0cbe 792a 393f 904e 9ac0
00000390: 2b1f c9c0 14c2 9dbe d247 333f 5eac c83f
000003a0: 4fe2 55be c4d9 48be c376 65be afc9 4e3f
000003b0: 6617 1b40 6d60 50bf b598 98be 87f0 463d
000003c0: 09b4 c33e 28d8 0dbf 2af0 e8be 8584 c43e
000003d0: d4dc 073f 2389 f83e a253 053c c69e 883d
000003e0: de9b 463a 46ee a93e fb76 ebbf f598 9b3e
000003f0: dedc e5bf 3607 27be 4b9e 3cbe ffe9 6bbd

fc1.bias f4 [44]
0.21442233 -0.15913324 -0.03248463 0.3644279 0.15363087 -0.108307905 -0.20080794 -0.89399666
-0.2389341 0.26759404 -0.48966047 0.31453714 -0.09790009 -0.5779351 -0.18100955 -0.14176191
-0.6281614 -0.121994026 -0.4911963 0.14745553 0.38945836 0.11830359 -0.026245948 -0.57209516
-0.7075219 -0.1040287 0.4193469 -0.24192767 -0.10288896 0.22782204 -0.32559946 0.15732026
-0.05972762 -0.08359198 0.22055185 -0.1273564 0.4470042 -0.87741226 -0.11158673 0.5308494
0.47632667 0.3268377 -0.07179965 -0.021449953
00000000: 8791 5b3e d3f3 22be 9a0e 05bd 4b96 ba3e
00000010: 6951 1d3e 89d0 ddbd 99a0 4dbe f7dc 64bf
00000020: 24ab 74be 1602 893e c7b4 fabe 030b a13e
00000030: d87f c8bd 8ef3 13bf 915a 39be 092a 11be
00000040: 2fcf 20bf 01d8 f9bd 157e fbbe 95fe 163e
00000050: 1667 c73e 2749 f23d be01 d7bc d474 12bf
00000060: 2820 35bf 000d d5bd a3b4 d63e e3bb 77be
00000070: 72b7 d2bd 2e4a 693e f9b4 a6be 9018 213e
00000080: f3a4 74bd 4632 abbd 58d8 613e b769 02be
00000090: bcdd e43e 179e 60bf 9587 e4bd bfe5 073f
000000a0: 17e1 f33e 4557 a73e b20b 93bd d0b7 afbc

fc2.weight_ih_l0 f4 [4, 44]
2.8196185 1.2960175 0.9107374 1.9366909 1.3610847 -0.07409992 1.7218969 -0.95846313
-1.239232 -0.35759327 -0.5030872 0.157258 0.60229594 -0.25990525 0.18350133 0.10492551
1.895758 0.19535287 -0.20889851 1.2741547 0.14849621 0.7533586 -0.78533685 0.25538167
-0.33903012 -1.3888794 2.145186 -0.42145616 -1.7603728 4.302463 0.54436034 -1.6422845
-0.9049413 0.5836146 1.0165194 -0.5794915 1.5945189 0.40994835 1.2606554 0.7415463
0.45081285 1.0585934 -0.84745187 -2.0424652 -1.7759479 -0.7481601 1.3347001 -2.290285
-1.2479895 0.41528657 -2.5604782 0.8744199 1.3143032 0.46984875 2.7443652 -3.2570176
0.06577711 0.76840574 0.8753659 0.7063179 -2.423888 0.050426174 -0.12155482 -3.990248
-0.43942338 0.49396572 -0.82147914 -3.189284 -1.5246181 -0.8799607 -1.991198 1.245394
0.12406142 -0.8406634 0.21102485 -0.81800675 2.231534 0.52236027 -1.028236 -0.62649083
-1.1657172 -0.99232966 -1.3123225 -0.6062987 -1.3928111 -0.551908 0.762723 -0.012582905
1.1970301 -2.055033 -0.9051134 -2.1564648 1.5024819 0.52039623 -2.8728447 0.81075835
-1.6892238 1.3525213 -0.14296795 -3.612513 -0.14441203 -1.0018294 -0.68697655 0.38357592
-0.15129018 0.74392134 1.0191169 -1.3580135 1.5449162 1.5730531 0.33826888 -1.1149632
-0.53407854 1.2191876 -2.951536 0.9156253 1.1220344 -0.6393711 -0.89438957 1.3098602
-1.4592241 0.35601002 -0.6803011 1.8339692 -2.1041877 -2.016451 0.7013226 1.2353975
0.041346043 -0.38402313 0.07177038 1.8326167 0.12426103 1.0845747 2.2615972 0.10370473
1.0254341 0.14002524 -1.0401572 1.1622913 -0.019681137 -0.9469076 0.6227988 2.0555327
-0.6930337 3.3673372 -0.08758142 0.20058584 1.2312456 -0.77009046 1.1530036 -1.7797713
0.8966756 0.23860934 3.434383 -1.7140148 1.3338964 -1.1963538 1.4449704 0.998059
-0.118714035 1.6025425 -0.82913077 -0.1624892 -0.18205452 -0.48127833 1.925824 -1.1727636
5.9314456 0.9949825 2.0699766 0.5519911 1.3537236 2.1415622 0.31612068 -1.3778744
00000000: a174 3440 e7e3 a53f 1626 693f 7de5 f73f
00000010: 0638 ae3f b3c1 97bd 1e67 dc3f d75d 75bf
00000020: 279f 9ebf 7716 b7be 53ca 00bf 3e08 213e
00000030: 1130 1a3f 4d12 85be c6e7 3b3e 30e3 d63d
00000040: 33a8 f23f 950a 483e 7ee9 55be 8017 a33f
00000050: 640f 183e 1cdc 403f d60b 49bf 63c1 823e
00000060: 5b95 adbe cdc6 b1bf ba4a 0940 1ac9 d7be
00000070: e553 e1bf c7ad 8940 335b 0b3f 6136 d2bf
00000080: 3caa 67bf c467 153f 4f1d 823f 8e59 14bf
00000090: 3219 cc3f c0e4 d13e 285d a13f fad5 3d3f
000000a0: f1d0 e63e fd7f 873f 9bf2 58bf c0b7 02c0
000000b0: 4352 e3bf 6c87 3fbf 74d7 aa3f 0894 12c0
000000c0: 1fbe 9fbf 71a0 d43e e0de 23c0 fcd9 5f3f
000000d0: 163b a83f 0490 f03e aea3 2f40 fa72 50c0
000000e0: 26b6 863d 3db6 443f fb17 603f 40d1 343f
000000f0: fb20 1bc0 ad8b 4e3d bcf1 f8bd 3960 7fc0
00000100: 1afc e0be 13e9 fc3e 754c 52bf 3b1d 4cc0
00000110: b026 c3bf 1b45 61bf 93df febf 1269 9f3f
00000120: ea13 fe3d b735 57bf e616 583e e468 51bf
00000130: 74d1 0e40 67b9 053f 3d9d 83bf b461 20bf
00000140: 3936 95bf 5109 7ebf 2ffa a7bf 6436 1bbf
00000150: a247 b2bf d849 0dbf d141 433f 8728 4ebc
00000160: 4838 993f a985 03c0 83b5 67bf 8503 0ac0
00000170: 5451 c03f b038 053f b0dc 37c0 dc8d 4f3f
00000180: 7c38 d8bf 6b1f ad3f 3166 12be 6a33 67c0
00000190: bfe0 13be f23b 80bf b2dd 2fbf 1064 c43e
000001a0: d0eb 1abe a171 3e3f 6c72 823f 63d3 adbf
000001b0: d0bf c53f ce59 c93f 9431 ad3e 1db7 8ebf
000001c0: 5fb9 08bf 570e 9c3f f7e5 3cc0 6b66 6a3f
000001d0: d39e 8f3f d3ad 23bf b7f6 64bf 80a9 a73f
000001e0: dbc7 babf f246 b63e 3628 2ebf 81bf ea3f
000001f0: 03ab 06c0 880d 01c0 e189 333f 8121 9e3f
00000200: 785a 293d ae9e c4be 59fc 923d 2f93 ea3f
00000210: 917c fe3d 58d3 8a3f 02be 1040 2563 d43d
00000220: 6d41 833f c762 0f3e df23 85bf f6c5 943f
00000230: 563a a1bc 8968 72bf be6f 1f3f d98d 0340
00000240: a86a 31bf 7482 5740 e35d b3bd 6066 4d3e
00000250: 7599 9d3f a624 45bf 9f95 933f 8ccf e3bf
00000260: 888c 653f 0256 743e eecc 5b40 d664 dbbf
00000270: 1ebd aa3f 1f22 99bf caf4 b83f cb80 7f3f
00000280: 5820 f3bd 1d20 cd3f ea41 54bf 9263 26be
00000290: 806c 3abe 1d6a f6be 6781 f63f 1e1d 96bf
000002a0: 67ce bd40 2cb7 7e3f 7f7a 0440 4a4f 0d3f
000002b0: d146 ad3f 5b0f 0940 92da a13e 305e b0bf

fc2.weight_hh_l0 f4 [4, 1]
2.9676692 0.45630842 0.13391224 0.67908406
00000000: 4bee 3d40 42a1 e93e 4a20 093e 74d8 2d3f

fc2.bias_ih_l0 f4 [4]
1.1960204 0.83443874 0.33453453 1.230147
00000000: 3217 993f c79d 553f 1c48 ab3e 7575 9d3f

fc2.bias_hh_l0 f4 [4]
1.6815994 0.7849749 -0.46338898 -0.0851756
00000000: a63e d73f 1df4 483f 5241 edbe 8c70 aebd

fc2.weight_ih_l0_reverse f4 [4, 44]
0.05310031 -0.8592933 1.4083627 -0.9463558 -2.6477563 -0.50489116 0.7101731 -1.8599982
-0.9815761 0.5493444 -1.4798801 -1.3154976 -0.39871815 1.2203557 0.3405859 0.2507888
1.1620058 -0.48690826 -1.5545086 -3.7639487 -0.45275512 -1.301555 -1.2456336 0.92733043
-1.2148248 0.7594397 0.92734534 -0.922054 -0.46394333 0.47596043 1.0101562 0.5711911
0.57545865 0.16351944 -1.1644024 0.4839959 0.25237316 0.42715138 0.40472445 -0.66866523
-0.097724654 -1.1613594 0.21070229 0.5107281 -0.058051683 0.19311792 0.7195887 -0.51664436
-0.116364524 0.5527838 0.10884525 -0.2533698 0.2679824 0.032357533 0.9792119 -1.7589662
-0.25958136 -0.46104082 0.6590592 0.07075262 -1.1449666 0.5152883 0.30783674 0.27120027
0.0566347 -0.107318714 -0.050809365 0.29994848 -0.67529684 -0.2678564 -0.4657145 -0.032939613
1.3962113 -0.6825583 0.7194152 -0.36704475 1.4387143 -0.29903838 -0.30966735 -0.052280385
0.53743917 -0.9386731 0.3728958 0.8016252 0.29895386 0.031883214 0.18277577 -0.16273704
0.9388008 -0.33675942 0.63049585 1.1396021 -2.7641609 -0.4461315 1.7827138 0.6784123
-0.2408909 0.5141882 -0.09756057 1.7627411 -0.8745513 -0.027764458 -0.042690687 0.35247064
-0.75679594 0.6053396 0.3378479 -2.3948762 -0.41583392 -1.0489885 -1.1904792 -0.75627136
-2.9345407 1.2480221 2.4753141 4.5028896 0.4302425 0.6903966 -1.5450124 1.1096104
-0.015806766 0.8623016 -0.8928779 0.5559856 2.4955661 -2.1064334 0.6531917 0.9400445
0.32611433 -0.9627088 0.90666276 -0.35773206 1.2264643 0.41816023 -0.70792437 -1.9202242
9.527979 0.69264865 -0.14307883 -0.16477711 0.5065056 0.6419909 -0.99971545 -0.24950045
-0.85318935 4.329314 0.73612094 -0.61671865 -0.99395555 -0.2382264 -1.5184824 3.8492506
-1.1437027 -0.020619603 0.77290404 0.18384524 -0.14887142 -0.9578199 0.014874868 0.11535219
-0.58694607 2.4501045 0.24523684 -0.8501443 -2.9470625 -0.48113963 -1.8722211 -0.17950498
-1.1060191 2.8096368 -0.76608914 -0.35112602 0.77262235 0.54569066 -0.50876784 -0.17249015
00000000: b67f 593d a5fa 5bbf 3b45 b43f 6044 72bf
00000010: d774 29c0 8c40 01bf e7cd 353f 6c14 eebf
00000020: 9248 7bbf d6a1 0c3f b66c bdbf 3a62 a8bf
00000030: c924 ccbe 9e34 9c3f 4661 ae3e 6467 803e
00000040: 9bbc 943f 0a4c f9be 23fa c6bf 89e4 70c0
00000050: 85cf e7be 5b99 a6bf ec70 9fbf 8765 6d3f
00000060: 617f 9bbf a46a 423f 8166 6d3f bb0b 6cbf
00000070: fb89 edbe 16b1 f33e cc4c 813f 9439 123f
00000080: 4251 133f a471 273e 230b 95bf 50ce f73e
00000090: 0e37 813e 96b3 da3e 0b38 cf3e a52d 2bbf
000000a0: dd23 c8bd 6da7 94bf 57c2 573e 14bf 023f
000000b0: 9ac7 6dbd b4c0 453e f736 383f ce42 04bf
000000c0: 8650 eebd 3d83 0d3f 42ea de3d b0b9 81be
000000d0: fd34 893e 5589 043d a2ad 7a3f ce25 e1bf
000000e0: d9e7 84be 8b0d ecbe 1bb8 283f c0e6 903d
000000f0: 448e 92bf efe9 033f c79c 9d3e c3da 8a3e
00000100: caf9 673d eac9 dbbd 7b1d 50bd d992 993e
00000110: 41e0 2cbf 7924 89be 2272 eebe b0eb 06bd
00000120: 0db7 b23f 24bc 2ebf 982b 383f 4aed bbbe
00000130: ca27 b83f 8f1b 99be b88c 9ebe f523 56bd
00000140: 9d95 093f e14c 70bf 33ec be3e 4f37 4d3f
00000150: 7b10 993e f997 023d 9229 3b3e 8aa4 26be
00000160: 4055 703f bb6b acbe 2d68 213f 7bde 913f
00000170: 03e8 30c0 596b e4be f72f e43f 6eac 2d3f
00000180: 1bac 76be d6a1 033f d6cd c7bd 80a1 e13f
00000190: 98e2 5fbf 4a72 e3bc 6edc 2ebd 0877 b43e
000001a0: 61bd 41bf 89f7 1a3f 66fa ac3e a745 19c0
000001b0: 2fe8 d4be 4145 86bf 9f61 98bf 009b 41bf
000001c0: 84cf 3bc0 30bf 9f3f 8c6b 1e40 ac17 9040
000001d0: bf48 dc3e d5bd 303f f7c2 c5bf b707 8e3f
000001e0: 317d 81bc ccbf 5c3f a593 64bf 1355 0e3f
000001f0: 5bb7 1f40 cecf 06c0 9237 273f c2a6 703f
00000200: 75f8 a63e 1574 76bf 0d1b 683f a828 b7be
00000210: c8fc 9c3f 1919 d63e 883a 35bf e8c9 f5bf
00000220: 9a72 1841 6c51 313f 4283 12be 55bb 28be
00000230: 5aaa 013f 8459 243f 5aed 7fbf 0c7d 7fbe
00000240: 9e6a 5abf be89 8a40 6c72 3c3f 46e1 1dbf
00000250: df73 7ebf 9ff1 73be a25d c2bf 1f5a 7640
00000260: da64 92bf 71ea a8bc 0add 453f ed41 3c3e
00000270: c071 18be af33 75bf b8b5 733c c53d ec3d
00000280: 1942 16bf 83ce 1c40 5e1f 7b3e 0fa3 59bf
00000290: ac9c 3cc0 ef57 f6be f1a4 efbf 27d0 37be
000002a0: 0992 8dbf 17d1 3340 6b1e 44bf cac6 b3be
000002b0: 94ca 453f 62b2 0b3f 9c3e 02bf 42a1 30be

fc2.weight_hh_l0_reverse f4 [4, 1]
-1.8623135 -1.000794 -0.07510125 1.7986243
00000000: 4a60 eebf 051a 80bf afce 99bd 5239 e63f

fc2.bias_ih_l0_reverse f4 [4]
-1.2120545 0.8897414 -0.006362478 1.3414385
00000000: 9a24 9bbf 18c6 633f 557c d0bb 42b4 ab3f

fc2.bias_hh_l0_reverse f4 [4]
-0.38570642 -0.1268204 -0.16489355 1.6790159
00000000: 507b c5be 35dd 01be dbd9 28be fee9 d63f

fc2.weight_ih_l1 f4 [4, 2]
-0.7396844 3.7998226 1.4288116 -2.4011972 0.77564347 2.4470582 1.170805 -0.59660476
00000000: f55b 3dbf 4b30 7340 4ce3 b63f 37ad 19c0
00000010: 9290 463f 9a9c 1c40 f0dc 953f 17bb 18bf

fc2.weight_hh_l1 f4 [4, 1]
-1.9816561 0.56161153 -0.08621379 -1.2127306
00000000: e8a6 fdbf c6c5 0f3f db90 b0bd c23a 9bbf

fc2.bias_ih_l1 f4 [4]
0.28549856 0.67017704 -0.04080168 1.248447
00000000: de2c 923e b990 2b3f aa1f 27bd 1ccd 9f3f

fc2.bias_hh_l1 f4 [4]
-0.5637931 0.12605536 -0.8217526 0.936686
00000000: bf54 10bf a814 013e 615e 52bf a7ca 6f3f

fc2.weight_ih_l1_reverse f4 [4, 2]
0.101482704 -4.0897894 -1.7323724 0.42959177 3.5181897 -2.5440078 -1.0471452 -3.010953
00000000: 2ad6 cf3d 8edf 82c0 61be ddbf 74f3 db3e
00000010: 052a 6140 06d1 22c0 db08 86bf 74b3 40c0

fc2.weight_hh_l1_reverse f4 [4, 1]
-0.067484684 2.295127 0.01794783 0.22704418
00000000: 6935 8abd 5ce3 1240 5407 933c 457e 683e

fc2.bias_ih_l1_reverse f4 [4]
1.1128322 -0.5100031 0.11640493 1.5583173
00000000: 4971 8e3f 908f 02bf b565 ee3d f176 c73f

fc2.bias_hh_l1_reverse f4 [4]
0.69457537 0.67858195 0.8809404 2.4815977
00000000: b1cf 313f 8cb7 2d3f 4f85 613f 7fd2 1e40

fc2.weight_ih_l2 f4 [4, 2]
-1.8105432 -2.445029 -3.036257 -0.1963529 -1.5454862 -0.7567132 -3.822239 -1.9181684
00000000: e1bf e7bf 5b7b 1cc0 0952 42c0 bc10 49be
00000010: 7ed2 c5bf f5b7 41bf 909f 74c0 8b86 f5bf

fc2.weight_hh_l2 f4 [4, 1]
-0.4948017 -0.8173512 0.007011334 1.7297682
00000000: a656 fdbe ee3d 51bf 55bf e53b 0b69 dd3f

fc2.bias_ih_l2 f4 [4]
-0.6922508 0.4545311 0.6258276 -0.49265665
00000000: 5937 31bf 4db8 e83e 3d36 203f 7e3d fcbe

fc2.bias_hh_l2 f4 [4]
-0.92234975 0.6637526 0.63409287 0.20980488
00000000: 1d1f 6cbf b1eb 293f e953 223f 17d7 563e

fc2.weight_ih_l2_reverse f4 [4, 2]
-1.2744745 -1.0463713 0.09330868 0.5440717 1.667261 -0.88583416 -1.1124072 -0.7869672
00000000: fb21 a3bf 7fef 85bf 9f18 bf3d 4848 0b3f
00000010: cf68 d53f 07c6 62bf 5c63 8ebf af76 49bf

fc2.weight_hh_l2_reverse f4 [4, 1]
0.5573705 0.6569235 0.45776197 -1.2673063
00000000: d5af 0e3f 232c 283f c75f ea3e 1837 a2bf

fc2.bias_ih_l2_reverse f4 [4]
-0.30017987 0.4001707 0.30549377 0.28291237
00000000: 2db1 99be 2de3 cc3e ae69 9c3e e4d9 903e

fc2.bias_hh_l2_reverse f4 [4]
0.42534283 0.17243803 -0.39379632 1.7734324
00000000: 89c6 d93e 9893 303e ac9f c9be d5ff e23f

combination_layer.weight f4 [2, 2]
0.6078574 0.5124205 6.833487 -1.7567464
00000000: 8b9c 1b3f fd2d 033f edab da40 11dd e0bf

combination_layer.bias f4 [2]
-0.72068065 0.95572704
00000000: 877e 38bf 87aa 743f

projection.weight f4 [1, 2]
-0.32907045 -1.7320609
00000000: ec7b a8be 2cb4 ddbf
