LSTMbest.pth (torch, 18462 bytes, 29 tensors)

fc1.weight f4 [44, 44]
0.13203703 0.34973198 -0.18370953 -0.011280356 -0.0927345 0.08840299 0.06734908 1.9385
0.881878 0.096143 0.144514 0.36244655 0.15812951 0.23063104 -0.049101315 0.0496929
0.19229834 0.07157896 -0.045388278 0.084829874 0.110207684 -0.042708922 0.1959226 0.11971162
0.08322942 0.1610641 0.11226943 -0.14134781 0.04200545 -0.11367122 0.21012169 -0.051942114
0.031494137 0.163102 0.057158224 0.08156536 0.12526123 -0.0332028 0.010959286 -0.16373788
-0.08175032 0.07208641 0.07077876 0.10863047 0.07400932 -0.1430802 0.011908739 -0.11664405
0.13909785 0.12692079 -0.06851571 0.046636786 -0.038770173 0.2171887 0.13537411 0.27390137
0.18286957 0.15184177 -0.066446744 0.086203255 0.45056558 0.15895157 -0.21517213 0.1195974
0.2814233 0.1439519 0.17039871 -0.0053522205 0.073989235 0.06268422 0.106373556 -0.07040206
-0.16278008 -0.15120101 0.0699879 -0.021623781 0.089686245 0.13949978 -0.024328263 0.070145346
0.08329275 0.06313232 0.119288705 -0.022236371 0.047142137 0.08548347 -0.081323 -0.08624745
0.079127096 -0.019692698 0.019341497 -0.028107986 -0.12592147 -0.19392256 -0.14504014 -0.07820999
-0.13324884 0.041853365 0.16258538 0.067943744 -0.044541687 0.017482923 -0.19830604 -0.045196593
-0.069247976 -0.16461177 -0.06248656 -0.14517392 -0.16737306 -0.073732264 -0.13069499 -0.037295878
-0.09188723 0.0338938 -0.14416672 -0.02798782 -0.17506132 -0.06905117 -0.15355136 -0.068061695
0.021267457 -0.13280758 -0.27738997 -0.03201023 0.045577884 -0.020255785 0.0976147 0.007427895
0.23875862 0.076806955 -0.007049808 -0.040492892 -0.1185954 0.20048413 -0.03471089 0.14038204
0.022186436 -0.014903926 0.08156539 2.1326554 0.8974428 -0.11920048 0.15471293 0.29511124
0.11458121 -0.08777687 -0.10228413 0.047232736 0.23800384 -0.1393098 -0.023742389 0.04321832
0.117169425 0.05285916 0.18609777 0.005311541 0.084854275 -0.13723156 0.019969773 0.044289276
-0.11642058 -0.11943921 0.17532319 0.0432572 0.48650855 -0.008921281 -0.09881076 -0.051886525
0.0036546905 0.049236614 0.0055804956 0.11707719 -0.08056631 -0.035912815 0.041430824 0.039796147
0.041314285 0.06940377 -0.07357168 0.20248015 -0.018614111 0.06123109 -0.09096263 -1.2739099
-0.40008643 0.15329358 0.017005445 -0.461829 -0.10655341 -0.09659419 -0.030196382 -0.058824368
-0.28577346 0.18798746 0.18520625 -0.1494245 -0.08588894 0.1609487 -0.18335208 0.16063572
-0.014326633 0.0052023055 -0.0014198925 0.02728124 0.21255152 0.25764447 -0.017845912 0.065556556
-0.14419268 0.15104425 -0.007770908 0.25458467 0.08185897 0.15781254 0.029693663 0.114918716
0.16639584 0.05922968 0.12908001 0.18454808 0.06487951 0.3364632 0.04821779 0.037684944
0.04713915 0.10402745 0.07000576 2.1789646 0.8716716 -0.09468269 0.06816381 0.44563943
0.07463817 0.13007568 -0.06549712 -0.010858145 0.1886997 -0.15575808 -0.19290657 0.23154695
0.012427706 -0.023789171 0.06467305 -0.018425949 0.18154842 -0.20334625 -0.040967006 -0.12638275
-0.06966621 0.10313765 0.2222331 0.1814409 0.7548645 -0.005509274 0.15102533 0.12981908
00000000: b734 073e 1210 b33e 5a1e 3cbe 3ed1 38bc
00000010: 96eb bdbd a00c b53d 51ee 893d c520 f83f
00000020: c2c2 613f 9fe6 c43d 7afb 133e 9892 b93e
00000030: b4ec 213e 8b2a 6c3e 761e 49bd c88a 4b3d
00000040: dbe9 443e fd97 923d 0fe9 39bd 49bb ad3d
00000050: 91b4 e13d 8def 2ebd ef9f 483e 5e2b f53d
00000060: 3074 aa3d fded 243e 84ed e53d 7bbd 10be
00000070: e80d 2c3d 75cc e8bd 242a 573e 41c1 54bd
00000080: ffff 003d 3604 273e be1e 6a3d bd0b a73d
00000090: 7b44 003e a9ff 07bd 948e 333c e7aa 27be
000000a0: b66c a7bd 0aa2 933d 74f4 903d a779 de3d
000000b0: 3392 973d 9e83 12be df1c 433c 13e3 eebd
000000c0: ab6f 0e3e 86f7 013e f751 8cbd 3706 3f3d
000000d0: 79cd 1ebd b766 5e3e 839f 0a3e cd3c 8c3e
000000e0: 2942 3b3e 697c 1b3e 3b15 88bd 558b b03d
000000f0: 88b0 e63e 33c4 223e 1556 5cbe 7bef f43d
00000100: b716 903e 2068 133e 007d 2e3e ae61 afbb
00000110: ab87 973d 9660 803d 61da d93d f52e 90bd
00000120: d2af 26be 70d4 1abe d155 8f3d 5b24 b1bc
00000130: 6cad b73d 08d9 0e3e 114c c7bc 5da8 8f3d
00000140: 6495 aa3d 854b 813d a34d f43d 0d29 b6bc
00000150: 1d18 413d f511 af3d ac8c a6bd 81a2 b0bd
00000160: 630d a23d 9552 a1bc 0f72 9e3c b842 e6bc
00000170: 8ff1 00be a393 46be 6785 14be 8f2c a0bd
00000180: 6272 08be 6f6e 2b3d c87c 263e 1726 8b3d
00000190: 5871 36bd 5938 8f3c bd10 4bbe 1020 39bd
000001a0: e2d1 8dbd fd8f 28be e8f1 7fbd 79a8 14be
000001b0: d863 2bbe f100 97bd e8d4 05be 90c3 18bd
000001c0: 5f2f bcbd 3ad4 0a3d 71a0 13be b646 e5bc
000001d0: 4643 33be b36a 8dbd 913c 1dbe ee63 8bbd
000001e0: 1739 ae3c b6fe 07be 0f06 8ebe 291d 03bd
000001f0: e0af 3a3d 76ef a5bc 37ea c73d b365 f33b
00000200: 247d 743e f74c 9d3d 1302 e7bb e0db 25bd
00000210: 25e2 f2bd b64b 4d3e 022d 0ebd 4fc0 0f3e
00000220: 54c0 b53c 992f 74bc c10b a73d 6d7d 0840
00000230: d0be 653f 621f f4bd 116d 1e3e d218 973e
00000240: 8ea9 ea3d 5cc4 b3bd 587a d1bd 1d77 413d
00000250: 47b7 733e 3aa7 0ebe 667f c2bc b105 313d
00000260: 86f6 ef3d d982 583d 6a90 3e3e 6f0c ae3b
00000270: 14c8 ad3d 6e86 0cbe a697 a33c ac68 353d
00000280: ea6d eebd 8b9c f4bd ec87 333e 762e 313d
00000290: a617 f93e 912a 12bc 4c5d cabd f786 54bd
000002a0: 8883 6f3b 55ac 493d 97dc b63b 2ac6 ef3d
000002b0: f3ff a4bd 5119 13bd 5eb3 293d 4901 233d
000002c0: 2b39 293d 9023 8e3d c0ac 96bd f556 4f3e
000002d0: 9f7c 98bc 74cd 7a3d 9e4a babd 7b0f a3bf
000002e0: 21d8 ccbe fef8 1c3e 014f 8b3c da74 ecbe
000002f0: ad38 dabd 2dd3 c5bd 675e f7bc d2f1 70bd
00000300: e650 92be c97f 403e b5a6 3d3e bc02 19be
00000310: 8ae6 afbd bccf 243e a6c0 3bbe b17d 243e
00000320: 41ba 6abc 1a78 aa3b b01b baba e87c df3c
00000330: 1ba7 593e fae9 833e 9731 92bc 8442 863d
00000340: 3fa7 13be 58ab 1a3e 1aa3 febb ec58 823e
00000350: ada5 a73d 9c99 213e 2040 f33c 815a eb3d
00000360: ac63 2a3e d29a 723d 8d2d 043e 2cfa 3c3e
00000370: 8cdf 843d e844 ac3e 0480 453d 875b 1a3d
00000380: fb14 413d 580c d53d 2e5f 8f3d 2874 0b40
00000390: df25 5f3f 00e9 c1bd 7899 8b3d da2a e43e
000003a0: e6db 983d 8f32 053e 5b23 86bd 5ce6 31bc
000003b0: 7f3a 413e 0c7f 1fbe 4d89 45be a51a 6d3e
000003c0: 949d 4b3c 82e1 c2bc 4e73 843d 04f2 96bc
000003d0: d4e7 393e 003a 50be 05cd 27bd 7b6a 01be
000003e0: 28ad 8ebd d539 d33d 1391 633e a5cb 393e
000003f0: cd3e 413f 2487 b4bb 62a6 1a3e 4bef 043e

fc1.bias f4 [44]
-0.05596105 -0.019038264 -0.105135605 -0.046386722 0.11745807 -0.06104892 -0.12732442 -0.038671266
0.13260661 0.16026899 -0.18483546 -0.06474468 -0.12863897 0.28678128 -0.1862438 0.07970079
-0.0028644556 -0.003951885 0.06509803 -0.14133173 0.023778766 0.06605326 0.1866922 0.08287713
-0.0069027785 0.2637639 0.29323402 0.14756835 -0.14128326 0.09401397 -0.18423805 0.0006765063
0.13661756 0.18030392 -0.041234475 -0.11754079 0.025211431 -0.038119268 -0.12079657 -0.13548584
-0.1402795 0.046770975 0.032093316 -0.17982388
00000000: 6a37 65bd 22f6 9bbc 5651 d7bd 0100 3ebd
00000010: db8d f03d 6f0e 7abd 5561 02be c365 1ebd
00000020: 07ca 073e 8e1d 243e 8245 3dbe dc98 84bd
00000030: efb9 03be ffd4 923e b2b6 3ebe 2b3a a33d
00000040: 97b9 3bbb d07e 81bb 1e52 853d 44b9 10be
00000050: b0cb c23c ee46 873d 3d2c 3f3e 7cbb a93d
00000060: b430 e2bb 100c 873e c522 963e 281c 173e
00000070: 8fac 10be 658a c03d e6a8 3cbe 9257 313a
00000080: 79e5 0b3e 97a1 383e 7be5 28bd 3ab9 f0bd
00000090: 3488 ce3c f322 1cbd 3164 f7bd cdbc 0abe
000000a0: 6ea5 0fbe ec92 3f3d 4874 033d c023 38be

fc2.weight_ih_l0 f4 [4, 44]
-0.19119339 -0.037754107 0.34262088 -0.046067685 -0.82081896 -0.56861997 0.0587537 -0.6916519
0.85593206 1.1252904 0.6538639 -0.4988644 -0.83295494 0.8933955 -0.7591962 0.89013284
-0.23683101 0.049523808 0.18684708 -0.14531939 -0.39409667 0.41298664 -0.12374102 0.93437237
-0.6691476 0.27893794 1.0396298 0.47455844 0.50128186 1.3155098 0.0040576635 -0.5514597
0.19608866 -0.91623867 -0.8594958 0.5202566 1.0215442 -0.7517007 0.70479757 -0.16673931
-0.5610238 1.0937117 -0.2024478 -0.89540726 -0.5792018 0.51041234 -0.7685835 0.4681603
-0.75215954 0.55892736 0.18529107 0.7279482 0.61409736 -0.24185051 0.14208046 0.4503854
0.045011263 -0.4297586 0.4130595 0.7280445 -0.14673005 -0.3001918 -0.19731252 0.46081775
0.106860496 0.9239845 -0.83545125 -0.75937885 0.87999076 -0.39230287 0.5300811 0.049278915
-0.9699411 0.48442423 -0.91679275 0.5360999 -0.426234 -0.47486398 0.30549714 0.8250307
0.08235274 0.6854468 -0.054116566 -0.025054527 -0.8177975 0.6747433 -0.1836275 -0.9131269
0.94351554 -0.25587773 -0.28019896 -0.27683896 0.9777322 0.6980738 -0.91710365 0.009954667
-0.029219914 -0.34808135 0.54195 0.11671428 -0.5543808 -1.0611105 -0.737193 0.36212906
1.0885714 -0.6676706 -0.17272274 -0.92962563 -0.8629199 0.9597491 -0.21669611 1.0763818
0.22819613 -0.381674 -0.72858363 -0.3603627 0.29108596 -0.2738841 -0.15946643 0.55347365
-0.22768795 0.425576 0.84168905 -0.5010223 0.84667486 0.6181461 -0.9368881 0.43011308
-0.26572707 -0.1380723 0.18558916 -0.17491446 -0.42899084 0.5260852 -0.49592137 -0.08859641
-0.25426003 1.1244545 -0.57870495 -0.11295922 -0.29378882 1.1236562 0.7011793 -0.5891862
-0.33860117 1.1212946 0.27885222 -0.41420978 0.6497209 0.9619044 1.0424397 0.7361635
0.012838085 -0.18394946 0.12360872 0.8600021 -0.40965337 0.12221026 1.1317182 0.7369765
-0.097447604 0.028992346 0.21648501 -0.13813075 0.15528372 -0.59076947 0.71489704 -0.30177858
-0.6329584 -0.12553307 -0.51757884 0.6600204 -0.74050075 -0.23850401 -0.81064224 -0.3900735
00000000: 33c8 43be 0da4 1abd 016c af3e 78b1 3cbd
00000010: 3121 52bf 1491 11bf b8a7 703d 1910 31bf
00000020: 5d1e 5b3f 8409 903f a063 273f 286b ffbe
00000030: 893c 55bf 91b5 643f af5a 42bf bfdf 633f
00000040: d483 72be 7ad9 4a3d d754 3f3e 9bce 14be
00000050: 0ac7 c9be fc72 d33e ef6b fdbd 0733 6f3f
00000060: 424d 2bbf f4d0 8e3e 9712 853f 53f9 f23e
00000070: 0254 003f a062 a83f 26f6 843b 772c 0dbf
00000080: 77cb 483e 9e8e 6abf eb07 5cbf 892f 053f
00000090: f6c1 823f 756f 40bf 9d6d 343f b6bd 2abe
000000a0: 419f 0fbf bffe 8b3f 7a4e 4fbe 6939 65bf
000000b0: 9246 14bf 62aa 023f e3c1 44bf b5b2 ef3e
000000c0: 878d 40bf dd15 0f3f f1bc 3d3e d05a 3a3f
000000d0: 7c35 1d3f a9a7 77be 8a7d 113e ea98 e63e
000000e0: bb5d 383d 5209 dcbe 897c d33e 2061 3a3f
000000f0: 6740 16be bdb2 99be 4b0c 4abe 4ef0 eb3e
00000100: add9 da3d 408a 6c3f 22e0 55bf a766 42bf
00000110: 1347 613f ecdb c8be 65b3 073f b0d8 493d
00000120: 0f4e 78bf 7406 f83e eeb2 6abf d83d 093f
00000130: 583b dabe 5f21 f3be 1f6a 9c3e 3635 533f
00000140: 8ea8 a83d 7179 2f3f 55a9 5dbd 273f cdbc
00000150: 2d5b 51bf fabb 2c3f d908 3cbe afc2 69bf
00000160: 3c8a 713f 6802 83be 3d76 8fbe d6bd 8dbe
00000170: a84c 7a3f f7b4 323f 4ec7 6abf e618 233c
00000180: 9a5e efbc b837 b2be 3cbd 0a3f e507 ef3d
00000190: e6eb 0dbf 78d2 87bf aeb8 3cbf fb68 b93e
000001a0: 4f56 8b3f 76ec 2abf 3bde 30be f2fb 6dbf
000001b0: 52e8 5cbf 1eb2 753f 96e5 5dbe e1c6 893f
000001c0: 3fac 693e c66a c3be 7584 3abf 7681 b8be
000001d0: 3809 953e 893a 8cbe 2b4b 23be 73b0 0d3f
000001e0: 0827 69be 19e5 d93e ef78 573f ff42 00bf
000001f0: afbf 583f d33e 1e3f e6d7 6fbf c837 dc3e
00000200: 610d 88be d362 0dbe 160b 3e3e c71c 33be
00000210: b0a4 dbbe 85ad 063f 68e9 fdbe 0972 b5bd
00000220: 5f2e 82be 20ee 8f3f 0226 14bf 2a57 e7bd
00000230: 7d6b 96be f7d3 8f3f 7d80 333f e8d4 16bf
00000240: 225d adbe 9586 8f3f b8c5 8e3e 4e13 d4be
00000250: 1c54 263f 5e3f 763f aa6e 853f 3675 3c3f
00000260: d556 523c 3f5d 3cbe 9226 fd3d 1929 5c3f
00000270: 16be d1be 5f49 fa3d 24dc 903f 7eaa 3c3f
00000280: 9c92 c7bd 5b81 ed3c 3fae 5d3e 2672 0dbe
00000290: b202 1f3e ab3c 17bf 7e03 373f b982 9abe
000002a0: 9009 22bf be8b 00be 0c80 04bf 19f7 283f
000002b0: 7591 3dbf 653a 74be 4086 4fbf b7b7 c7be

fc2.weight_hh_l0 f4 [4, 1]
0.2500305 -0.85600483 0.053785436 0.5837989
00000000: ff03 803e 2223 5bbf 1e4e 5c3d d873 153f

fc2.bias_ih_l0 f4 [4]
0.6712292 0.7218055 -0.6711757 1.1155614
00000000: add5 2b3f 3fc8 383f 2cd2 2bbf b7ca 8e3f

fc2.bias_hh_l0 f4 [4]
-0.83018535 -0.59651965 -0.118472144 0.9458982
00000000: 0787 54bf 83b5 18bf 86a1 f2bd 6226 723f

fc2.weight_ih_l0_reverse f4 [4, 44]
0.8033892 -0.7252923 -0.61738795 1.0937656 0.6894467 0.47587433 -0.48574477 1.2796444
-0.28061512 0.18921952 -0.12545739 -0.9037896 -0.4773687 1.25909 0.18985592 -0.6140174
0.023659647 0.11617682 -0.31418258 0.67607003 0.560496 0.46434054 -0.72610694 1.175206
0.49302545 0.040288717 -0.8967744 -0.16516614 0.18310015 1.4566398 0.45369825 0.7610033
-0.039648186 -1.0330409 -0.02316721 -0.7103987 -0.44141328 0.8222614 -0.15242848 0.12885907
0.065055855 -0.016029201 -0.828693 -0.81410986 -0.54639447 1.1399107 0.5252551 -0.26616728
-0.6181272 0.0319142 -0.7657637 0.4648609 -0.0074282642 0.57924896 -0.112127475 -0.94296324
-0.9307923 -0.37024894 -0.023390431 0.752292 -0.6709746 0.19817035 1.0122826 0.80591494
0.85839343 0.7929816 -0.81596863 -0.26231253 0.12558712 1.0548825 1.1910983 -0.24561259
0.21077302 -0.6798644 0.8325993 -0.86858535 -0.2607635 0.14260519 -0.3977806 0.6264877
0.17995416 0.7751523 -0.46192783 -0.68225485 -0.8410984 -0.6709862 0.64174664 -0.47684458
-0.6683947 -0.30730307 0.09298476 -0.4917656 0.6306915 -0.34073853 -0.13615586 -0.6101712
0.2542414 -0.7759873 0.44282588 -0.32106167 0.14116786 -1.0107596 0.9206995 -0.28626153
0.20457457 0.14355029 0.7012741 0.8005424 0.60312045 0.11450277 0.062567234 -0.62348723
0.8700208 -0.037265334 0.24186155 -0.5111537 0.29107544 -0.831974 -0.5927869 -0.92224884
0.6733637 0.09022484 -0.9296745 0.7648725 0.92414105 0.30267602 -0.69556487 -0.37283844
-0.47257674 -0.45037368 0.25722504 0.1076169 1.3073375 0.8577291 -0.36479196 1.0053997
1.2342092 0.6546974 0.3570551 -0.29871196 1.0571251 0.2821085 0.24230915 0.49353945
0.29361027 0.14528763 0.7982408 0.4762396 0.6087061 1.0950056 0.88795155 0.05721159
1.0479826 -0.4507695 -0.75124025 0.8887362 0.9105092 1.3113607 -0.19223294 1.1236668
-0.61191773 1.1348151 0.30197722 -0.29023132 0.25933462 0.6789194 0.1581003 -0.53061473
0.26784328 0.36514232 0.2444608 -0.6703553 -0.93665236 0.8016973 0.17297938 0.37043166
00000000: eaaa 4d3f c2ac 39bf 230d 1ebf 8300 8c3f
00000010: 947f 303f cda5 f33e 8ab3 f8be 63cb a33f
00000020: c9ac 8fbe c3c2 413e e777 00be c15e 67bf
00000030: ac69 f4be dc29 a13f 9769 423e 3f30 1dbf
00000040: e0d1 c13c 1dee ed3d 8adc a0be ed12 2d3f
00000050: aa7c 0f3f 0bbe ed3e 25e2 39bf 266d 963f
00000060: d56d fc3e c805 253d 0293 65bf 5021 29be
00000070: 9b7e 3b3e 2c73 ba3f 234b e83e 1dd1 423f
00000080: 2366 22bd af3a 84bf 29c9 bdbc b0dc 35bf
00000090: ec00 e2be b97f 523f 3616 1cbe a2f3 033e
000000a0: 013c 853d ac4f 83bc 3925 54bf 8169 50bf
000000b0: 82e0 0bbf 98e8 913f 1e77 063f 1447 88be
000000c0: 963d 1ebf 77b8 023d 1709 44bf 3f02 ee3e
000000d0: cc68 f3bb a949 143f 17a3 e5bd 0a66 71bf
000000e0: 6748 6ebf 4591 bdbe 4a9d bfbc 3596 403f
000000f0: fec4 2bbf 2bed 4a3e 7a92 813f 7150 4e3f
00000100: acbf 5b3f d800 4b3f 52e3 50bf d44d 86be
00000110: e999 003e 6406 873f e975 983f de81 7bbe
00000120: e2d4 573e 980b 2ebf 3a25 553f 9c5b 5ebf
00000130: cb82 85be 1807 123e e6a9 cbbe 7f61 203f
00000140: e745 383e 6270 463f ce81 ecbe 41a8 2ebf
00000150: 3a52 57bf c0c5 2bbf 8249 243f f924 f4be
00000160: ea1b 2bbf d456 9dbe cb6e be3d b3c8 fbbe
00000170: 0075 213f 4875 aebe 716c 0bbe 2e34 1cbf
00000180: ee2b 823e 1ba7 46bf 13ba e23e 3262 a4be
00000190: 4f8e 103e 9260 81bf f6b2 6b3f df90 92be
000001a0: ff7b 513e d9fe 123e b386 333f 59f0 4c3f
000001b0: 1a66 1a3f 6e80 ea3d 4023 803d dc9c 1fbf
000001c0: afb9 5e3f 89a3 18bd 8eaa 773e f8da 02bf
000001d0: d707 953e 40fc 54bf e2c0 17bf 8018 6cbf
000001e0: 9061 2c3f cdc7 b83d 26ff 6dbf afce 433f
000001f0: 8294 6c3f 5af8 9a3e 8a10 32bf aee4 bebe
00000200: 94f5 f1be 6197 e6be 00b3 833e 4066 dc3d
00000210: d656 a73f 2294 5b3f 03c6 babe f0b0 803f
00000220: 91fa 9d3f 409a 273f edcf b63e c6f0 98be
00000230: e04f 873f 8670 903e e41f 783e 34b1 fc3e
00000240: 1654 963e 48c6 143e 8259 4c3f add5 f33e
00000250: 2ad4 1b3f 2529 8c3f cb50 633f b356 6a3d
00000260: 4b24 863f 43cb e6be 4851 40bf 3784 633f
00000270: 2217 693f abda a73f b6d8 44be 50d4 8f3f
00000280: a4a6 1cbf 9f41 913f c29c 9a3e 3399 94be
00000290: 82c7 843e a9cd 2d3f 0ce5 213e 5ed6 07bf
000002a0: c122 893e eff3 ba3e ef53 7a3e 689c 2bbf
000002b0: 73c8 6fbf 093c 4d3f 8221 313e 38a9 bd3e

fc2.weight_hh_l0_reverse f4 [4, 1]
-0.5876027 0.3680678 -0.22952595 -0.19314939
00000000: 216d 16bf 6273 bc3e da08 6bbe f4c8 45be

fc2.bias_ih_l0_reverse f4 [4]
-0.996709 0.90298426 0.94417566 -0.0561166
00000000: 5228 7fbf fa29 673f 7fb5 713f 85da 65bd

fc2.bias_hh_l0_reverse f4 [4]
-0.39699516 -0.5273869 -0.49399683 -0.030321553
00000000: f342 cbbe d402 07bf 27ed fcbe e864 f8bc

fc2.weight_ih_l1 f4 [4, 2]
0.41399485 -0.7607375 -0.12603894 0.22756508 0.80584157 -0.41888762 1.2352468 -0.032842107
00000000: 22f7 d33e b1bf 42bf 5a10 01be d206 693e
00000010: a24b 4e3f 7078 d6be 911c 9e3f 7285 06bd

fc2.weight_hh_l1 f4 [4, 1]
0.40472373 0.2699085 0.27319464 0.019889953
00000000: f337 cf3e 7231 8a3e 2be0 8b3e 41f0 a23c

fc2.bias_ih_l1 f4 [4]
-0.8433157 0.09353528 0.15552959 0.89869773
00000000: 8ae3 57bf 6d8f bf3d 2643 1f3e 0e11 663f

fc2.bias_hh_l1 f4 [4]
-0.8543825 0.3324543 -0.021465613 -0.06370463
00000000: d0b8 5abf 7337 aa3e a7d8 afbc 9377 82bd

fc2.weight_ih_l1_reverse f4 [4, 2]
-0.14065877 -1.2214478 -0.16861078 -1.5863856 -0.7319191 0.6808581 -0.78360575 -1.1315237
00000000: da08 10be 6758 9cbf 4ea8 2cbe af0e cbbf
00000010: 0d5f 3bbf b74c 2e3f 639a 48bf c5d5 90bf

fc2.weight_hh_l1_reverse f4 [4, 1]
0.6004988 0.5813139 0.08656121 -0.38350427
00000000: 4aba 193f fdd0 143f 0147 b13d ac5a c4be

fc2.bias_ih_l1_reverse f4 [4]
0.27226692 -0.6143739 -0.36872867 0.8140656
00000000: 9266 8b3e 9c47 1dbf 01ca bcbe 9a66 503f

fc2.bias_hh_l1_reverse f4 [4]
0.8014699 0.71851575 0.12036835 1.014802
00000000: 222d 4d3f a6f0 373f ae83 f63d 08e5 813f

fc2.weight_ih_l2 f4 [4, 2]
-0.99253225 0.19987059 -1.0314748 0.48646033 0.82480365 -0.8485567 0.18275715 1.2189002
00000000: 9816 7ebf e0aa 4c3e 5e07 84bf 5411 f93e
00000010: 5526 533f 033b 59bf b124 3b3e ec04 9c3f

fc2.weight_hh_l2 f4 [4, 1]
-0.14745797 -1.2753701 0.6364483 -0.03605745
00000000: 39ff 16be 543f a3bf 47ee 223f fab0 13bd

fc2.bias_ih_l2 f4 [4]
0.36607155 0.25693524 0.24343213 1.3058454
00000000: bb6d bb3e 048d 833e 4646 793e f125 a73f

fc2.bias_hh_l2 f4 [4]
0.7423741 -0.8902285 -0.39931542 1.0635909
00000000: 3b0c 3e3f 04e6 63bf 1273 ccbe bf23 883f

fc2.weight_ih_l2_reverse f4 [4, 2]
0.027962003 0.7186883 -0.3102445 1.137496 0.7011621 -0.3377376 -0.24076328 1.4882421
00000000: 9210 e53c f5fb 373f 5ed8 9ebe 7899 913f
00000010: 5c7f 333f f1eb acbe a68a 76be b87e be3f

fc2.weight_hh_l2_reverse f4 [4, 1]
0.17944102 -0.15652382 1.1010678 0.08343248
00000000: 63bf 373e c847 20be caef 8c3f a6de aa3d

fc2.bias_ih_l2_reverse f4 [4]
0.308408 0.5113895 -0.97705805 -0.48691556
00000000: a7e7 9d3e 6cea 023f 7a20 7abf ff4c f9be

fc2.bias_hh_l2_reverse f4 [4]
1.2464645 0.6032636 0.44282693 1.2047601
00000000: 268c 9f3f 7c6f 1a3f 36ba e23e 9435 9a3f

combination_layer.weight f4 [2, 2]
0.55050814 0.31905952 -1.7309899 -1.4473574
00000000: 1aee 0c3f c55b a33e 1491 ddbf 0243 b9bf

combination_layer.bias f4 [2]
0.7820939 0.9482883
00000000: 4e37 483f 06c3 723f

projection.weight f4 [1, 2]
0.9331536 -1.4553111
00000000: 28e3 6e3f a247 babf
