LSTM.pth (torch, 14038 bytes, 29 tensors)

fc1.weight f4 [32, 32]
0	0x401f6926	2.4907928
1	0xbe9c2b55	-0.3050181
2	0x3fd58e66	1.6684082
3	0x3eb61631	0.35563806
4	0x41a7c1d1	20.969637
5	0xbfbfe12a	-1.499059
6	0x3fe089f6	1.7542102
7	0x3f80872f	1.0041255
8	0xbf357181	-0.7087632
9	0xbf1d2193	-0.61379355
10	0x3fd03fb7	1.6269444
11	0x3f5782b9	0.8418384
12	0x3e852743	0.26006517
13	0xbed4bfd9	-0.41552618
14	0xbf82c0c6	-1.021508
15	0xbf4801b1	-0.7812758
16	0xbedf8857	-0.43658707
17	0xbf18ba73	-0.596595
18	0x40ce555d	6.4479203
19	0xbf515cf0	-0.81782436
20	0x3e69c552	0.22829178
21	0xbe2cff1a	-0.16894189
22	0xbf308166	-0.68947446
23	0x3f7e81b3	0.99416655
24	0x3ee4b5f7	0.44670078
25	0xbfb8f5cc	-1.4450011
26	0xbfd9cffc	-1.7016597
27	0xbfede245	-1.8584677
28	0xbf960b91	-1.172228
29	0xbfb8e2be	-1.4444196
30	0xbf7675f8	-0.96273756
31	0xbfa2ebe2	-1.2728236
32	0xbfc6bd0f	-1.5526446
33	0xbf289ce2	-0.65864384
34	0x408d391f	4.413223
35	0x400a2c73	2.158963
36	0xc0912abe	-4.5364676
37	0xbe977e88	-0.29588723
38	0x40998459	4.7974057
39	0xbe2128cd	-0.1573822
40	0xbf9aed08	-1.2103586
41	0xbe9fcb9e	-0.31210035
42	0x400c04de	2.187797
43	0x3f17e7dc	0.59338164
44	0x3f30aeb0	0.6901655
45	0xbfde33c2	-1.7359545
46	0xbed0b501	-0.40763095
47	0xbf538d54	-0.82637525
48	0xbf51bad8	-0.81925726
49	0xbf75d416	-0.9602674
50	0xc00e340f	-2.2219274
51	0xc0532bcc	-3.2995481
52	0x3f044c4f	0.5167894
53	0xbf3f2ba6	-0.7467598
54	0x3ebb9eac	0.36644495
55	0xbe8dd460	-0.27701092
56	0x3deea5cb	0.11652716
57	0xbfbbf259	-1.4683334
58	0x3be4b3fd	0.006979464
59	0xbe8eb9cc	-0.27876127
60	0xbe98de86	-0.29857272
61	0x3eabae20	0.33531284
62	0xbd53fba4	-0.051753655
63	0xbf07dd5a	-0.5307213
64	0xbd451c3b	-0.048122626
65	0xbe00da36	-0.12583241
66	0xbe41996e	-0.18906185
67	0xbdef2314	-0.116766125
68	0x3d8ab9c1	0.06773711
69	0x3d229137	0.03968927
70	0xbe385847	-0.18002425
71	0xbe197506	-0.14986047
72	0xbd9ce680	-0.07661152
73	0x3d5b8a20	0.053598523
74	0xbde8a586	-0.11359696
75	0x3d07571c	0.03304206
76	0xbbe54731	-0.006997012
77	0xbe46a8ac	-0.1940028
78	0x3d2610f2	0.040543504
79	0xbdf6e76d	-0.1205586
80	0xbd910cf2	-0.07082547
81	0xbe68216a	-0.22668996
82	0x3cc1400d	0.023590112
83	0xbddefe24	-0.10888317
84	0xbd51c7b7	-0.051215854
85	0xbd563a62	-0.052301772
86	0x3ce5558a	0.02799489
87	0xbde6b242	-0.11264469
88	0x3cbc4897	0.022983832
89	0xbcef7880	-0.029232264
90	0xbb0d402c	-0.0021553142
91	0x3ddc8954	0.10768381
92	0x3d6d04fd	0.057866085
93	0x3d95155e	0.07279466
94	0xbd8afd79	-0.06786627
95	0xbd6f6231	-0.058443252
96	0xbe23ccc1	-0.15996076
97	0xbd619e92	-0.055082865
98	0x3dec0024	0.11523464
99	0x3d015ace	0.03158074
100	0x3de0077f	0.1093893
101	0x3d83f15f	0.06442522
102	0x3d393b3d	0.04522251
103	0x3cfdf9d0	0.031002909
104	0xbe3454e1	-0.17610504
105	0xbd33d30b	-0.043902438
106	0x3db4b21d	0.08823035
107	0x3d87cadf	0.066304915
108	0xbe402e3b	-0.18767636
109	0x3dbe43ed	0.092902996
110	0xbe3fe7e1	-0.18740799
111	0xbe21b0c2	-0.15790084
112	0xbe3cbe76	-0.1843203
113	0x3d016648	0.031591684
114	0xbde008d3	-0.10939183
115	0xbdb82f88	-0.08993441
116	0x3dd79bf1	0.1052779
117	0xbd79ff2b	-0.061034363
118	0x3d6cda77	0.05782553
119	0xbe317eda	-0.17333546
120	0xbe23e964	-0.16007
121	0xbe2aae64	-0.16668087
122	0x3d923855	0.07139651
123	0xbdd395ea	-0.10331328
124	0xbd2b1747	-0.041770246
125	0x3da2c7f9	0.07948298
126	0x3d9bcc84	0.07607368
127	0xbe2bb670	-0.16768813
128	0x3f78f1d7	0.9724402
129	0x3e5f1bb3	0.2178791
130	0xbf8ab3cc	-1.083612
131	0xbea2cc39	-0.31796435
132	0xc07f7ee1	-3.992119
133	0xc0ce0ec5	-6.439303
134	0xc0665589	-3.5989707
135	0x3fcd4c74	1.6038957
136	0x3f8d144b	1.1021818
137	0xbf2b4010	-0.66894627
138	0x3f1ac76f	0.6046056
139	0xbf59e7de	-0.85119426
140	0xbf14772d	-0.5799435
141	0x401a219f	2.408302
142	0xc0de3372	-6.94378
143	0xc0bfd5e4	-5.9948597
144	0xc0bfc55e	-5.9928427
145	0xc0bd293b	-5.911283
146	0x404b1bda	3.173575
147	0xbf9187e4	-1.1369596
148	0xbf5db2fe	-0.86601245
149	0x3f1300fc	0.5742338
150	0xc0c6a520	-6.207657
151	0xc01288d0	-2.2896004
152	0xc0033135	-2.0498784
153	0x40b8e973	5.778497
154	0x40b39238	5.611599
155	0x40ba18bf	5.815521
156	0x3e5158e5	0.20444067
157	0x40b3ea9f	5.6223903
158	0x40c4004b	6.125036
159	0x4081e058	4.0586357
160	0xbf2540ab	-0.645518
161	0x3ee4e2e9	0.4470437
162	0xc0a694de	-5.2056723
163	0xbf1872da	-0.5955025
164	0x415ecea0	13.925446
165	0xbdce3494	-0.10068622
166	0x4069dfa7	3.6542757
167	0xbf058d96	-0.5216917
168	0x3f1094c1	0.5647698
169	0xbf225400	-0.63409424
170	0x3fcd2adf	1.6028708
171	0xbeec35ea	-0.46134883
172	0x3ef5d27a	0.48012143
173	0x3e98b627	0.2982647
174	0xbc1f272a	-0.009713927
175	0xc0103019	-2.2529356
176	0xbfde53c7	-1.7369317
177	0xbfcd1dc0	-1.6024704
178	0x3e509266	0.20368347
179	0xbce15ccc	-0.02751007
180	0x3e2de5e9	0.16982235
181	0x3f07575c	0.52867675
182	0x3fb1db52	1.3895056
183	0x3f118094	0.5683682
184	0x3efd355b	0.4945477
185	0xbfd2f2a1	-1.6480294
186	0xbf865b0c	-1.0496535
187	0xbf21da42	-0.6322366
188	0xbdc93733	-0.098249815
189	0xbfba554f	-1.4557284
190	0xbf966166	-1.1748474
191	0xbf47eebe	-0.78098667
192	0xc05372d7	-3.3038843
193	0xc090cbcb	-4.524877
194	0xbec690a8	-0.3878224
195	0x40498802	3.1489263
196	0x3f5cf861	0.86316496
197	0xbf8e7a01	-1.1130983
198	0x3ff6358d	1.9235092
199	0x3bfeca59	0.0077755866
200	0xc0917883	-4.545961
201	0xbf218ae7	-0.63102573
202	0xc0407d4b	-3.0076473
203	0x3f8ca1d7	1.098689
204	0xbec6f180	-0.38856125
205	0xbec47b15	-0.38375154
206	0x3e89dc8a	0.2692607
207	0xc000a4ba	-2.010054
208	0xbffe4990	-1.98662
209	0xc00078b6	-2.0073676
210	0xc10f434a	-8.953928
211	0xbfee27f1	-1.8605939
212	0x3e904b51	0.28182462
213	0xbfa0744d	-1.2535492
214	0xbe44a694	-0.1920417
215	0xbf289d5c	-0.6586511
216	0xbf60f455	-0.8787282
217	0x3fc60764	1.5471005
218	0x40214a10	2.5201454
219	0x40285775	2.630338
220	0x4027141b	2.6106021
221	0x3fc431d7	1.532771
222	0x4016c53f	2.355789
223	0x3fe527f1	1.7902814
224	0xc0b38424	-5.6098804
225	0x3c097a0c	0.008390915
226	0xc028bea7	-2.6366365
227	0xbf1e3068	-0.6179261
228	0x3fbe1b5e	1.4852102
229	0x3f5a9410	0.85382175
230	0x403086c7	2.7582262
231	0xbf574c76	-0.84101045
232	0x3f3eca51	0.7452746
233	0xbf6d223f	-0.9263038
234	0xbec7fd65	-0.39060512
235	0x3ee9048f	0.4551129
236	0x3ffb5c02	1.9637454
237	0xbe9dcb8d	-0.3081936
238	0x3e4e54c0	0.20149517
239	0xbf391f9f	-0.72313875
240	0xbf1f819c	-0.62307143
241	0xbeceefe0	-0.40417385
242	0xc04c6531	-3.1936762
243	0xbe9c4818	-0.30523753
244	0xc02de077	-2.7168252
245	0x3f2a9241	0.66629416
246	0xc01ac719	-2.418402
247	0x3efdaae2	0.49544436
248	0x3f15b280	0.58475494
249	0x401255b6	2.2864814
250	0x3d35a43b	0.044346076
251	0x3dc5ade7	0.0965231
252	0x3dc71c88	0.09722239
253	0x3e6a0c60	0.22856283
254	0xbf1da1aa	-0.61574805
255	0xbd9ce306	-0.07660489

fc1.bias f4 [32]
0	0x3f0da312	0.5532695
1	0x3d80599f	0.06267094
2	0xbe25dfe4	-0.16198689
3	0xbe45a2f5	-0.19300444
4	0xc003aed8	-2.0575466
5	0x3e3849f7	0.17996965
6	0xbf84db20	-1.0379372
7	0xbebc8be1	-0.3682547
8	0x3fafa728	1.3722887
9	0xbf8b9135	-1.0903689
10	0xbe4aa9be	-0.19791314
11	0x3ae8cd27	0.0017761335
12	0xbee8460d	-0.45365945
13	0xbfd7dcc6	-1.686425
14	0xbf311ef3	-0.6918785
15	0xbc2bf16e	-0.010494573
16	0x3ff8c026	1.9433639
17	0xbdd676c6	-0.10471873
18	0xbfce8f7c	-1.6137538
19	0xbf647630	-0.8924284
20	0x4009346b	2.1438243
21	0xbfac92f2	-1.3482344
22	0xbfd4310d	-1.6577469
23	0xbee84e66	-0.45372313
24	0x3f96bde2	1.1776698
25	0xbea0a06b	-0.3137239
26	0xbf5991cb	-0.8498809
27	0xbe19a9e1	-0.1500621
28	0xbe8b75af	-0.27238223
29	0x3f2571c6	0.6462673
30	0x3e20bd6f	0.15697263
31	0xbf559ea7	-0.8344521

fc2.weight_ih_l0 f4 [4, 32]
0	0xbf124c2b	-0.57147473
1	0x3f04bf31	0.51854235
2	0x3f14a017	0.5805678
3	0x3f00d29a	0.5032135
4	0x3f8a5c8d	1.0809494
5	0x3f81d4df	1.0143088
6	0xbe0bfb9c	-0.136702
7	0x401faa4a	2.4947686
8	0x3f1d2761	0.6138821
9	0xbec319bc	-0.3810557
10	0xbf7b36cc	-0.9813049
11	0x3fa3acb2	1.2787077
12	0xbee483eb	-0.44631895
13	0x3f3be7d0	0.7340059
14	0xbf876bf9	-1.0579826
15	0x3e941445	0.28921714
16	0x3ebb640e	0.36599773
17	0x3dca6e7e	0.09884356
18	0xbf11666d	-0.56796914
19	0xbfb9afe4	-1.4506803
20	0x3d8ff367	0.07028847
21	0x3fc27a48	1.5193567
22	0x401efaf9	2.4840682
23	0x3d3e102f	0.046402153
24	0xbee41eec	-0.44554842
25	0xbf25143a	-0.6448399
26	0x3f5b96b5	0.85776836
27	0x3f74644b	0.95465535
28	0x3eb8b026	0.3607189
29	0xbd2d22a6	-0.04226937
30	0xbf9e3f90	-1.2363148
31	0xbea45384	-0.32094967
32	0xbf4a3c3e	-0.7899817
33	0x3e9b03cc	0.30276334
34	0x3f34425f	0.70413774
35	0xbf343d2a	-0.7040583
36	0xc033bf52	-2.8085523
37	0xbf817eb0	-1.0116787
38	0x40b71705	5.72156
39	0xc0361613	-2.8450973
40	0xbf85ef0e	-1.0463579
41	0xc03934df	-2.893852
42	0x3f5a99f3	0.8539116
43	0x40ba3c56	5.819865
44	0x403305aa	2.7972207
45	0xc039f5aa	-2.9056191
46	0xc03ae22c	-2.9200544
47	0x402b6edf	2.678642
48	0x3eff5816	0.49871892
49	0x3fa1ce5e	1.2641103
50	0xbfeeea20	-1.8665199
51	0x3fb8251c	1.4386325
52	0x3f9444d3	1.1583503
53	0xbf99e03d	-1.2021557
54	0xc01e0336	-2.468946
55	0x3f09b660	0.5379391
56	0x3f03b313	0.5144512
57	0xbee6a93f	-0.45051
58	0x400930fa	2.1436143
59	0x3f51d33f	0.8196296
60	0x3f556108	0.8335118
61	0x3dc71e5d	0.09722588
62	0xbfc55718	-1.5417204
63	0x3f936218	1.1514311
64	0x3faa8b8e	1.3323839
65	0xc0113237	-2.2686899
66	0xbe277bb9	-0.1635579
67	0xbcae6bfb	-0.021291723
68	0xc0635d7c	-3.5525808
69	0xbfb3e0dc	-1.4052997
70	0x3f2a27d8	0.66467047
71	0xc0368556	-2.8518882
72	0xbf4fd999	-0.811914
73	0x408e6f44	4.451082
74	0x3f313a3e	0.69229496
75	0x3fb230a8	1.3921099
76	0x3be8fc30	0.007110141
77	0xbf8d2e71	-1.1029798
78	0xc013172f	-2.29829
79	0x40bb7a71	5.8586965
80	0xbebab682	-0.36467367
81	0x3fe01c99	1.7508727
82	0x3f86659f	1.0499762
83	0xc01c550e	-2.4426913
84	0x3f304fa2	0.6887151
85	0x3f5f0ec9	0.87131935
86	0x3ead3d44	0.33835804
87	0x40c38067	6.109424
88	0x40135d5c	2.3025732
89	0xbdc190c2	-0.094514385
90	0x3ffb373f	1.9626235
91	0x3e618f40	0.22027302
92	0x3f787a4c	0.9706161
93	0x3f779461	0.96710783
94	0xbf8e73b6	-1.1129062
95	0xbf7fd7ad	-0.9993847
96	0x3f953715	1.1657435
97	0xbf18b48d	-0.596505
98	0x3f3df451	0.7420092
99	0xbf4eb37b	-0.80742615
100	0xc0c2ad61	-6.0836644
101	0x3f383b1a	0.7196518
102	0x3ff6542b	1.9244436
103	0x3f4011a7	0.75026935
104	0xbee5e00c	-0.44897497
105	0xbfac8f65	-1.348126
106	0xbe88d13f	-0.26722142
107	0x40111a6d	2.267238
108	0xbe8cde8c	-0.2751354
109	0xc07728b2	-3.8618588
110	0xbea62276	-0.32448167
111	0xbdabc28e	-0.08386718
112	0xbdc3b6aa	-0.09556325
113	0xbf67a2a3	-0.9048254
114	0xbe231d74	-0.15929204
115	0x3f5c8b37	0.86149925
116	0x3e8ca3e3	0.27468786
117	0x3e4e23d1	0.2013085
118	0xbf3d1a60	-0.7386837
119	0x3f9cfd33	1.226477
120	0x3f5a0846	0.85168874
121	0xbf2e5676	-0.6810068
122	0xc0108616	-2.258184
123	0x3f4bf921	0.79677016
124	0xbf408e88	-0.75217485
125	0xbefd0f94	-0.49425948
126	0xbf87b436	-1.0601871
127	0xbd6fa0f4	-0.058503106

fc2.weight_hh_l0 f4 [4, 1]
0	0x3fbd73e5	1.4800993
1	0x3f2c6d39	0.6735416
2	0xc08c658e	-4.387397
3	0x3f6c1ac3	0.92228335

fc2.bias_ih_l0 f4 [4]
0	0xbed20874	-0.41022074
1	0x3f23d27b	0.6399304
2	0x3ea615ed	0.32438603
3	0xbe7ffdd6	-0.24999174

fc2.bias_hh_l0 f4 [4]
0	0xbfb35852	-1.4011328
1	0xbef34343	-0.47512254
2	0xbebd9888	-0.37030435
3	0x3f651517	0.89485306

fc2.weight_ih_l0_reverse f4 [4, 32]
0	0xbf85181f	-1.0397986
1	0x3ea85c46	0.328829
2	0x3e8c9398	0.27456355
3	0xbf7aaa79	-0.9791637
4	0x40e0e259	7.0276303
5	0xbfdb8459	-1.7149764
6	0x404dff75	3.2187169
7	0x3cc86e8b	0.024466773
8	0x3f456e40	0.77121353
9	0xbf5dc533	-0.8662903
10	0x3f41c620	0.7569294
11	0x3f659917	0.8968672
12	0xbf156f95	-0.58373386
13	0xbe369110	-0.17828774
14	0x3f315687	0.69272655
15	0x3fbb012a	1.460973
16	0x40423e92	3.035069
17	0xbfb85cff	-1.440338
18	0xbf46ff06	-0.77732885
19	0x409286a0	4.5789337
20	0xbf5e1e56	-0.8676504
21	0xbfd6c88c	-1.6779952
22	0x3eba6a77	0.3640935
23	0xbe71cc69	-0.23613133
24	0xbe376fc3	-0.17913727
25	0xbc7915fc	-0.015202995
26	0xbfb0af3e	-1.380348
27	0x3f654d62	0.895712
28	0x3f08385b	0.5321099
29	0xbfd73441	-1.6812822
30	0x3fdc1d77	1.7196492
31	0xbf9bbd9a	-1.2167237
32	0xbea6ce34	-0.32579195
33	0xbdb85622	-0.090008035
34	0xbe4c08c6	-0.19925222
35	0x3d44870e	0.04798036
36	0x3f0e1142	0.55495083
37	0xbc58d0e3	-0.013233396
38	0xbc411048	-0.011783667
39	0xbeced18a	-0.4039424
40	0xbd171715	-0.036887247
41	0x3ee2df58	0.44311023
42	0xbe5a9458	-0.21345651
43	0x3cfec260	0.031098545
44	0xbed1cf45	-0.40978447
45	0xbfd17663	-1.6364254
46	0xbddff6db	-0.10935756
47	0xbf80ff1a	-1.0077851
48	0xbd6108e6	-0.054940127
49	0xbdf13cb1	-0.11779154
50	0x3a231b01	0.00062219804
51	0xbed1b655	-0.4095942
52	0x3d8a499f	0.06752323
53	0xbee2a611	-0.44267324
54	0xbe5b2093	-0.21399145
55	0xbece7465	-0.40323177
56	0x3ea7146b	0.32632765
57	0x3e1d3e01	0.15355684
58	0x3e98d7ef	0.29852244
59	0x3f1676fc	0.58775306
60	0x3f377ae5	0.716719
61	0x3dd783da	0.105231956
62	0x3e933da3	0.28757963
63	0x3e26e096	0.1629661
64	0x3f906bb5	1.128287
65	0x3f38ea1f	0.7223224
66	0x3ddd4d2f	0.10805737
67	0xbf37208b	-0.7153403
68	0xc08df073	-4.4356017
69	0x3eff5a5d	0.4987363
70	0xc09308ec	-4.594839
71	0xc0031559	-2.048178
72	0x3f09f161	0.5388394
73	0xbfe9fdbd	-1.828056
74	0x3f47cd0d	0.7804726
75	0x3e9f90bf	0.3116512
76	0x3ff8a759	1.942607
77	0xc07f20be	-3.9863734
78	0x3ffc4dc8	1.9711237
79	0x4017a3cc	2.3693724
80	0xbfb3512b	-1.4009145
81	0xc021f62b	-2.53065
82	0xc0adff9f	-5.4374537
83	0xc0566f66	-3.3505492
84	0xbf4e8d88	-0.8068471
85	0xc0100a92	-2.2506452
86	0xc085ff50	-4.187416
87	0xc090d455	-4.5259194
88	0x3fec4199	1.8457519
89	0xbf196525	-0.5991996
90	0xbed0aaaf	-0.4075522
91	0x3ed95f89	0.424557
92	0xbf1c0d5f	-0.609579
93	0xc00e5219	-2.2237608
94	0xc0d3ab92	-6.6146936
95	0xbff02f51	-1.876444
96	0x40957fc5	4.671847
97	0x40ceb45d	6.459517
98	0x3e0875e5	0.13326223
99	0x3f6b7849	0.91980416
100	0x4186f4e5	16.869577
101	0xbf3511b0	-0.70730114
102	0xc097a817	-4.739269
103	0xc06334d5	-3.5500996
104	0x40865863	4.1982894
105	0x3fb7ec8d	1.4369065
106	0xbf4f3f1f	-0.8095569
107	0xbfc61777	-1.5475911
108	0xbfc7073c	-1.5549083
109	0xc02d7ba8	-2.7106724
110	0xbe7128fc	-0.2355079
111	0x3ebb1721	0.36541083
112	0xbed299b7	-0.411329
113	0x3c976418	0.018480346
114	0xbf87816f	-1.0586375
115	0x3f2e74bc	0.6814687
116	0x408fbf5b	4.492109
117	0xbfbae1e8	-1.4600191
118	0xbdec34e9	-0.11533529
119	0x3f0c3352	0.5476581
120	0x3fb5da08	1.4207163
121	0xbdfeaccd	-0.12435303
122	0xbf1df93f	-0.61708444
123	0xbea4cf85	-0.32189575
124	0x3e8556fa	0.2604292
125	0x3f2d73d6	0.67754877
126	0x40bcd419	5.900891
127	0xc036017a	-2.8438401

fc2.weight_hh_l0_reverse f4 [4, 1]
0	0xbf877c8e	-1.0584886
1	0x4022e486	2.545198
2	0x407729b9	3.8619215
3	0x41035a70	8.209579

fc2.bias_ih_l0_reverse f4 [4]
0	0x3f7ee546	0.99568594
1	0xbe4fb244	-0.20282847
2	0x3fddd8c9	1.7331783
3	0x3f805a3e	1.002754

fc2.bias_hh_l0_reverse f4 [4]
0	0xbea8e139	-0.3298433
1	0x3e59d8ce	0.2127411
2	0x3e0ab16d	0.13544245
3	0x3d02e9fd	0.03196143

fc2.weight_ih_l1 f4 [4, 2]
0	0xbfa89f03	-1.3173527
1	0x40486421	3.1311114
2	0xbd2e31b6	-0.042527877
3	0xc0a6ac36	-5.208522
4	0x3edaabd6	0.42709225
5	0xc10b53d1	-8.707963
6	0x3f45af0f	0.77220243
7	0xc1bb647a	-23.42406

fc2.weight_hh_l1 f4 [4, 1]
0	0x405b7b3b	3.4293964
1	0x3eaf6c39	0.34262255
2	0x4045ff9d	3.0937264
3	0xbdc8c466	-0.09803085

fc2.bias_ih_l1 f4 [4]
0	0xbf593e51	-0.8486071
1	0x3f407bbe	0.75188816
2	0x3d96d03c	0.07363936
3	0x3f6bb598	0.92073965

fc2.bias_hh_l1 f4 [4]
0	0xbfadf611	-1.3590719
1	0x3fa532a5	1.290608
2	0x3e832132	0.25611264
3	0x3f875398	1.0572386

fc2.weight_ih_l1_reverse f4 [4, 2]
0	0x4093582c	4.604513
1	0xbf09e81b	-0.5386979
2	0xbfb37d3b	-1.4022592
3	0x3f792874	0.9732735
4	0xbf77a9a6	-0.9674324
5	0xc0194701	-2.3949587
6	0x3e9a3fcf	0.30126807
7	0x4063283d	3.549331

fc2.weight_hh_l1_reverse f4 [4, 1]
0	0x410fd9dc	8.990688
1	0xc049ce39	-3.1532118
2	0xbebaf3ce	-0.36514133
3	0x40b91ce8	5.7847786

fc2.bias_ih_l1_reverse f4 [4]
0	0xbe835ce8	-0.2565682
1	0x3fa7521f	1.3071936
2	0xbee712a6	-0.45131415
3	0x40243687	2.565828

fc2.bias_hh_l1_reverse f4 [4]
0	0xbf040a83	-0.5157854
1	0x3e97254b	0.2952064
2	0xbd5a1378	-0.053241223
3	0x4050326f	3.2530782

fc2.weight_ih_l2 f4 [4, 2]
0	0xbf9a77d8	-1.2067823
1	0x3f423997	0.75869125
2	0xbf53d543	-0.82747287
3	0xc05f4796	-3.4887443
4	0x3ecd0426	0.40042228
5	0xc005d3ef	-2.0910604
6	0x3fceb9ff	1.6150512
7	0xbf438418	-0.76373434

fc2.weight_hh_l2 f4 [4, 1]
0	0xbf3ee9d8	-0.7457557
1	0x3b1a2254	0.0023518996
2	0x3ea87b58	0.32906604
3	0x4084e37d	4.1527696

fc2.bias_ih_l2 f4 [4]
0	0xbe70283a	-0.23452845
1	0xbed64804	-0.4185182
2	0x3e4cb524	0.19990975
3	0x3fbcf5ad	1.4762474

fc2.bias_hh_l2 f4 [4]
0	0xbeaadaf9	-0.33370188
1	0x3f5d7014	0.8649914
2	0xbe9a18f7	-0.30097172
3	0x3f9c3c55	1.2205912

fc2.weight_ih_l2_reverse f4 [4, 2]
0	0x400d073d	2.2035668
1	0xbfe65ecc	-1.799768
2	0xc032a621	-2.7913897
3	0xc008c157	-2.1368005
4	0xc0535c82	-3.3025212
5	0xbf98ef92	-1.1948111
6	0x40c8f3d4	6.279764
7	0xc1631452	-14.192461

fc2.weight_hh_l2_reverse f4 [4, 1]
0	0xc02c9d0b	-2.6970851
1	0x3fee58fb	1.8620905
2	0xbf9cbd39	-1.2245246
3	0xc03034e3	-2.753228

fc2.bias_ih_l2_reverse f4 [4]
0	0x3ee77bb7	0.45211574
1	0xbee04aea	-0.43807155
2	0x3f7f343c	0.9968908
3	0x3fcb1cb8	1.5868139

fc2.bias_hh_l2_reverse f4 [4]
0	0x3e8ae26d	0.27125874
1	0xbfbcaab9	-1.47396
2	0x401c548e	2.4426608
3	0x3fcc530e	1.5962846

combination_layer.weight f4 [2, 2]
0	0xbfb490ed	-1.4106728
1	0x40130ee1	2.2977831
2	0x404ea3c3	3.2287452
3	0x3c18108b	0.009281288

combination_layer.bias f4 [2]
0	0xbf024767	-0.508902
1	0x3f925ec7	1.1435174

projection.weight f4 [1, 2]
0	0x40aecdac	5.4626064
1	0x4006ebe8	2.1081486
