LSTMbest.pth (torch, 14430 bytes, 29 tensors)

fc1.weight f4 [32, 32]
000000 5a 68 f7 3a 38 61 f9 3c 25 9a f8 be c7 e2 ab be
       0.0018875704 0.030441865 -0.48555103 -0.33571455
000010 90 b1 a2 bf 56 ce dc be d1 1a eb be d9 ef 2a be
       -1.2710438 -0.43126172 -0.45918897 -0.16693057
000020 83 24 0f bd 37 0a 27 be 79 6c d6 be 64 a8 c8 bd
       -0.03494693 -0.1631249 -0.41879633 -0.09797743
000030 02 4a 3e be fc ca f6 bd 16 78 8e be 1d c9 6c bb
       -0.18582919 -0.12050435 -0.27825993 -0.0036130615
000040 5f bf 30 be 33 e7 ad 3d 67 15 2e bd ca a0 90 bd
       -0.17260502 0.084913634 -0.04250088 -0.07061918
000050 aa cd de bd f8 6c 40 be f5 8f 97 3e 72 4b 94 3c
       -0.10879071 -0.18791568 0.29602018 0.018102381
000060 b9 7b 69 be 8e 09 22 3b 3f a3 97 3d bb b2 92 bc
       -0.22801103 0.0024724933 0.074041836 -0.017907491
000070 26 d2 c7 3d 8b 46 37 be fd 50 d4 bd 1c 8c f0 3d
       0.097568795 -0.17898004 -0.1036701 0.11745474
000080 69 0f 8f bc 20 57 f7 bd ad 80 b3 3d 14 02 05 3c
       -0.017463403 -0.12077165 0.08764777 0.008118171
000090 b7 f5 3d 3d 9a e0 bf bd dc 77 21 3e a2 e3 16 3e
       0.04637691 -0.09369011 0.15768379 0.14735273
0000a0 cd 3b dd be 5f fb 94 be 8e f9 85 3c 46 cd 6d be
       -0.43209687 -0.2909803 0.016354349 -0.23222837
0000b0 3c 0d 68 be 01 df ac 3c 81 4f 30 be 9f 7d 9c bd
       -0.22661299 0.02110243 -0.17217828 -0.07641148
0000c0 1c 07 5f be d4 00 64 be a2 bb 41 be bb 17 9b be
       -0.21780056 -0.22265941 -0.18919232 -0.30291542
0000d0 c6 a5 c1 3e ac 78 3c 3e ba 96 58 bb 42 72 d3 bd
       0.37821788 0.18405408 -0.0033048824 -0.10324527
0000e0 67 20 ab bc df e2 85 be 55 d5 c0 3d a7 4b 36 3e
       -0.020889474 -0.2614965 0.0941569 0.17802297
0000f0 e0 d1 1e be 5f fc c8 3d 8b 5e 66 bd a4 8c 46 bd
       -0.15509748 0.09813761 -0.056242507 -0.04847397
000100 fc 52 90 3e 61 38 77 3d d5 79 ed 3c 87 19 26 be
       0.28188312 0.0603565 0.028988758 -0.16220675
000110 c5 5a c8 3e 86 c5 2a 3f c5 2a fd bd 9d bf db 3e
       0.39131752 0.66707647 -0.12361673 0.42919627
000120 af 1b d0 bb db 4b 18 3d ad 2d ef 3d ff 62 01 3f
       -0.0063509564 0.037181716 0.11678634 0.5054168
000130 ad 0d f2 bd ff 28 16 3f 0e 2f 29 3f fb 1a a3 3d
       -0.11819015 0.58656305 0.66087425 0.079641305
000140 8f 09 56 3e 3a b5 26 3e 60 66 aa bb fe 55 b0 3d
       0.20902084 0.1628007 -0.0052001923 0.08610152
000150 41 a7 2e 3f f2 50 94 3e cd a0 51 be 43 46 12 3c
       0.6822396 0.28968006 -0.20471497 0.0089278845
000160 52 0e 14 3d 43 80 72 bd 09 8c 56 be 54 88 bd 3b
       0.03614647 -0.05920435 -0.20951857 0.005784074
000170 8c 25 5c be 41 59 11 3c 1e 4e cb bd c1 4c a2 3a
       -0.21498698 0.008871377 -0.09927009 0.0012382494
000180 f6 07 62 be 4b 21 5f be cb f3 be be c7 5a 96 be
       -0.2207335 -0.21790044 -0.37295374 -0.29366133
000190 23 74 c6 bf 44 22 8e 3e f6 1e d0 be 74 7c 48 3e
       -1.5504192 0.27760518 -0.4064862 0.19578725
0001a0 85 30 26 bf 7a 6b 88 be 7d e1 3c 3e 88 d9 13 3e
       -0.64917785 -0.26644498 0.18445392 0.1443845
0001b0 ac b5 ee 3d 46 56 e4 3c f7 fc 3f 3e 55 0d 1c 3e
       0.11655745 0.02787317 0.18748842 0.15239461
0001c0 4c 39 41 3e cd 25 b4 bc 57 24 47 be 2a 4a e2 3e
       0.18869513 -0.021990681 -0.19447456 0.44197208
0001d0 68 57 45 3f 9f c4 0c 3d 0a 07 60 bf 45 d4 13 bd
       0.77086496 0.0343672 -0.8751074 -0.036091108
0001e0 1e 55 5b bd 3a c7 bb 3e 83 d6 0f 3c 7f 33 e5 3d
       -0.05354797 0.36675435 0.008779171 0.11191463
0001f0 0d 50 0d 3e 4b 9d 83 3e ed e4 6c 3e 02 dc d7 3a
       0.13800068 0.25705943 0.23134203 0.0016468766
000200 05 b6 86 be 91 28 b2 3e a1 de 5e bf e5 d1 6c 3e
       -0.26310745 0.34796575 -0.87058455 0.23126943
000210 35 0f 53 c0 58 a3 76 3e 9f 33 94 be 7f 3c b2 3d
       -3.2978032 0.24085748 -0.28945634 0.08702945
000220 a7 2d 36 be a9 9b 47 bd 56 2c 82 3e 30 7a af 3d
       -0.17790852 -0.048732433 0.2542445 0.08568227
000230 be 5d 80 3e 37 43 cf 3c 59 77 ce 3d 54 d7 d1 3e
       0.2507152 0.025300605 0.100813575 0.40984595
000240 1d 35 55 3e e1 65 9e 3d d7 8a c0 3e 5c 73 83 3e
       0.20821042 0.077342756 0.37605926 0.2567395
000250 7e b0 4b bf 2c 86 97 3e c1 5e 37 bf 90 f6 13 3d
       -0.7956618 0.29594553 -0.7162896 0.036123812
000260 2c 85 a7 3c ed 91 84 3e 53 06 9f bd 81 05 72 3e
       0.020449243 0.25892583 -0.07764878 0.23634912
000270 76 ac 45 3e f3 f1 45 3d fb 50 12 3e d1 a6 44 bd
       0.1930407 0.048326444 0.14288704 -0.04801065
000280 84 e0 2a be 07 c6 8c 3e 65 51 64 bf 51 e3 a2 3d
       -0.16687208 0.27494833 -0.891867 0.079535134
000290 61 fa 3e c0 5b fb c9 3e 64 34 7e bc ce fd 3b bd
       -2.984032 0.39449582 -0.015515421 -0.045896344
0002a0 cc 44 a2 3e c2 bb fb 3e 0f aa 7f 3d 22 20 8c 3e
       0.31693113 0.49166685 0.06241804 0.27368265
0002b0 06 10 a6 3e 5d a4 da 3d 05 cb 8b 3e 06 ce 09 bd
       0.324341 0.10675881 0.2730333 -0.033643745
0002c0 f4 eb a5 3c f1 3b 9e 3c 08 17 5d 3d 4b 7a 06 3e
       0.020254113 0.019315692 0.053977042 0.13132589
0002d0 02 05 20 3f 67 cb 10 bd 91 6f 71 3e 91 4a 05 3e
       0.6250764 -0.03535023 0.23577715 0.13016726
0002e0 a0 ff 71 bd a1 c9 a4 3d 1a 71 a9 3d 29 28 10 3e
       -0.059081674 0.0804627 0.082735255 0.1407782
0002f0 08 7b 56 3e b7 ef cf bd 8d 4a 1d be 9a 95 ce 3d
       0.2094537 -0.10153144 -0.1536047 0.10087128
000300 77 47 f3 3e 5d 72 54 3e 38 ce 4a 3f 5c 8e 6c be
       0.4751546 0.20746751 0.79220915 -0.23101181
000310 54 ee 83 40 63 58 ba be 8c 64 9b 3e 72 d9 05 3d
       4.122843 -0.3639556 0.3035015 0.032678075
000320 ac 10 f7 bd 8b 35 c7 bd 46 f0 c6 3d 0c 0d 7e be
       -0.12063727 -0.097270094 0.09713797 -0.24809664
000330 39 af f9 bc 29 85 68 be d9 9a d8 be d0 1e 02 3e
       -0.03047906 -0.22707047 -0.4230564 0.12707067
000340 b2 05 b5 3d 20 1e 5a 3e 29 7d b3 3c c1 28 05 bd
       0.08838977 0.21300554 0.021910267 -0.03250957
000350 79 75 9c bd 2e 87 8a bd 1b 62 8b 3c e6 7f 30 3d
       -0.07639594 -0.06764065 0.017014554 0.043090723
000360 a7 10 4d 3e 09 a2 be 3d 6f 2e d5 3e f8 cc 61 3e
       0.20025884 0.093082495 0.4163699 0.22050846
000370 70 9e 1a be e6 62 a6 3c 1a ef 93 3e f5 17 53 3e
       -0.15099502 0.02031083 0.28893358 0.20614608
000380 48 36 80 3e ac 9b 22 3d 7c 27 bc be 52 69 ae 3d
       0.25041413 0.03969924 -0.36748874 0.08516182
000390 8e 85 38 40 ae 26 08 3e ce be 5b 3c f3 c8 99 3e
       2.8831515 0.13296005 0.013412191 0.30036125
0003a0 8d 4b 14 3e bb 07 11 bd 32 6a 22 3e 0c db 95 3e
       0.14481945 -0.035407763 0.15860823 0.29268682
0003b0 42 fd e7 bc a0 a2 b0 3e e4 b3 72 3e a3 0d c2 3e
       -0.028319005 0.34499073 0.23701435 0.3790103
0003c0 6a 4a 9c 3e 58 06 e9 3d f8 2c a4 3e a2 3e f1 3d
       0.30525523 0.11378163 0.32065558 0.117795244
0003d0 02 fd ef 3e 7d db 0c 3e d9 d1 7b 3b 4f 75 90 3e
       0.46872717 0.13755603 0.003842464 0.282145
0003e0 55 7e 94 3d 26 7a 85 3d 56 15 0f 3e a6 f0 6d bd
       0.072506584 0.065174386 0.13972983 -0.05809083
0003f0 a6 c6 81 3d 2a 6d 8e 3e 55 8b 0b be 60 ab 8a 3e
       0.06336717 0.2781766 -0.1362737 0.27083874

fc1.bias f4 [32]
000000 ce fe 8d 3e 1d 6d 8f be 6a 9a 2b bd b2 99 73 bc
       0.27733463 -0.28012934 -0.041895308 -0.014868187
000010 8b af d1 bd 36 f5 89 be 23 cd 02 3f fc 7e 24 3e
       -0.1023856 -0.26944894 0.51094264 0.16064066
000020 df 6d 2d 3f 31 d1 33 be c4 fe a8 3e 11 f5 1a 3e
       0.67745775 -0.17560269 0.3300687 0.15132548
000030 db f7 00 bd c3 28 c3 3e 66 10 57 be b7 67 aa 3e
       -0.031486373 0.38117036 -0.2100235 0.33282253
000040 56 fe d4 3e 40 65 4c be cf d3 58 be 6d 59 4d 3f
       0.41600293 -0.19960499 -0.21174549 0.8021458
000050 c5 61 97 3e d2 78 81 be 2f 25 8c bd 13 d0 9d 3e
       0.2956678 -0.2528749 -0.0684303 0.3082281
000060 33 50 be 3e c6 91 8c 3e d7 09 36 3e 8a a3 ac 3e
       0.37170562 0.27454966 0.17777191 0.3371852
000070 20 43 3c be 9f 6f b0 3e 28 69 99 bd 55 2c 72 bc
       -0.18384981 0.3446016 -0.0749076 -0.014781077

fc2.weight_ih_l0 f4 [4, 32]
000000 f0 ef 82 3e d8 4f ae bd 9d 0e 0f bf e1 5e 6f bf
       0.25573683 -0.08511323 -0.55881673 -0.9350415
000010 08 43 ee be b7 04 bb 3d d1 77 ba be ac 94 08 bf
       -0.46535516 0.09131759 -0.36419538 -0.53351855
000020 03 89 47 bf 38 f6 83 be a9 eb 3f bf 38 b7 7e 3e
       -0.7794344 -0.25773787 -0.74968964 0.2487458
000030 63 d2 31 3f bd 7d 61 3d 7b 67 6b 3e 68 06 17 3e
       0.6946165 0.055051554 0.22988693 0.14748538
000040 fc 6b ed be 4f 41 95 bd 09 10 ab 3e 14 8f a6 3f
       -0.46371448 -0.07287847 0.3341067 1.3012414
000050 d3 86 2c bf 8b c2 32 3e a9 e4 22 bf f4 c4 dc 3e
       -0.67393225 0.17457025 -0.6363016 0.43119013
000060 be dd 36 be ed ce 78 bf c6 8e 3d bf b2 03 60 bf
       -0.17858025 -0.97190744 -0.7404598 -0.8750564
000070 e6 93 ab bd 0d 00 6e bf 85 c0 6e be 49 62 c6 3e
       -0.08377819 -0.9296883 -0.23315628 0.3874686
000080 d6 53 dd 3e 01 74 57 3f 5e 77 b5 bf 78 2b b1 be
       0.43228024 0.8416138 -1.4177053 -0.34603477
000090 83 ab ec 3e f9 89 c9 bf f9 77 3d 3f 4d 1f a0 bc
       0.46224603 -1.5745231 0.7401119 -0.019546175
0000a0 62 76 82 3e ac c3 32 3f 33 39 cb be e0 2f ba 3e
       0.25480944 0.6982982 -0.39692077 0.3636465
0000b0 57 41 a7 3f 60 f1 74 3f b4 1b 54 be a9 63 a4 3f
       1.3066815 0.9568081 -0.20713693 1.2842914
0000c0 f4 65 2a 3e f4 a0 8c bf 55 e5 93 bc 0b 07 c2 3d
       0.16640455 -1.0986619 -0.01805369 0.094739996
0000d0 fb 9d 9a 3f 71 7a 0c 3f c3 b7 25 be 1a 66 3a 3f
       1.2079462 0.5487433 -0.16183381 0.72812045
0000e0 74 a4 c4 3f e9 0a 0d 3f a7 8e fb 3e 40 12 15 bf
       1.5362687 0.5509477 0.49132273 -0.5823097
0000f0 67 be 5e 3f 92 a2 f9 3e 07 64 91 be 89 64 30 3e
       0.8700928 0.48756844 -0.28396627 0.17225851
000100 e9 75 a4 bf f7 03 70 3f dd 4b ad be c5 aa a7 3e
       -1.2848483 0.9375605 -0.33846942 0.32747474
000110 07 ee aa 3e a4 76 b5 bd 36 d5 7e bf 71 b2 d3 be
       0.33384725 -0.088605195 -0.99544084 -0.41347077
000120 2a 41 b5 bf 98 5b 85 3e cf 12 8d bf ff a2 9c bc
       -1.4160511 0.26046443 -1.1021365 -0.019120691
000130 b5 e2 47 bf 6b 88 a8 bf a9 a9 1e bf 8c fd 7b bf
       -0.780803 -1.3166631 -0.6197763 -0.98433757
000140 5c db 7d bf fe 3b f8 3e 86 69 32 3f 48 84 78 be
       -0.9916284 0.4848327 0.69692266 -0.24269211
000150 e6 d9 8a be 1b 8b 18 3f 69 c1 d7 be 83 56 91 bf
       -0.27119368 0.5958726 -0.42139748 -1.1354526
000160 7b a9 87 be 9f d0 8d bf c4 76 96 bf 89 23 c1 bf
       -0.2649649 -1.1079291 -1.1754994 -1.508897
000170 70 ad ca be 88 79 7d bf ff a2 16 3f 3e a9 92 3d
       -0.39585447 -0.99013567 0.5884246 0.07161187
000180 59 0f aa 3f 84 bc a8 be fc 80 b2 bf 56 72 12 bf
       1.3285934 -0.32956326 -1.3945613 -0.5720571
000190 6e 34 14 3f 0d 9c e8 3c d8 be 5f 3f 0a 13 ad be
       0.578925 0.028394723 0.8740058 -0.33803588
0001a0 a3 f7 0e 3f e0 83 82 3d 35 18 b0 be 74 fb 03 3f
       0.55846614 0.063728094 -0.34393468 0.5155556
0001b0 92 da d5 3b 32 e7 84 3f a4 cd 49 bf e8 c3 9f bc
       0.0065262998 1.0383055 -0.7882941 -0.019502595
0001c0 a6 7f 82 3a cc 80 60 bf 9f 2f 00 3e 8d 20 26 40
       0.0009956255 -0.8769653 0.12518166 2.5957367
0001d0 82 8d c3 be 36 8c 7f 3e 75 05 0c bf e2 c7 84 3f
       -0.381939 0.2495583 -0.54695827 1.0373499
0001e0 f6 d9 84 3f 07 b9 61 3d e7 cc 66 bf a0 7f 3b 3f
       1.0379016 0.055108096 -0.90156406 0.73241615
0001f0 cb d7 e7 3e 3f 74 9f be dc ed ac 3e d2 09 85 3d
       0.45281824 -0.31143376 0.33775222 0.06496014

fc2.weight_hh_l0 f4 [4, 1]
000000 0d 7b 57 3f cb eb b3 bf 07 84 71 be bd ad dc 3d
       0.84172136 -1.4056333 -0.2358552 0.107753254

fc2.bias_ih_l0 f4 [4]
000000 92 ad f4 3d 87 55 4e 3f 0d 9c 00 3f ab 0c 39 3f
       0.119471684 0.80599254 0.50238115 0.72284955

fc2.bias_hh_l0 f4 [4]
000000 5b b6 e9 3e 30 5d be be 8b 75 28 be f2 38 f3 3e
       0.4564694 -0.3718047 -0.16451089 0.47504383

fc2.weight_ih_l0_reverse f4 [4, 32]
000000 c5 03 92 3e e2 fa 6e bf c4 34 3f 3f a2 68 93 3e
       0.285185 -0.93351567 0.7468989 0.28790766
000010 b1 1e 6b 3f 67 8c be 3e db 0f 8f 3f 08 56 c2 3f
       0.91843706 0.37216493 1.1176714 1.5182505
000020 cb ca 8d 3f 50 ca 7a 3e d1 c7 b9 3e ab b4 67 be
       1.1077513 0.24491239 0.3628526 -0.22627513
000030 9a 23 cc 3f 7e 59 7e 3e 1f 02 c3 3f d3 05 44 3f
       1.5948365 0.24838826 1.5235022 0.7657139
000040 98 88 67 3f da ba c9 3f be 57 24 3f 61 53 32 3f
       0.904428 1.5760148 0.64196384 0.69658476
000050 93 66 76 3d bc 8e 34 bf 9c ab e7 be 81 45 ed be
       0.060156416 -0.70530295 -0.45248115 -0.4634209
000060 f7 d0 b2 be 8f cd 94 be 00 dc 8e 3f 81 ee 12 bf
       -0.34925053 -0.2906308 1.1160889 -0.5739518
000070 73 5c a1 be 04 a7 5a 3e b1 53 5b 3f 78 55 3c be
       -0.31515846 0.21352774 0.8567458 -0.18391979
000080 fa 91 f2 be 28 34 81 3f 4d 44 be bd a1 44 02 bf
       -0.47376996 1.0094042 -0.09290371 -0.5088597
000090 3d 2b 98 be dd ea 14 be 78 2c a0 3f 87 dc 82 3f
       -0.29720488 -0.14542718 1.2513571 1.022355
0000a0 b5 6d 88 3e e0 a2 5d bd f8 c9 8d 3e 5e 3e a7 3f
       0.266462 -0.054110408 0.27693152 1.3065908
0000b0 14 9c ae 3e a8 c4 d7 3e ed 38 b8 3f 1f 84 7f 3f
       0.34103453 0.42142224 1.4392372 0.99810976
0000c0 5d e2 90 be c5 69 5d 3f 19 a4 0b 3f d5 23 db 3e
       -0.282977 0.86489516 0.5454727 0.42800775
0000d0 9b 5a 16 bd 53 9a 94 be 67 b3 6a be 2e b4 aa be
       -0.0367075 -0.2902399 -0.22919999 -0.3334059
0000e0 de 29 b5 bb 4e 25 92 3e 6c 67 c0 3f 92 8e 2b bd
       -0.0055286726 0.28544086 1.5031562 -0.041884013
0000f0 f1 e0 0f be 39 fe 38 3f 5e 31 ef 3f a6 f1 a3 3e
       -0.14050652 0.72262913 1.8686941 0.320203
000100 10 a4 8c 3e eb b9 17 3f 21 8a be 3e 6c 45 84 3f
       0.2746892 0.59268063 0.3721476 1.0333686
000110 24 3b 76 be 2b 3d dd be 6c a5 44 3f 97 c3 53 3f
       -0.24045998 -0.4321073 0.76814914 0.8272032
000120 3c eb 91 bd dc 68 e7 be 70 25 36 3f 42 96 c4 3e
       -0.071249455 -0.4519719 0.71150875 0.38395888
000130 7e 77 d4 be 08 d2 36 3f d2 78 60 3e d8 d2 27 3f
       -0.41497415 0.7141423 0.2192109 0.655561
000140 2c f4 c3 be 70 5e b2 3e 22 a7 a7 be a0 a5 d3 bd
       -0.38272226 0.34837675 -0.327447 -0.10334325
000150 1f ca f7 3e 3e 6b 69 bf 3d 4c c3 be 55 f4 39 3f
       0.48396394 -0.91179264 -0.38144103 0.72638446
000160 b7 a3 7e 3f 6a 50 6a 3d 54 62 94 3f d0 89 b5 3d
       0.9946856 0.057205595 1.1592507 0.08864176
000170 a2 d6 e8 3d 9c c7 4a 3e 62 76 20 3f 8c 67 91 3d
       0.11369063 0.19802707 0.6268064 0.07099828
000180 0d 55 13 bf f3 81 00 3f 3e f9 21 bd e0 e4 60 bf
       -0.5755165 0.50198287 -0.039544336 -0.87849236
000190 75 63 0d bf ef 32 63 be 3a ea 19 3f 9c 7a e8 3d
       -0.55229884 -0.22187398 0.60123026 0.11351511
0001a0 4e 4f c2 be 88 6e 57 3e 52 0a 89 be 01 85 92 bd
       -0.3795113 0.21038258 -0.26765686 -0.07154275
0001b0 b8 50 8f 3f 76 2b 22 3e ad 2e 89 3e ac 37 33 3f
       1.1196508 0.15836892 0.26793423 0.70006824
0001c0 d8 26 8c bf 02 6e 0d 3f 71 59 03 3f 02 e8 8d 3f
       -1.0949354 0.55245984 0.5130835 1.1086428
0001d0 89 d9 fd be 12 aa a8 3d 2b 23 80 bf 44 e6 39 bf
       -0.4958003 0.08235563 -1.0010732 -0.7261698
0001e0 1d d4 08 3f b1 15 28 bd c9 b3 17 bf 7a b8 54 3f
       0.5344866 -0.04103631 -0.59258705 0.8309399
0001f0 5c 14 7b 3e 7f fa 1d 3c 5c 2a 23 3f 68 77 bc be
       0.24519485 0.009642242 0.6373651 -0.3680985

fc2.weight_hh_l0_reverse f4 [4, 1]
000000 b0 8e dc 3e c7 61 80 3f 28 a4 d5 be 88 cd 8e 3f
       0.43077612 1.0029839 -0.41726804 1.1156473

fc2.bias_ih_l0_reverse f4 [4]
000000 fa 08 be 3e fa ca 72 3f b0 e4 1a 3f 9e 64 d3 3e
       0.37116224 0.9484097 0.605052 0.41287702

fc2.bias_hh_l0_reverse f4 [4]
000000 d8 8f 38 bf fd 9c e0 be 14 ef 52 bf ef 47 7c bf
       -0.7209449 -0.43869773 -0.82396054 -0.9854726

fc2.weight_ih_l1 f4 [4, 2]
000000 85 62 d7 bf 26 1c 82 40 4a e9 6b bf 36 53 3e 40
       -1.6826941 4.065936 -0.92152846 2.9738288
000010 fe 07 c0 bf 23 a0 51 40 bd 53 c8 be 49 5e b7 3d
       -1.5002439 3.275399 -0.39126387 0.0895353

fc2.weight_hh_l1 f4 [4, 1]
000000 ef 3c 88 3f 2e c3 14 40 ff 79 61 3f 36 bd 9b bf
       1.0643595 2.3244128 0.88076776 -1.2167118

fc2.bias_ih_l1 f4 [4]
000000 16 b8 1a 40 96 29 0b 40 70 1a 9d 3f 2e f3 1f 3f
       2.4174857 2.1744132 1.2273693 0.6248044

fc2.bias_hh_l1 f4 [4]
000000 34 a1 44 40 3e ac a8 3f 64 8c 2b 40 fa f0 db be
       3.072339 1.3177564 2.6804438 -0.42957288

fc2.weight_ih_l1_reverse f4 [4, 2]
000000 ac 9d 80 3f 69 d0 70 3f 29 35 72 bf 03 fa ad 3f
       1.0048118 0.9406801 -0.94612366 1.3591923
000010 b0 2b 84 bf fd 50 5f bf 81 94 5c c0 f7 42 82 3f
       -1.0325832 -0.87232953 -3.446564 1.0176686

fc2.weight_hh_l1_reverse f4 [4, 1]
000000 74 b4 05 40 08 69 be bf c1 59 d5 be de cc c1 3e
       2.089139 -1.4875803 -0.4167004 0.37851614

fc2.bias_ih_l1_reverse f4 [4]
000000 73 78 ff 3d 08 7e aa 3f eb d6 e1 be cb f3 45 3d
       0.12474146 1.3319712 -0.44109282 0.048328202

fc2.bias_hh_l1_reverse f4 [4]
000000 61 d0 32 3e 40 38 11 3d ff 67 e8 3e 60 86 c0 3c
       0.17462303 0.035454035 0.45391843 0.023501575

fc2.weight_ih_l2 f4 [4, 2]
000000 24 bd 27 bf b4 31 80 3f a7 33 df be 87 1d 44 40
       -0.6552298 1.0015168 -0.43594095 3.0643022
000010 18 a3 4e 3e 02 40 1b bf 47 26 9c be 81 f2 dc 3f
       0.20179403 -0.60644543 -0.30497953 1.7261506

fc2.weight_hh_l2 f4 [4, 1]
000000 6a c4 25 3f 46 fd a5 bf 41 07 25 be 5e 3e 98 bf
       0.6475283 -1.2967918 -0.16116048 -1.1894033

fc2.bias_ih_l2 f4 [4]
000000 50 09 1f 3f d7 e6 65 3e 1d bc 27 bf 29 73 3a 3f
       0.62123585 0.2245134 -0.65521413 0.7283197

fc2.bias_hh_l2 f4 [4]
000000 b4 d9 93 be 54 3f 81 bf 09 24 af 3e f5 c1 2d 3f
       -0.28877032 -1.0097451 0.3420718 0.6787408

fc2.weight_ih_l2_reverse f4 [4, 2]
000000 fe 37 40 3f d8 85 51 3e 70 58 68 3f c2 30 de 3e
       0.7508544 0.20461214 0.90759945 0.43396574
000010 06 51 32 bf 11 eb e5 bf 2e cc db 3c 62 3d b6 3f
       -0.6965488 -1.7962362 0.026830759 1.4237483

fc2.weight_hh_l2_reverse f4 [4, 1]
000000 7d 6d 21 c0 c3 bd 44 3f ae 26 84 bf c5 2b 19 c0
       -2.5223076 0.76852053 -1.0324304 -2.3932965

fc2.bias_ih_l2_reverse f4 [4]
000000 2a ba 45 be f0 ef 54 3f e1 ae 4f bf 63 93 2b 3f
       -0.19309297 0.83178616 -0.8112622 0.6702177

fc2.bias_hh_l2_reverse f4 [4]
000000 fe 46 52 3e 97 00 08 3f c1 03 62 3f af a2 ff be
       0.20534894 0.531259 0.8828698 -0.49928805

combination_layer.weight f4 [2, 2]
000000 3a 12 dc bf f6 a8 c6 bf f0 65 56 bf e7 06 e1 bf
       -1.7193062 -1.5520313 -0.83749294 -1.7580231

combination_layer.bias f4 [2]
000000 47 54 b3 3e 30 97 ba 3e
       0.35025236 0.36443472

projection.weight f4 [1, 2]
000000 3a 59 f8 bf 91 02 a6 bf
       -1.940223 -1.2969533
