LSTMbest.pth (torch, 14430 bytes, 29 tensors)

fc1.weight f4 [32, 32]
00000000: 7dc6 1a40 b137 83be 38c8 db3f 7e94 b43e
00000010: d380 a541 63f0 aebf 16ba df3f 4a70 7b3f
00000020: f9ba 25bf b871 16bf f8a3 c93f 3f9c 5d3f
00000030: 5f7c 8a3e 1d82 cebe d627 74bf 45a4 4bbf
00000040: 2893 ecbe c650 1ebf e831 c940 9a65 50bf
00000050: e479 8a3e febf 73be b0e3 25bf 1204 753f
00000060: b09a cf3e 7980 a8bf 47ec cebf b8b1 e2bf
00000070: 07e5 84bf 8b4a b7bf dfa1 68bf 5d71 9ebf
00000080: 2897 c1bf 0d60 21bf 5f93 8b40 e94c 0640
00000090: 2ed0 85c0 4840 96be 6fe1 9640 de4f 1cbe
000000a0: 6267 96bf 9984 8fbe d77f 0840 142f 2a3f
000000b0: be66 353f 638a c9bf ef92 c2be f4e1 47bf
000000c0: 87ce 45bf f51f 6abf 165a 10c0 36ac 62c0
000000d0: 2626 de3e 1e73 46bf 5b5b 8d3e 80e0 82be
000000e0: 440d d73d 5535 c4bf faba 70bd 8ece 9dbe
000000f0: de48 82be ef52 913e 75cd 99bd e1eb 0ebf
00000100: 3b1c 45bd 36da 00be 6e99 41be 1423 efbd
00000110: c1b9 8a3d 3791 223d 4758 38be 0675 19be
00000120: 80e6 9cbd 208a 5b3d 86a5 e8bd 1c57 073d
00000130: 3147 e5bb aca8 46be f210 263d 6de7 f6bd
00000140: f20c 91bd 6a21 68be 0d40 c13c 24fe debd
00000150: b7c7 51bd 623a 56bd 8a55 e53c 42b2 e6bd
00000160: 9748 bc3c 8078 efbc 2c40 0dbb 5489 dc3d
00000170: fd04 6d3d 5e15 953d 79fd 8abd 3162 6fbd
00000180: c1cc 23be 929e 61bd 2400 ec3d ce5a 013d
00000190: 7f07 e03d 5ff1 833d 3d3b 393d d0f9 fd3c
000001a0: e154 34be 0bd3 33bd 1db2 b43d dfca 873d
000001b0: 3b2e 40be ed43 be3d e1e7 3fbe c2b0 21be
000001c0: 76be 3cbe 4866 013d d308 e0bd 882f b8bd
000001d0: f19b d73d 2bff 79bd 77da 6c3d da7e 31be
000001e0: 64e9 23be 64ae 2abe 5538 923d ea95 d3bd
000001f0: 4717 2bbd f9c7 a23d 84cc 9b3d 70b6 2bbe
00000200: 1571 773f 8455 663e 66ff 81bf 18e1 8bbe
00000210: 125c 73c0 1ddd c4c0 a535 54c0 9233 c33f
00000220: c020 843f 63df 2dbf 2962 153f 1bdb 64bf
00000230: 7e79 07bf 6da9 1440 1079 d7c0 1a85 b9c0
00000240: 2e73 b9c0 88c8 b6c0 2895 3d40 4f92 90bf
00000250: 5f93 40bf 6323 173f f0b5 c3c0 709b 0dc0
00000260: 8034 01c0 7aeb b040 8a39 ac40 e99d b140
00000270: e558 513e c0cc aa40 5666 ba40 312b 7940
00000280: 9087 11bf b7e6 d33e da22 a5c0 25fd 10bf
00000290: 7f0c 5941 f5f5 bdbd f62e 6640 61d5 04bf
000002a0: 58ac 033f 26f7 27bf 1c1e c73f 89f7 dabe
000002b0: 6708 f93e 2b83 8f3e 3003 18bc 13fd 06c0
000002c0: 548e cdbf 3df2 bdbf ccf9 743e 0141 aebd
000002d0: 910c 583e 559a fc3e 1987 b53f 98ef 103f
000002e0: 023e fb3e 7798 c7bf 9180 7abf 3290 1ebf
000002f0: 9fdd 6cbd 5d2c b8bf 901b 8ebf cfc0 45bf
00000300: 1f72 4dc0 6482 8ec0 de97 12bf 294e 4440
00000310: c7b4 843f 6a70 82bf 06ae ce3f e4c4 fc3c
00000320: 5a48 8bc0 b6d0 1bbf 1484 3bc0 5c55 843f
00000330: aaec bebe cda6 c0be 2ea3 8b3e 264e fabf
00000340: bf51 f7bf a0bb f9bf 1669 07c1 f127 eebf
00000350: fac0 8e3e 20f3 a6bf d9cb 42be ca30 23bf
00000360: f472 66bf d29d cf3f 6866 2340 2640 2d40
00000370: a225 2740 c081 ce3f ded6 1240 7be3 e03f
00000380: 6e22 afc0 1dad bbbd 8dfa 28c0 7e56 19bf
00000390: c9bf e23f 95fe 6a3f 98b3 3a40 9f35 5bbf
000003a0: 5329 2d3f 3c74 6bbf d246 bcbe b8e3 053f
000003b0: a996 0140 dd24 a5be d4d9 483e 20d6 21bf
000003c0: e332 09bf 82e0 a2be df86 5cc0 1302 a0be
000003d0: 6ae2 2bc0 fb84 1e3f 2ef4 16c0 fdf9 eb3e
000003e0: cdc1 0b3f 65d0 0d40 575e 353c 8b99 183d
000003f0: a64d 933d fa76 553d f680 35bf 093a c4bd
2.4183648 -0.25628427 1.7170477 0.3526954 20.687902 -1.366711 1.7478664 0.98218215
-0.6473842 -0.5876727 1.5753164 0.8656654 0.27048013 -0.40333644 -0.95373285 -0.7954753
-0.4620602 -0.61842 6.287342 -0.8140503 0.2704612 -0.23803708 -0.6480055 0.95709336
0.40547705 -1.3164207 -1.6165856 -1.7710485 -1.0382394 -1.4319624 -0.90871996 -1.2378346
-1.5124254 -0.63037187 4.3617396 2.0984442 -4.1816626 -0.29345918 4.7150187 -0.15264842
-1.17503 -0.2803085 2.1328027 0.66478086 0.708599 -1.5745357 -0.38002726 -0.7807915
-0.7726826 -0.9145501 -2.2554984 -3.541761 0.4338848 -0.77519405 0.2760876 -0.25561905
0.10500577 -1.5328776 -0.058772065 -0.3082165 -0.25446218 0.28383586 -0.07509891 -0.5582867
-0.048122626 -0.12583241 -0.18906185 -0.116766125 0.06773711 0.03968927 -0.18002425 -0.14986047
-0.07661152 0.053598523 -0.11359696 0.03304206 -0.006997012 -0.1940028 0.040543504 -0.1205586
-0.07082547 -0.22668996 0.023590112 -0.10888317 -0.051215854 -0.052301772 0.02799489 -0.11264469
0.022983832 -0.029232264 -0.0021553142 0.10768381 0.057866085 0.07279466 -0.06786627 -0.058443252
-0.15996076 -0.055082865 0.11523464 0.03158074 0.1093893 0.06442522 0.04522251 0.031002909
-0.17610504 -0.043902438 0.08823035 0.066304915 -0.18767636 0.092902996 -0.18740799 -0.15790084
-0.1843203 0.031591684 -0.10939183 -0.08993441 0.1052779 -0.061034363 0.05782553 -0.17333546
-0.16007 -0.16668087 0.07139651 -0.10331328 -0.041770246 0.07948298 0.07607368 -0.16768813
0.96656924 0.22493559 -1.0156066 -0.2732017 -3.8024945 -6.1519914 -3.3157742 1.5250113
1.0322495 -0.67918986 0.58352906 -0.8939683 -0.5291976 2.322841 -6.733528 -5.7974977
-5.79531 -5.711979 2.9622288 -1.129465 -0.7522487 0.5903837 -6.115959 -2.2126122
-2.0188293 5.5287447 5.382024 5.550526 0.20444067 5.337494 5.824992 3.8932612
-0.56847477 0.4138696 -5.1605043 -0.5663627 13.565551 -0.09275428 3.5966163 -0.5188809
0.5143485 -0.65611494 1.5556064 -0.4276698 0.48639223 0.2802976 -0.009278104 -2.1091964
-1.605906 -1.483955 0.23923415 -0.08508492 0.21098544 0.49336496 1.4181854 0.5661559
0.49070746 -1.5593404 -0.97852427 -0.61938775 -0.05782854 -1.4388539 -1.1102161 -0.7724733
-3.2100904 -4.453417 -0.5726298 3.0672705 1.0367669 -1.0190556 1.6146858 0.030855604
-4.352582 -0.6086534 -2.9299364 1.033855 -0.37289935 -0.3762726 0.27272934 -1.9555099
-1.9321822 -1.9510384 -8.463156 -1.8605939 0.27881604 -1.3042946 -0.19023074 -0.6374632
-0.90019155 1.6220038 2.5531254 2.7070403 2.611672 1.6133347 2.2943645 1.7569422
-5.472953 -0.09163878 -2.6402924 -0.598976 1.7714778 0.9179471 2.9172115 -0.85628694
0.6764118 -0.91974235 -0.36772782 0.52300596 2.0248206 -0.32254687 0.19614345 -0.63217354
-0.5359327 -0.3181191 -3.4457319 -0.31251583 -2.6856942 0.6192166 -2.3586535 0.46089163
0.5459259 2.2158444 0.011069856 0.037255805 0.07192545 0.052115418 -0.70899904 -0.09581382

fc1.bias f4 [32]
00000000: ea60 fc3e c1a0 d63d e4df 25be f5a2 45be
00000010: 1e47 edbf 6839 383e 77ba 7fbf 181d a2be
00000020: 218a af3f 4487 86bf bea9 4abe 4bfc 0d3c
00000030: dc77 dabe fef1 cabf 9fad 23bf 67ff a9bb
00000040: 4bce eb3f 5418 75bd f1b2 c3bf 6e6d 56bf
00000050: fa46 0240 b075 9fbf 2f27 cebf 9407 edbe
00000060: 5374 8d3f 6ba0 a0be e1f0 49bf e1a9 19be
00000070: af75 8bbe 24c8 223f 5f75 423e 805e 33bf
0.4929269 0.1047988 -0.16198689 -0.19300444 -1.8537328 0.17990649 -0.998939 -0.31662822
1.3714029 -1.051003 -0.19791314 0.008666108 -0.4266957 -1.58551 -0.639368 -0.005187917
1.8422331 -0.059837654 -1.5288984 -0.83760726 2.035582 -1.245779 -1.6105708 -0.46294844
1.1051124 -0.3137239 -0.7888318 -0.1500621 -0.27238223 0.6358664 0.18990086 -0.7006607

fc2.weight_ih_l0 f4 [4, 32]
00000000: 229c 1fbf e0d0 e53e 17a0 143f 9ad2 003f
00000010: 8232 7a3f 7597 8d3f 5e23 3bbe eacd 1f40
00000020: 9bdf 343f e883 0bbf cc36 7bbf 0444 a83f
00000030: 9ee2 eebe 366f 533f 7dfd 85bf 3b61 9a3e
00000040: a334 c13e d208 353e 29f7 0bbf d3e8 a8bf
00000050: 447a a23d 33a2 c53f 5457 1d40 b29f 843d
00000060: ca8b dbbe 3a14 25bf 4e15 693f 4b64 743f
00000070: 26b0 b83e bbfb 23bd 9629 9cbf cf79 8cbe
00000080: 7e72 78bf f7da 883e 5f42 343f 2a3d 34bf
00000090: e745 27c0 1da3 61bf aca6 ab40 c3eb 29c0
000000a0: 70e6 70bf 3257 2ac0 f399 5a3f c53d ad40
000000b0: 1031 3640 0d07 17c0 0c32 31c0 ceee 3540
000000c0: f77e 273f 455e a73f e4a5 e1bf 8798 303f
000000d0: 3098 a73f 3607 a1bf 2a5d 0fc0 c762 5c3f
000000e0: bf26 eb3e 3fa9 e6be a2f8 0340 3fd3 513f
000000f0: 0861 553f 26b7 ef3c 58eb c7bf 8ef3 853f
00000100: f362 af3f 722d 0ec0 b97b 27be fb6b aebc
00000110: 4f0d 54c0 47fb a4bf 439e 713f fdba 2cc0
00000120: 392b 65bf f08d 8640 3e3a 313f de24 cb3f
00000130: 285c 51bd 57b8 39bf ed14 0ac0 fd83 cd40
00000140: 3875 f1be d2fd f13f 0c60 6b3f 325b 12c0
00000150: d8f2 3a3f 6cd3 813f 7a6c 0b3f 3e08 c240
00000160: addc 0d40 c290 c1bd 7d66 0040 408f 613e
00000170: 4c7a 783f 8ea2 653f 4294 87bf 390b 62bf
00000180: e1d8 943f fecc 18bf 51f4 3d3f 7bb3 4ebf
00000190: d952 c2c0 d36b 3d3f 1841 fd3f d581 4c3f
000001a0: 1662 ebbe 7f9c b7bf 3fd1 88be 5a70 0840
000001b0: 366e 8fbe c989 79c0 2062 a9be 8ac1 90bd
000001c0: b5de cdbd d2a5 6ebf c87e 2dbe c65b 663f
000001d0: 4b26 843e 0c2d 1f3e 737f 3ebf 72cf a13f
000001e0: f90d 643f 7656 2ebf bd86 10c0 21f9 4b3f
000001f0: 888e 40bf 64f6 f9be 494c 86bf ab4d a9bd
-0.62347615 0.4488592 0.5805678 0.5032135 0.9773332 1.1061846 -0.1827521 2.496943
0.70653695 -0.5449815 -0.9813049 1.3145757 -0.4665727 0.8259157 -1.0467983 0.30152306
0.3773547 0.17679146 -0.5467401 -1.3196052 0.079334766 1.5440124 2.458455 0.06475772
-0.42880088 -0.6448399 0.91048133 0.95465535 0.3607189 -0.04003499 -1.2200191 -0.27436683
-0.970497 0.26729557 0.70413774 -0.7040583 -2.6136415 -0.88139516 5.3640957 -2.6550148
-0.9410162 -2.661572 0.8539116 5.41379 2.8467445 -2.3598053 -2.7686796 2.8427005
0.6542811 1.3075644 -1.7628751 0.6898274 1.3093319 -1.2580326 -2.2400613 0.8608822
0.45927998 -0.45051 2.0620503 0.8196296 0.8335118 0.029262137 -1.5618696 1.0464952
1.3702072 -2.2215238 -0.1635579 -0.021291723 -3.3133123 -1.2889184 0.94382113 -2.6989129
-0.8951908 4.2048264 0.69229496 1.5870626 -0.051113278 -0.72546905 -2.1575272 6.422362
-0.47159743 1.8905585 0.9194343 -2.2868161 0.730268 1.0142646 0.544624 6.063506
2.216594 -0.094514385 2.0062554 0.22027302 0.9706161 0.89701164 -1.059212 -0.88298374
1.1628686 -0.59687793 0.7420092 -0.80742615 -6.0726132 0.7399265 1.978549 0.7988561
-0.4597327 -1.4344634 -0.26722142 2.1318574 -0.28013772 -3.8990347 -0.33082676 -0.07068165
-0.100522436 -0.9322177 -0.16942894 0.89983785 0.25810465 0.15544528 -0.7441322 1.2641432
0.8908382 -0.6810068 -2.2582238 0.79677016 -0.75217485 -0.48820794 -1.049203 -0.08266767

fc2.weight_hh_l0 f4 [4, 1]
00000000: 2109 ab3f 3374 343f 4e1e 8ac0 c0e6 743f
1.3362161 0.70489806 -4.3161993 0.95664597

fc2.bias_ih_l0 f4 [4]
00000000: 60ff e3be adc0 293f 474c 853e 9fc4 7cbe
-0.44530773 0.66309625 0.26034757 -0.2468438

fc2.bias_hh_l0 f4 [4]
00000000: 13d6 b7bf 5966 e7be 1562 debe 54e3 653f
-1.4362205 -0.45195273 -0.43434206 0.898

fc2.weight_ih_l0_reverse f4 [4, 32]
00000000: d167 8bbf bddf b23e 9893 8c3e 79aa 7abf
00000010: 4cab e140 4af6 c6bf db82 4440 5db0 173e
00000020: ff14 3f3f b62b 40bf 20c6 413f e733 423f
00000030: 2b34 26bf 2ae4 b1bd c9ac 393f ba04 b73f
00000040: df29 4540 d1e9 b9bf 5e87 13bf 29c3 8840
00000050: b180 60bf 347a d6bf c9af 6a3e a28a b1be
00000060: 983b 59be fc15 79bc c4c8 b9bf 624d 653f
00000070: 5b38 083f fb8c cfbf 8587 d93f 725b 9cbf
00000080: d300 97be 7fff ccbd c608 4cbe 0e87 443d
00000090: 620c 3f3f 2d59 383c abc2 b2bd 519f b8be
000000a0: 53b8 32bd 9802 d63e 5894 5abe d0f6 39bb
000000b0: ad35 d3be 8d17 b5bf 03d3 cebd fbf9 84bf
000000c0: dbf9 28be f117 e2bd 9ce4 2e3c 4814 cfbe
000000d0: 0adb 493d a90c d7be 0225 90be 50d9 e9be
000000e0: 0a28 a53e 013e 1d3e 42a9 9a3e fc76 163f
000000f0: e57a 373f a6e5 143e 96e8 9b3e 361a 5b3e
00000100: ab41 993f 1490 453f 2f4d dd3d 8b20 37bf
00000110: 3824 8bc0 454e 1b3f 6641 8dc0 eaac c9bf
00000120: 16b6 0c3f 405c cebf 0dcd 473f ae24 803e
00000130: a753 f63f 62ee 6bc0 21e2 0040 e094 1140
00000140: 9f32 a3bf ef2e 15c0 08ac a9c0 1f82 50c0
00000150: 4c5e 4cbf 4114 fabf 082f 88c0 778f 8cc0
00000160: f596 ef3f 2565 19bf 7be5 98be 895f d93e
00000170: 5f0d 1cbf ef19 ffbf e87d d1c0 9bd5 d9bf
00000180: 8727 8f40 665f c940 e575 083e 4978 6b3f
00000190: 7d60 8041 f392 36bf ffcb 8cc0 6b81 5ec0
000001a0: 3d13 8240 874f c73f 1f3f 4fbf 892e c7bf
000001b0: d225 bdbf ee66 2ec0 5c42 92be 8628 b03e
000001c0: 5445 b5be 4271 223d 7b27 6cbf 69d3 2d3f
000001d0: c66d 8940 cac8 97bf 3091 383e 1c6a 2c3f
000001e0: 17da bb3f cdac febd 0193 4bbf 85cf a4be
000001f0: fa56 853e 454e 323f 9151 af40 5f8e 30c0
-1.0891057 0.34936324 0.27456355 -0.9791637 7.0521603 -1.5543911 3.0704868 0.14813371
0.7464141 -0.750667 0.7569294 0.75860447 -0.6492335 -0.08686097 0.72529274 1.4298317
3.0806806 -1.452448 -0.5762843 4.2738233 -0.8769637 -1.6756043 0.22918619 -0.3467608
-0.2121414 -0.015202995 -1.4514394 0.895712 0.5321099 -1.6214899 1.6994482 -1.2215407
-0.29492816 -0.100096695 -0.19925222 0.04798036 0.7462827 0.01125173 -0.08728536 -0.3605905
-0.043632817 0.41798854 -0.21345651 -0.0028375871 -0.4125189 -1.4147812 -0.10098841 -1.0388788
-0.16501562 -0.11039723 0.010674622 -0.4044516 0.049281158 -0.42001846 -0.28153235 -0.4567361
0.3225711 0.15355684 0.30207258 0.58775306 0.716719 0.14540729 0.30450886 0.21396717
1.1973165 0.7717297 0.10805737 -0.7153403 -4.348171 0.60666305 -4.414233 -1.5755894
0.5496534 -1.6121902 0.7804726 0.25027984 1.9244279 -3.6864247 2.0138018 2.2747116
-1.2749823 -2.3309896 -5.30225 -3.257942 -0.79831386 -1.9537431 -4.255741 -4.392513
1.8717943 -0.5991996 -0.2986258 0.424557 -0.609579 -1.9929789 -6.5466194 -1.7018312
4.473575 6.2928953 0.13326223 0.91980416 16.047113 -0.71317977 -4.399902 -3.476649
4.0648484 1.5571145 -0.8095569 -1.5561076 -1.4777167 -2.7250323 -0.28566253 0.34405917
-0.35404456 0.039658792 -0.9224774 0.6790071 4.29465 -1.1858151 0.18024135 0.6734941
1.4675931 -0.12435303 -0.79521185 -0.32189575 0.2604292 0.6965068 5.478707 -2.7586896

fc2.weight_hh_l0_reverse f4 [4, 1]
00000000: f11c 83bf 6f70 2440 9cfa 7140 5205 0241
-1.0243207 2.5693624 3.780921 8.126299

fc2.bias_ih_l0_reverse f4 [4]
00000000: a8e3 6c3f c21b 60be cf83 d53f 2931 793f
0.92534876 -0.21885589 1.668085 0.9734064

fc2.bias_hh_l0_reverse f4 [4]
00000000: 9ce3 ccbe 506f 493e 8414 903d a8cd 2a3b
-0.40017402 0.19671369 0.07035163 0.0026062522

fc2.weight_ih_l1 f4 [4, 2]
00000000: c100 a7bf 4cd1 4640 fec3 b13d b64a a6c0
00000010: 1e20 073f 3d80 06c1 6beb 493f 3a13 b6c1
-1.3047105 3.1065245 0.08679961 -5.19662 0.5278338 -8.406308 0.78874844 -22.759388

fc2.weight_hh_l1 f4 [4, 1]
00000000: cda8 5740 6786 483e d173 3f40 7e47 823b
3.3696778 0.1958252 2.9914439 0.0039758077

fc2.bias_ih_l1 f4 [4]
00000000: 90d4 4ebf 67c9 3c3f 4e84 933d 8ed3 613f
-0.80793095 0.73744816 0.072029695 0.8821343

fc2.bias_hh_l1 f4 [4]
00000000: 28c1 a8bf cd59 a33f 2d4e 823e a862 823f
-1.3183947 1.276178 0.25450268 1.0186357

fc2.weight_ih_l1_reverse f4 [4, 2]
00000000: b82d 9240 ddcc 02bf 8f47 b2bf c780 763f
00000010: 2f65 81bf 2a38 1ac0 9add 733e 7fa7 5b40
4.568081 -0.51093847 -1.3928088 0.9629025 -1.0109004 -2.409678 0.23815003 3.4320982

fc2.weight_hh_l1_reverse f4 [4, 1]
00000000: d626 0f41 44a5 48c0 8a6f c3be 4ccc ba40
8.946981 -3.135087 -0.38171035 5.8374386

fc2.bias_ih_l1_reverse f4 [4]
00000000: eb28 7ebe bc1b a83f c733 e2be 42ed 2440
-0.24820296 1.3133464 -0.44180128 2.576981

fc2.bias_hh_l1_reverse f4 [4]
00000000: 51e6 01bf 6b4a 9a3e 761c 33bd 2ae9 5040
-0.5074206 0.301349 -0.043728314 3.2642312

fc2.weight_ih_l2 f4 [4, 2]
00000000: 4878 99bf 3f6f 4e3f eb98 51bf 81f5 5dc0
00000010: f2d4 c63e 9337 05c0 5644 c13f ce02 4fbf
-1.1989832 0.806385 -0.8187396 -3.4681094 0.3883434 -2.081517 1.509898 -0.80863655

fc2.weight_hh_l2 f4 [4, 1]
00000000: 40cf 36bf 6244 213d 0d23 a93e 2ea0 8440
-0.7140999 0.039371856 0.33034554 4.144553

fc2.bias_ih_l2 f4 [4]
00000000: c552 60be f34b dbbe b58c 483e 1f65 be3f
-0.21906574 -0.42831382 0.19584925 1.487461

fc2.bias_hh_l2 f4 [4]
00000000: 29ef a2be 3cee 5a3f 442d 9cbe c7ab 9d3f
-0.3182309 0.85519767 -0.30503285 1.2318047

fc2.weight_ih_l2_reverse f4 [4, 2]
00000000: 7506 0b40 5667 e3bf 4fe4 2ec0 2e68 06c0
00000010: fbb3 4ec0 3b84 93bf 7701 cb40 640a 64c1
2.172269 -1.7765911 -2.7326849 -2.1001086 -3.2297351 -1.1524729 6.343929 -14.252537

fc2.weight_hh_l2_reverse f4 [4, 1]
00000000: 99fb 2bc0 133b eb3f 2be0 9bbf ab59 28c0
-2.6872313 1.8377403 -1.2177786 -2.630473

fc2.bias_ih_l2_reverse f4 [4]
00000000: fc87 dd3e 657b d6be 2d5d 763f d24d d13f
0.4326781 -0.41891018 0.96235925 1.6351874

fc2.bias_hh_l2_reverse f4 [4]
00000000: b2ee 803e 1437 babf 341f 1a40 2884 d23f
0.2518211 -1.4548059 2.4081545 1.6446581

combination_layer.weight f4 [2, 2]
00000000: 4b57 b0bf 38ec 1140 a919 4c40 0a8b a73d
-1.377664 2.2800426 3.1890662 0.081808165

combination_layer.bias f4 [2]
00000000: 6e7d febe cdd5 903f
-0.4970507 1.1315247

projection.weight f4 [1, 2]
00000000: fe43 ae40 9959 0540
5.4458 2.0835936
