LSTMbest.pth (torch, 14430 bytes, 29 tensors)

fc1.weight f4 [32, 32]
0	0x3c844cb5	0.016149858
1	0x3da8508a	0.082184866
2	0xbee2b722	-0.44280344
3	0xbeb57ef7	-0.3544843
4	0xbfd24001	-1.6425782
5	0xbf077161	-0.5290738
6	0xbf2c69ad	-0.6734875
7	0xbe2f9525	-0.17146738
8	0xbc50066d	-0.0126968445
9	0xbd8ef654	-0.06980577
10	0xbf1d2852	-0.6138965
11	0xbd24e932	-0.040261455
12	0xbe52a415	-0.20570405
13	0xbdee7686	-0.116437
14	0xbebd7036	-0.36999673
15	0x3c87a80d	0.016559625
16	0xbe1c69e1	-0.15274765
17	0x3dd79faf	0.10528504
18	0xbdbf5b0a	-0.09343536
19	0xbe0b1d90	-0.13585496
20	0xbda74234	-0.08166924
21	0xbe82faa9	-0.25581864
22	0x3eecdd7f	0.46262738
23	0x3d62d976	0.05538317
24	0xbe67c35f	-0.22633122
25	0x3cc9943f	0.024606822
26	0x3de82e6f	0.113369815
27	0x3d911efb	0.07085987
28	0x3df43ce7	0.11925679
29	0xbe1ec725	-0.15505655
30	0xbd9fc508	-0.078012526
31	0x3e23c962	0.1599479
32	0x3da8dbbb	0.08245035
33	0xbdbed0ba	-0.09317155
34	0x3c967634	0.01836691
35	0x3da6b1e2	0.08139397
36	0x3d0a5050	0.033768
37	0xbe062201	-0.13098909
38	0x3e8f8d4b	0.28037485
39	0x3de7676e	0.112990245
40	0xbf10f35a	-0.56621325
41	0xbeb2cc9f	-0.34921739
42	0xbe1e41cb	-0.15454786
43	0xbe9264d4	-0.2859255
44	0xbe4e5837	-0.20150839
45	0x3c2063ff	0.009789466
46	0xbe44182e	-0.19149849
47	0xbe0640ec	-0.13110703
48	0xbe8b0642	-0.27153212
49	0xbe8b9f6c	-0.27270067
50	0xbe5d67ac	-0.21621579
51	0xbefd3ec2	-0.49461943
52	0x3ed1d9a4	0.4098636
53	0x3db7ea3c	0.089802235
54	0x3d8ae771	0.06782425
55	0xbe2ab123	-0.16669135
56	0xbd0007aa	-0.03125731
57	0xbebf8da9	-0.37412766
58	0x3dc9ac2c	0.09847292
59	0x3e86737d	0.26259986
60	0xbdfcb3e8	-0.12339002
61	0x3d55300e	0.05204778
62	0xbcc65903	-0.024212366
63	0xbe31628c	-0.17322749
64	0x3e90db07	0.28292105
65	0xbbdef02b	-0.0068035326
66	0x3e81cdbd	0.25352278
67	0xbe3392da	-0.17536488
68	0x3dc7a95c	0.097490996
69	0x3f3dd21c	0.74148726
70	0xbe54b1b1	-0.20770909
71	0x3f09d5c2	0.53841794
72	0xbd9dd52f	-0.07706677
73	0xbcb7f7f6	-0.022457104
74	0x3d7f6c9f	0.06235945
75	0x3f28de9e	0.65964687
76	0xbdec4924	-0.11537388
77	0x3f2c9401	0.67413336
78	0x3f470fba	0.7775837
79	0x3e125812	0.14291409
80	0x3e86f247	0.26356718
81	0x3e5dafbe	0.21649072
82	0x3a8241cb	0.0009937821
83	0xbd9e1290	-0.07718384
84	0x3f0db176	0.5534891
85	0x3e4faf73	0.20281772
86	0xbe9c20c9	-0.30493763
87	0xbcbed95c	-0.023297004
88	0x3c5a9174	0.013340343
89	0xbc80311b	-0.015648415
90	0xbe9195d6	-0.28434628
91	0x3ce38870	0.02777502
92	0xbe7dc82b	-0.2478339
93	0x3bda89bc	0.0066692512
94	0xbe22e568	-0.15907824
95	0xbbb2288f	-0.005436964
96	0xbe3468e7	-0.17618142
97	0xbe5b92fc	-0.21442789
98	0xbe2a4694	-0.16628486
99	0xbebb0b78	-0.36532187
100	0xc00b6a5e	-2.1783671
101	0x3ea73bbd	0.32662764
102	0xbf148187	-0.58010143
103	0x3e53a366	0.206678
104	0xbf54e6a1	-0.8316441
105	0xbe9bbc4c	-0.30417097
106	0x3e5e27de	0.21694896
107	0x3e437692	0.190882
108	0x3e029db7	0.12755476
109	0x3c9a7e43	0.018859034
110	0x3e8a6ee2	0.27037722
111	0x3e7d0186	0.24707612
112	0x3e8c52d9	0.27406958
113	0x3d608b47	0.054820325
114	0xbe134341	-0.14381124
115	0x3eeb9d6c	0.4601854
116	0x3f40f372	0.7537147
117	0x3dc81845	0.09770254
118	0xbfab8e3c	-1.3402781
119	0xbd8ba95c	-0.06819412
120	0xbd81999f	-0.06328129
121	0x3ed28e18	0.41124034
122	0x3c74d888	0.014944203
123	0x3e57fd4e	0.21092722
124	0x3e04d38a	0.12971321
125	0x3e9a5749	0.30144718
126	0x3e2d5630	0.16927409
127	0xbc51db35	-0.012808611
128	0xbe7c64cd	-0.24647827
129	0x3e9dcc56	0.30819958
130	0xbf0e68dd	-0.5562876
131	0x3e91dcda	0.2848881
132	0xc09743d2	-4.727029
133	0x3e5adc4a	0.21373096
134	0xbeb3f44e	-0.35147327
135	0x3da13069	0.07870562
136	0xbe37a255	-0.17933019
137	0x3b33fd1d	0.00274641
138	0x3e56b947	0.20969115
139	0x3dc5deac	0.09661612
140	0x3e867327	0.2625973
141	0x3bcf3b0c	0.0063241776
142	0x3e024c38	0.12724388
143	0x3f0b9b5d	0.5453394
144	0x3eab2a4a	0.33430701
145	0x3e4d0428	0.20021117
146	0x3ee63f66	0.44970244
147	0x3e395247	0.18097793
148	0xbf3951be	-0.72390354
149	0x3e8392cc	0.25697935
150	0xbf8c67f7	-1.0969228
151	0x3d59e02b	0.0531923
152	0x3d509c25	0.05093016
153	0x3e957d35	0.29197088
154	0xbd3fb941	-0.04680753
155	0x3e9c042d	0.30471936
156	0x3e4199f8	0.1890639
157	0xbbe0abeb	-0.0068564317
158	0x3e370d41	0.1787615
159	0xbd0446d8	-0.032294124
160	0xbe860cd0	-0.2618165
161	0x3e5051ae	0.20343658
162	0xbf1cf987	-0.6131825
163	0x3db24c6e	0.08705984
164	0xc08fe3f9	-4.4965787
165	0x3ecd934b	0.40151438
166	0xbe071eae	-0.13195297
167	0xbda266e8	-0.07929784
168	0x3ea6ed2d	0.32602826
169	0x3f04e8da	0.51917803
170	0xbd04adad	-0.032392193
171	0x3e959dbe	0.2922191
172	0x3e99e1bb	0.3005503
173	0x3dbb539f	0.09146809
174	0x3ea9d13f	0.33167455
175	0x3d6bc680	0.05756235
176	0x3dd02bfd	0.1016464
177	0x3dc76bd0	0.097373605
178	0x3ce7264d	0.028216505
179	0x3de175b8	0.11008781
180	0x3f207624	0.6268027
181	0xbd2b6975	-0.04184862
182	0x3e88eee1	0.2674475
183	0x3e03425d	0.12818284
184	0xbdbae327	-0.09125357
185	0x3dc1bd5e	0.09459947
186	0x3dc166ba	0.09443422
187	0x3e1305a6	0.14357623
188	0x3ea4e9b3	0.32209548
189	0xbdcd4d02	-0.10024454
190	0xbe360727	-0.17776166
191	0x3db760c6	0.08954005
192	0x3f000f1a	0.50023043
193	0x3e8f3809	0.2797244
194	0x3ee01c2f	0.43771502
195	0xbe77415a	-0.24146023
196	0x40a2e94a	5.0909777
197	0xbeb858cd	-0.3600525
198	0x3ecf0737	0.40435192
199	0x3d636a4e	0.055521302
200	0xbdd81cc0	-0.105523586
201	0xbddfc30b	-0.10925873
202	0x3e3f19bf	0.18662165
203	0xbe8a42c3	-0.2700406
204	0xbc0ba5b8	-0.008523397
205	0xbe5f84f7	-0.21828066
206	0xbef21a7a	-0.47285825
207	0x3d296524	0.04135622
208	0x3c1272c1	0.008938492
209	0x3e0af4dd	0.1356997
210	0x3d8853d2	0.066566125
211	0xbcd3b157	-0.025841398
212	0xbd8be800	-0.0683136
213	0xbd955585	-0.07291702
214	0x3cb55432	0.022134874
215	0x3cfd91bc	0.03095328
216	0x3e44f508	0.19234097
217	0x3da5bb94	0.08092418
218	0x3ec69fa3	0.38793668
219	0x3e622a85	0.22086532
220	0xbe1987af	-0.14993165
221	0x3bfef928	0.0077811666
222	0x3e8d8d51	0.27646878
223	0x3e42880a	0.18997207
224	0x3e5c9750	0.21542096
225	0x3da27b7f	0.07933711
226	0xbf20b4f8	-0.62776136
227	0x3db1ae4d	0.08675823
228	0x4049b825	3.1518643
229	0x3db4282b	0.08796724
230	0x3d2e6b86	0.04258301
231	0x3e93cd83	0.2886773
232	0x3e3184c3	0.17335801
233	0xbcff4118	-0.031158969
234	0x3e5cba7c	0.21555513
235	0x3e6f7776	0.23385414
236	0xbc27d06a	-0.010242561
237	0x3ea17596	0.31535023
238	0x3e108412	0.14112881
239	0x3eb79db3	0.35862502
240	0x3e92ff7f	0.28710553
241	0x3dc5b842	0.09654285
242	0x3ea54aac	0.32283533
243	0x3db745c9	0.08948857
244	0x3ed4272b	0.41436133
245	0x3dbc51cb	0.09195288
246	0x3c2b1b0c	0.01044346
247	0x3e91b3e3	0.28457555
248	0x3d896223	0.06708171
249	0x3d47504a	0.048660554
250	0x3deda89e	0.11604427
251	0xbda14bf4	-0.07875815
252	0x3d94f03d	0.07272384
253	0x3e881ae8	0.26583028
254	0xbe1caff4	-0.15301496
255	0x3e6d92aa	0.23200479

fc1.bias f4 [32]
0	0x3e6afad5	0.22947247
1	0xbe9c315e	-0.30506414
2	0xbdaa96a0	-0.08329511
3	0xbd43bb15	-0.047785837
4	0xbd98e6a7	-0.074658684
5	0xbe96af7c	-0.2943076
6	0x3f060169	0.523459
7	0x3e2320bc	0.15930456
8	0x3f261797	0.64879745
9	0xbe33d131	-0.17560269
10	0x3e9fd994	0.31220686
11	0x3da4a579	0.08039374
12	0xbc8fd685	-0.017558346
13	0x3eb4ad8d	0.3528866
14	0xbe4cda54	-0.2000516
15	0x3eb43902	0.35199744
16	0x3ec2ae5a	0.38023645
17	0xbe3bc947	-0.183385
18	0xbe58d3cf	-0.21174549
19	0x3f7d5dd1	0.9897128
20	0x3e898b3e	0.26864046
21	0xbe9af1ed	-0.302627
22	0xbda17227	-0.07883101
23	0x3e8c2e62	0.27379137
24	0x3ece1896	0.40253133
25	0x3e7a95e5	0.24471243
26	0x3e1c5595	0.15267022
27	0x3eb3c89e	0.35113996
28	0xbea3cbc3	-0.31991395
29	0x3eb33b3e	0.35006136
30	0xbd8a5955	-0.0675532
31	0xbc722c55	-0.014781077

fc2.weight_ih_l0 f4 [4, 32]
0	0x3e2d9617	0.16951786
1	0x3d855c0f	0.065116994
2	0xbfb8b391	-1.4429799
3	0xbf3accba	-0.7296864
4	0xbee94895	-0.45563188
5	0x3b248b32	0.002510738
6	0xbeb73c5c	-0.35788238
7	0xbf05f0cd	-0.5232056
8	0xbf4d8781	-0.8028489
9	0xbe83f638	-0.25773787
10	0xbf40f19a	-0.75368655
11	0x3de5f06a	0.11227496
12	0x3f3d52cf	0.7395448
13	0x3d9f0c3f	0.07766008
14	0x3e887757	0.2665355
15	0x3e25b57f	0.16182517
16	0xbf063df9	-0.5243831
17	0x3a0f7b66	0.0005473405
18	0x3eab1009	0.3341067
19	0x3fad1dcf	1.3524722
20	0xbf3525ae	-0.7076062
21	0x3ed87fbb	0.4228495
22	0xbf3005f8	-0.6875911
23	0x3eb62cc5	0.3558103
24	0xbdc782a9	-0.09741718
25	0xbf620865	-0.8829406
26	0xbf49e7a5	-0.78869087
27	0xbf5a1105	-0.8518222
28	0x3dd525af	0.10407578
29	0xbf6e8cb3	-0.9318344
30	0xbe0cc82f	-0.13748239
31	0x3ec66249	0.3874686
32	0x3f0594ae	0.5217999
33	0x3f807818	1.003665
34	0xbfeb6bf1	-1.8392316
35	0xbdfe6f86	-0.12423615
36	0x3ed583a1	0.41701987
37	0xbfe18491	-1.7618581
38	0x3f5e6ad8	0.8688178
39	0x3b7b52b1	0.0038348848
40	0x3e943a04	0.28950512
41	0x3f32c3ac	0.6982982
42	0xbec8c0c4	-0.39209569
43	0x3e867dc3	0.26267824
44	0x3fcea34d	1.6143585
45	0x3f8bfba9	1.0936176
46	0xbe236fd7	-0.15960632
47	0x3fb41bd7	1.4070996
48	0x3e1f32f5	0.15546782
49	0xbf90aa80	-1.1302032
50	0xbc93e555	-0.01805369
51	0x3e5ba0cb	0.21448056
52	0x3f9d7348	1.2300806
53	0x3f3512f3	0.7073204
54	0xbe56a760	-0.20962286
55	0x3f2f51d2	0.6848422
56	0x3fef7373	1.8707107
57	0x3f6ef6e4	0.93345475
58	0x3eeb9c15	0.4601752
59	0xbef62867	-0.480777
60	0x3f950319	1.164157
61	0x3f1730fb	0.59059113
62	0xbe41f7e0	-0.18942213
63	0x3e306489	0.17225851
64	0xbfaa5318	-1.3306608
65	0x3f7003f7	0.9375605
66	0xbead540e	-0.3385319
67	0x3ea7a9c6	0.32746714
68	0x3eb3ad50	0.35093164
69	0xbd87b7f5	-0.06626884
70	0xbf8b28ee	-1.0871866
71	0xbf08a363	-0.5337431
72	0xbfc01379	-1.5005943
73	0x3e855b98	0.26046443
74	0xbf9960f8	-1.1982718
75	0xbd12545f	-0.035724994
76	0xbf437ea4	-0.76365113
77	0xbfb218bc	-1.3913798
78	0xbf1c491d	-0.6104906
79	0xbf89f22b	-1.0777029
80	0xbf874496	-1.0567806
81	0x3ef8c615	0.48588625
82	0x3f326986	0.69692266
83	0xbea5164b	-0.3224357
84	0xbeb0b5cb	-0.34513697
85	0x3f188b1b	0.5958726
86	0xbed49250	-0.41517878
87	0xbf980974	-1.1877885
88	0xbeba5de4	-0.36399758
89	0xbf9b98cf	-1.2156008
90	0xbf9fcaf4	-1.2483811
91	0xbfcdcb0e	-1.6077592
92	0xbecaad8d	-0.39585534
93	0xbf8b7339	-1.0894538
94	0x3f1741ed	0.5908497
95	0x3d92a93e	0.07161187
96	0x3fa2ec8b	1.2728437
97	0xbe3b6a0b	-0.18302171
98	0xc005bbdb	-2.0895908
99	0xbf0a310f	-0.5398111
100	0x3f03fffb	0.5156247
101	0xbdcd506d	-0.100251056
102	0x3f750f34	0.95726323
103	0xbe99bdb8	-0.30027556
104	0x3f0607d0	0.5235567
105	0x3d8283e0	0.063728094
106	0xbeb6a689	-0.3567393
107	0x3ecafc7e	0.3964576
108	0x3ec226c0	0.3792019
109	0x3f8d5a74	1.1043229
110	0xbf11c71c	-0.5694444
111	0x3da6fd12	0.08153738
112	0xbe242af8	-0.16032016
113	0xbf229850	-0.6351366
114	0x3e002f9f	0.12518166
115	0x402ba099	2.681677
116	0xbf0619be	-0.5238303
117	0x3f02631d	0.50932485
118	0xbf29f289	-0.66385704
119	0x3f76b695	0.9637235
120	0x3f88f1ba	1.0698769
121	0x3e290ad6	0.1650804
122	0xbf75330d	-0.9578102
123	0x3f50caa2	0.81559193
124	0x3f179f2d	0.5922726
125	0xbe8794ca	-0.26480705
126	0x3f2414a6	0.64094007
127	0x3d8509d2	0.06496014

fc2.weight_hh_l0 f4 [4, 1]
0	0x3f4e9f3a	0.8071171
1	0xbf96839f	-1.1758918
2	0xbdb47d37	-0.08812945
3	0x3e76970f	0.24081062

fc2.bias_ih_l0 f4 [4]
0	0x3dc4c73a	0.09608312
1	0x3f54dbc4	0.83147836
2	0x3ed8b882	0.42328268
3	0x3f3133f9	0.6921993

fc2.bias_hh_l0 f4 [4]
0	0x3eddbc96	0.43307942
1	0xbeb15080	-0.3463173
2	0xbe797486	-0.24360856
3	0x3ee387b7	0.4443948

fc2.weight_ih_l0_reverse f4 [4, 32]
0	0x3e85650a	0.2605365
1	0xbf6511a8	-0.89480066
2	0x3f8ae9e7	1.0852631
3	0x3e86d22c	0.26332223
4	0x3f12fc84	0.5741656
5	0x3e9c52d8	0.30531955
6	0x3f8aead0	1.0852909
7	0x3fbe69e1	1.4876062
8	0x3f8a3dc4	1.0800099
9	0x3e7aca50	0.24491239
10	0x3ea9f2ca	0.33193046
11	0xbe751382	-0.23933223
12	0x3fbf4fdc	1.4946246
13	0x3e5ded7e	0.21672627
14	0x3fcf8cc5	1.6214834
15	0x3f3b6350	0.73198414
16	0x3f607d02	0.87690747
17	0x3fdcfe62	1.7265131
18	0x3f2457be	0.64196384
19	0x3f288acc	0.6583679
20	0x3d1cdae2	0.03829468
21	0xbf3870b8	-0.72046995
22	0xbf3d54a7	-0.73957294
23	0xbefbc573	-0.4917408
24	0xbec48533	-0.38382873
25	0xbea4843e	-0.32132143
26	0x3f8d26e0	1.1027489
27	0xbf1c40dd	-0.61036474
28	0xbe851d14	-0.25998747
29	0x3e392d69	0.18083729
30	0x3f8766ea	1.0578282
31	0xbe3c5578	-0.18391979
32	0xbef8afae	-0.48571533
33	0x3f8283f1	1.0196515
34	0x3e819b9d	0.25314036
35	0xbedea306	-0.43483752
36	0xbe9e8865	-0.30963436
37	0xbe83fd64	-0.2577926
38	0x3f9d5a70	1.2293224
39	0x3f7fdfc9	0.99950844
40	0x3e7f3515	0.24922593
41	0xbd5da2e0	-0.054110408
42	0x3e83055d	0.2559003
43	0x3fa8175d	1.313213
44	0x3ed419b3	0.41425857
45	0x3ece72cc	0.40321958
46	0x3fd50b8b	1.6644148
47	0x3f791279	0.9729381
48	0xbe97dcd4	-0.29660666
49	0x3f97d030	1.1860409
50	0x3f0ba419	0.5454727
51	0x3ecc53b7	0.3990762
52	0xbd330a93	-0.043711256
53	0xbe94e93c	-0.29084194
54	0xbe8afb6b	-0.27144942
55	0xbeb1cb3c	-0.34725368
56	0xbcf762a9	-0.030198412
57	0x3e85af98	0.2611053
58	0x3fc0722e	1.5034845
59	0xbd8d2e06	-0.06893544
60	0x3b5915a4	0.003312447
61	0x3f331ae4	0.69962907
62	0x401021b5	2.2520573
63	0x3ea3f1a6	0.320203
64	0x3e964efe	0.2935714
65	0x3f2041b0	0.6260023
66	0x3f2e6811	0.6812754
67	0x3f8770d5	1.0581309
68	0xbf09e6bd	-0.53867704
69	0xbf2dd350	-0.6790056
70	0x3f4708b3	0.7774765
71	0x3f549559	0.83040386
72	0xbd72de0b	-0.059293788
73	0xbee768dc	-0.4519719
74	0x3f3861b4	0.72024083
75	0x3ed44e4e	0.41465992
76	0xbf010a49	-0.5040632
77	0x3f3a64a7	0.72809833
78	0x3ea032f5	0.31288877
79	0x3f29e5a5	0.66366035
80	0xbebc17f7	-0.36737034
81	0x3f025226	0.509066
82	0xbea7a722	-0.327447
83	0xbdc1662f	-0.09443318
84	0x3eff1873	0.4982334
85	0xbf6c60dd	-0.923353
86	0xbf3c0776	-0.73448884
87	0x3f3e6f45	0.74388534
88	0x3f8069c7	1.0032281
89	0x3d86de58	0.065853775
90	0x3f963ed1	1.173792
91	0x3dc43774	0.09580889
92	0x3e2bf7be	0.16793725
93	0x3e524f02	0.20537952
94	0x3f37c33a	0.7178227
95	0x3d91678c	0.07099828
96	0xbf164e54	-0.5871327
97	0x3f0ae2ba	0.5425221
98	0xbce1aa26	-0.027546953
99	0xbf81ce33	-1.0141052
100	0xbf2535cd	-0.6453522
101	0xbe70ceea	-0.23516431
102	0x3f1d192b	0.6136653
103	0x3dec6937	0.11543506
104	0xbebc8db4	-0.3682686
105	0x3e576e88	0.21038258
106	0xbe825d16	-0.25461644
107	0xbe00fd04	-0.12596518
108	0x3f908bfc	1.129272
109	0x3e1f5d1f	0.15562867
110	0x3e9cd849	0.30633762
111	0x3f2e657f	0.6812362
112	0xbf8e8ccd	-1.1136719
113	0x3f123316	0.571092
114	0x3f035971	0.5130835
115	0x3fa084b8	1.2540503
116	0xbf089014	-0.53344846
117	0x3dfe36fe	0.12412833
118	0xbf861172	-1.0474074
119	0xbf4fb8e3	-0.8114149
120	0x3f0696d4	0.52573895
121	0xbd3a32f3	-0.045458745
122	0xbf174aed	-0.590987
123	0x3f598656	0.84970605
124	0x3e0c2f09	0.13689817
125	0x3ca94b9f	0.020665942
126	0x3f2735d6	0.6531652
127	0xbebc7768	-0.3680985

fc2.weight_hh_l0_reverse f4 [4, 1]
0	0x3ec2a125	0.3801357
1	0x3f770d28	0.9650445
2	0xbee276d6	-0.4423129
3	0x3fa124dd	1.2589375

fc2.bias_ih_l0_reverse f4 [4]
0	0x3eadc547	0.33939573
1	0x3f6d3ad4	0.9266789
2	0x3f1e01d4	0.6172154
3	0x3ede16c4	0.43376744

fc2.bias_hh_l0_reverse f4 [4]
0	0xbf40b1a8	-0.7527108
1	0xbeebbd96	-0.4604308
2	0xbf4fd1f0	-0.81179714
3	0xbf76eed5	-0.9645818

fc2.weight_ih_l1 f4 [4, 2]
0	0xbfef995c	-1.8718677
1	0x40a92cef	5.286735
2	0xbf8827ff	-1.0637206
3	0x40820215	4.062754
4	0xbfc5623f	-1.5420607
5	0x40724903	3.7857063
6	0xbede6522	-0.43436533
7	0x3e6118e8	0.21982157

fc2.weight_hh_l1 f4 [4, 1]
0	0x3fe08b7a	1.7542565
1	0x40567e4f	3.3514593
2	0x3f909791	1.1296254
3	0xbfa708c0	-1.3049545

fc2.bias_ih_l1 f4 [4]
0	0x40623f10	3.535099
1	0x40519fcc	3.2753782
2	0x3ff68f44	1.9262471
3	0x3f11273b	0.56700486

fc2.bias_hh_l1 f4 [4]
0	0x40861422	4.1899576
1	0x401acc45	2.4187176
2	0x405846ba	3.3793168
3	0xbef988f2	-0.48737293

fc2.weight_ih_l1_reverse f4 [4, 2]
0	0x3f2a5cbb	0.66547745
1	0x3f964ec0	1.1742783
2	0xbedef151	-0.43543485
3	0x3f29f7bc	0.6639364
4	0xbf94e3ff	-1.1632079
5	0xbf5f9160	-0.873312
6	0xc03361d1	-2.8028452
7	0x3f887ce0	1.0663109

fc2.weight_hh_l1_reverse f4 [4, 1]
0	0x4053faf2	3.3121915
1	0xbfa5d4e8	-1.2955599
2	0xbed8d9b1	-0.42353585
3	0xbd163dfc	-0.036680207

fc2.bias_ih_l1_reverse f4 [4]
0	0xbe1b24fb	-0.15150826
1	0x3fc29544	1.5201802
2	0xbed5faa8	-0.41792798
3	0x3e0c5288	0.13703358

fc2.bias_hh_l1_reverse f4 [4]
0	0xbdd021a4	-0.101626664
1	0x3e6508ad	0.22366591
2	0x3ef44442	0.47708327
3	0x3de5ccf8	0.11220735

fc2.weight_ih_l2 f4 [4, 2]
0	0xbf3211d7	-0.6955847
1	0x3f6e82ba	0.9316822
2	0xbee46140	-0.44605446
3	0x4056148d	3.3450043
4	0x3e45d629	0.19319977
5	0xbf29fb34	-0.6639893
6	0xbe991a66	-0.29902953
7	0x3fa64404	1.2989507

fc2.weight_hh_l2 f4 [4, 1]
0	0x3f2e908c	0.6818931
1	0xbfb2f11b	-1.397983
2	0xbe6c7caa	-0.2309443
3	0xbfaae805	-1.3352057

fc2.bias_ih_l2 f4 [4]
0	0x3f0b5922	0.5443288
1	0x3e240937	0.1601914
2	0xbf2575a0	-0.64632607
3	0x3f32475e	0.6964015

fc2.bias_hh_l2 f4 [4]
0	0xbebb39d3	-0.36567554
1	0xbf897b30	-1.0740719
2	0x3eb3b163	0.35096273
3	0x3f25962a	0.6468226

fc2.weight_ih_l2_reverse f4 [4, 2]
0	0x3f09d79e	0.5384463
1	0x3e7d0c40	0.24711704
2	0x3f675ca4	0.90375733
3	0x3ee85a71	0.453815
4	0xbf2c61b3	-0.6733658
5	0xbffdeb4e	-1.9837434
6	0xbc092c66	-0.008372402
7	0x3f932855	1.1496683

fc2.weight_hh_l2_reverse f4 [4, 1]
0	0xc06bc71d	-3.684028
1	0x3f8fc152	1.1230872
2	0xbf7ed3bb	-0.99541825
3	0xc02fd832	-2.7475705

fc2.bias_ih_l2_reverse f4 [4]
0	0xbed8217e	-0.42213053
1	0x3f584463	0.8447935
2	0xbf496230	-0.7866545
3	0x3f110ed2	0.5666324

fc2.bias_hh_l2_reverse f4 [4]
0	0xbcc20d9c	-0.02368813
1	0x3f0b550b	0.5442664
2	0x3f685072	0.9074775
3	0xbf1a55e6	-0.6028732

combination_layer.weight f4 [2, 2]
0	0xbfdca576	-1.7237995
1	0xbfea1dbf	-1.8290328
2	0xbf5673bd	-0.8377035
3	0xc0038b6a	-2.0553842

combination_layer.bias f4 [2]
0	0x3eb97c5b	0.36227688
1	0x3ebe0178	0.37110496

projection.weight f4 [1, 2]
0	0xc001dac4	-2.0289774
1	0xbfb416b3	-1.4069427
