web/backend/models/LSTM/LSTM_best.pth (torch, 44797 bytes, 87 tensors)

fc1.weight f4 [30, 30]
00000000: 38e1 20bf e261 b2be 78d0 023f 7ff8 71bf
00000010: 453f 99be 9672 9dc1 077b 98c0 49e8 563e
00000020: 0d4d 803f eede 41c1 8d22 48bf dd9a 103f
00000030: fe89 9d3f 6e08 ba3f 99ec ff3e 9eb6 dfbe
00000040: 1711 0bbf 88cf b4bf 7cd3 16bd b8f2 8a3e
00000050: bad4 1b3f 32ae 1f3f a07e 3d3f 405a e9c0
00000060: d0a2 bebf 9c0f 503f d63b 123d 291e 043e
00000070: 029a 163f c08f 063e e0a9 183b 5472 02bc
00000080: fc50 4abe 3da9 1b3e ad08 af3d cb0e f53c
00000090: e403 213d 3b21 3fbe b238 033d 6310 833d
000000a0: 7829 7bbd 9f38 85bd f306 71bc cc96 f2bb
000000b0: bbb1 a73d 9d05 6ebd aeac 83bd 9bdc 22be
000000c0: e96d f9bd d187 df3d e867 13bd e56d 69bd
000000d0: a6a4 42be 7aa7 0e3d 52dd 36be bbe7 17be
000000e0: 3bbc d5bd f707 c63d 2229 e9bd 1a9a 63be
000000f0: ba47 0ebf 2251 a93e 2f4c cfbe a052 71c1
00000100: 2aa7 c63e 9e66 19c1 3d6f 0d40 cbb8 6dbe
00000110: 3354 f7bf c591 32c0 c498 06bf fa0c 193f
00000120: b60e 6b3e 30fa df3f 6603 a2bf 9a33 cbbe
00000130: 3649 703f eae0 253d 2eea 193f 9610 ae3f
00000140: 4b16 9b3f f70e 7a3f cce2 c43f eb5c d23f
00000150: da79 cabe 4245 49be e7b0 21bf 6115 34c0
00000160: daa1 18bf 4345 d2be 8e39 c43f 71c0 f93d
00000170: b5fc ee3e c97e ff3f fa28 8cbf 185a 4a40
00000180: 7a75 d840 17af bbbd aadc c53f 0869 14bf
00000190: 8282 d8bf 2891 2dbf d314 803d bd44 9c3f
000001a0: 8310 f0bf a178 043e 2583 443f 3373 4dbe
000001b0: a15c a23f 1074 1d3a 1b66 d63f 2fc1 cf3f
000001c0: 6162 e23f 1ad5 cd3f 0741 8f3f bb83 953f
000001d0: 3a1c d6bf 7d7d d8be 5c85 2d3e a274 a6be
000001e0: d538 bb3e 83d9 86bf 9d4e fbbf d658 9c41
000001f0: a7c0 4f3e 973d ad41 7972 913e 59ed 343f
00000200: f93a a33f f92f cf40 05cc be3e de3f 563f
00000210: 694a 793e a152 84bf 4393 163f 47f0 6a3d
00000220: ed19 00b9 a599 273f 4ea9 acbd ecd1 bcbe
00000230: 8350 77c0 c6ce 6ac0 c799 8dc0 0969 06c0
00000240: ba8e 4d3e 9bcc 4abe 3502 babe 829c 48bf
00000250: 8926 af3e dbf8 ad3e ae74 043d 1223 fabd
00000260: 818c a9bf 8ef6 a3c0 56d0 05be 97dc cec1
00000270: a669 a740 f510 873f 5543 8dbf 0496 8ac1
00000280: ffd2 313e 187b 073f 7d5c 72be 3179 b53f
00000290: 001f 893d 561a bbbf 127c f4bd 617f 7abe
000002a0: 8acd 0c3f 0c97 04c0 004d b03e 5546 8b3e
000002b0: b1a1 693e e8ff cebf 2a50 aabe be3a bfbf
000002c0: 8972 75be 27f3 f8bd 8bd8 ed3e db2f e43e
000002d0: a74a e1c0 18da 813e cf5f 87c0 0b96 8a41
000002e0: 374e 3a3e c03f 3341 4b2e 94be 66eb 903e
000002f0: cb3e 6fbf b2f1 913f 51b1 0bbf 1636 973d
00000300: 2a2f 383e 9bbf 48be 4f00 8e3f 83ad 7c3e
00000310: 1776 1d3f 3019 edbe 9f0b 88bd 5a80 d73e
00000320: 5965 42bf 58e4 9dbe 4116 18bf 4fbd 21bf
00000330: 2a90 1ebe fdda 80be e249 f53e ed8c 4c3e
00000340: c644 57bc 911c 9abe 8100 d8c0 4515 b8c0
00000350: 80e2 35c0 872f bec1 bb55 1c3f 5fe4 f2c0
00000360: 94bf 7dc0 726f 343d 6748 84c0 ffe7 24c1
00000370: 219b 823f c663 fbbe ea36 18bf 6af6 db3f
00000380: 628f 3c40 7eb1 2e3f 425b 633f 3ed1 89be
00000390: 5f3f 513f 49f8 373d 8b0c 6440 c457 5d40
000003a0: 3fe5 7240 b978 9e40 aa83 133e ecde 1cbf
000003b0: f388 473e 4493 1dc0 81aa 35bf 2694 14bf
000003c0: e23a de3f ea8b 813e b2d3 c1bf 6f85 77c1
000003d0: 9d77 94bd c678 6e41 9900 cc40 8703 9e3e
000003e0: 5fc9 c8bf 1762 ca3e 0fdf 0cbf 5128 fe3e
000003f0: 87e1 7ebe 7c2c 76bf 2768 85be 610d b33f
-0.62843657 -0.34840304 0.5109935 -0.945198 -0.29931083 -19.68095 -4.765018 0.20987047
1.0023514 -12.116926 -0.7817772 0.564863 1.2307737 1.4533823 0.49985197 -0.43694013
-0.5432295 -1.4125834 -0.03682278 0.27138305 0.6087147 0.62375176 0.7402134 -7.292267
-1.4893436 0.8127382 0.035701595 0.1290213 0.5882875 0.13140774 0.0023294613 -0.007961828
-0.19757456 0.15201278 0.08546577 0.02991428 0.03931035 -0.1866502 0.03203649 0.0639961
-0.061318845 -0.0650494 -0.0147111295 -0.0074032303 0.08188196 -0.058110822 -0.064294204 -0.15904467
-0.12179167 0.10914577 -0.035987765 -0.05698957 -0.19008121 0.034827687 -0.17857864 -0.14834492
-0.10436293 0.09669488 -0.113847986 -0.22226754 -0.55578196 0.33069712 -0.4048781 -15.082672
0.3879941 -9.587553 2.2099144 -0.23215024 -1.932257 -2.790147 -0.5257685 0.59785426
0.2295483 1.7498226 -1.2657287 -0.39687806 0.9386171 0.040497698 0.60122955 1.3598812
1.2116178 0.97679085 1.5381713 1.6434606 -0.3954609 -0.19655326 -0.63160557 -2.8138049
-0.59621966 -0.41068467 1.5330064 0.121949084 0.46677175 1.9960567 -1.0950005 3.161749
6.7643404 -0.09164255 1.5457966 -0.57972765 -1.6914828 -0.67799616 0.06253972 1.2208477
-1.8755039 0.12936641 0.7676261 -0.20063476 1.2684518 0.00060063694 1.674991 1.623083
1.7686273 1.6080658 1.119172 1.1680826 -1.6727364 -0.4228324 0.16945404 -0.3251086
0.36566797 -1.0535129 -1.9633366 19.543377 0.20288335 21.655073 0.28407648 0.70674664
1.2752372 6.474606 0.3726503 0.83691204 0.24344791 -1.0337716 0.58818454 0.057358053
-0.0001221669 0.6546882 -0.0843073 -0.36878908 -3.864289 -3.6688704 -4.4250216 -2.1001608
0.20073977 -0.19804613 -0.3632981 -0.7836381 0.34209087 0.33978924 0.032337837 -0.122137204
-1.3246003 -5.123847 -0.13067755 -25.85771 5.2316465 1.055205 -1.1036173 -17.32325
0.17365645 0.529222 -0.23668094 1.417761 0.06695366 -1.4617412 -0.11937727 -0.24462654
0.5500113 -2.0717192 0.34433746 0.27202097 0.22815587 -1.6171846 -0.33264285 -1.4939802
-0.23969473 -0.12155753 0.46454272 0.4456776 -7.040363 0.25361705 -4.2304454 17.323263
0.18193899 11.203064 -0.2894157 0.28304595 -0.9345519 1.1401885 -0.5456744 0.07383363
0.17986742 -0.19604342 1.1093844 0.24675564 0.61508316 -0.4630828 -0.066428415 0.42090112
-0.75935894 -0.30838275 -0.59408957 -0.63179487 -0.15484682 -0.25167075 0.4790793 0.19975634
-0.013138955 -0.3009992 -6.7500615 -5.7525964 -2.8419495 -23.773207 0.61068314 -7.5903773
-3.964818 0.044051595 -4.133838 -10.30664 1.0203592 -0.4909956 -0.5945879 1.7184575
2.9462514 0.6823958 0.88811123 -0.26917452 0.8173732 0.044914518 3.5632656 3.4584818
3.795242 4.9522367 0.14405695 -0.6127765 0.19485836 -2.4621134 -0.70963293 -0.58038557
1.736172 0.25302058 -1.5142729 -15.470077 -0.07249377 14.904486 6.375073 0.30862066
-1.5686454 0.39527962 -0.5502786 0.49640134 -0.2489072 -0.9616163 -0.26056024 1.3988458

fc1.bias f4 [30]
00000000: 6656 363e 1e2a 91bd a595 3abe 283d 70bf
00000010: af09 073f 7531 6a3e 1632 a53d 8240 61bf
00000020: c13d af3e 3589 0bbf 183d 30bf d594 bd3d
00000030: 6243 4fbe 714b dd3d d475 6e3e 587c afbe
00000040: bcc6 0fbf 0098 39be 68a1 47be 0c27 ce3d
00000050: d24e d0bd bb51 d03d 404f 43be 2c2e 9bbd
00000060: 2fc3 643f b455 9fbe 0b99 063e 921c da3f
00000070: 3793 073e 7a98 cbbb
0.17806396 -0.07088111 -0.18221147 -0.9384332 0.5274915 0.22870429 0.08066194 -0.87989056
0.34226802 -0.54506236 -0.6884322 0.09256903 -0.20240548 0.10805405 0.23287135 -0.34274554
-0.5616262 -0.1812439 -0.19495165 0.10066041 -0.10171284 0.10171839 -0.190732 -0.07577166
0.89360327 -0.31120074 0.13144319 1.7039969 0.13239752 -0.006213245

fc2.weight_ih_l0 f4 [4, 30]
00000000: bd63 81c0 fd3b 4dbf ac99 ae3f 9264 b83e
00000010: 07aa 4bbf 32f7 f23d 7c7e c33f 8697 60bf
00000020: b8a6 af3f 65c7 90c0 650a a0c0 db19 b53f
00000030: 551c 96bf c6e3 f9be d7db 23c0 3780 9e3f
00000040: b07f 93bf ca6b 193d f462 cf3e 3cbb 9fbf
00000050: 188f 3d3f 5873 9fbf 9c71 0a3f 747f 26bf
00000060: 158d 07be 536c d43f c0a5 de3f 1432 a940
00000070: 4632 c93d 019c 0640 24e4 cb3f 0ed8 8cbd
00000080: bcac 88bf 799d 4bc0 94ad b23f 987a 94bf
00000090: 32a1 c640 6bfa 5cc0 91e1 44bf b7e2 a8bd
000000a0: 3c3d 93c0 2bee d540 a10a 75c0 ebcc abbe
000000b0: d433 353e 0d7d b83f d07c e13f d493 8dc0
000000c0: a227 a8bd 7830 f33f 8cea 80be c517 9c3f
000000d0: a275 debe 1c34 aebe 1163 ef3e 25fa b93f
000000e0: 086d 0dc0 2cd0 9ec0 e322 2740 b713 173e
000000f0: abf7 683c 08da e9be 00f6 64bd bed7 b6bf
00000100: 587e adbf 4083 b1be ee37 0540 ac51 4ec0
00000110: 5013 923f 263e 91bf 8a73 933f f910 f83d
00000120: 4735 6ac0 bb49 5d3f 7c10 05c0 3938 1c40
00000130: 00a4 61c0 3ed3 543e 13a1 343f dce7 39bf
00000140: 5d4d 093e dc36 b1bf c18e fa3e af19 cb3d
00000150: 6e02 d5c0 1ce4 cfbe d2eb 07bf 899f 8ebf
00000160: e22a ad3e 1369 84bf 93cd c93f b2f6 763e
00000170: 1dee 3b40 381d f6bf b3b4 fe3f 8154 ad3e
00000180: 1401 82bf 2b0e 9ebf 402e d83f 1297 c1c0
00000190: 0644 65c0 bdb8 c83e ddf5 1040 c172 7c3f
000001a0: 4e7c 743f 2764 2b40 9a17 d8bf fcdf c640
000001b0: 5fba 443f 9a03 9f3f b688 13bd 24ed 9f3f
000001c0: f362 79bf 2f65 8c3e ecc1 20bf a4dc b73f
000001d0: 6c7f 23c0 9722 7040 fcce 8ec0 01ef bd3c
-4.043425 -0.8016966 1.3640647 0.3601423 -0.79556316 0.11863555 1.5272975 -0.87731206
1.3722754 -4.52434 -5.001269 1.4148515 -1.1727396 -0.4880659 -2.560293 1.2382878
-1.1523342 0.03745631 0.40505183 -1.2479014 0.7404647 -1.2457075 0.54079604 -0.6503823
-0.13237412 1.6595558 1.7394333 5.287363 0.09824042 2.1032717 1.5928998 -0.06877147
-1.0677714 -3.1814864 1.3959222 -1.1599913 6.207177 -3.4527843 -0.7690669 -0.082463674
-4.601225 6.685323 -3.8287737 -0.33554778 0.17695552 1.4413162 1.7616215 -4.4242954
-0.08210684 1.8999166 -0.25178945 1.2194754 -0.43449122 -0.3402413 0.4675527 1.4529463
-2.2097797 -4.9629116 2.6115043 0.14753614 0.014219205 -0.45674157 -0.055898666 -1.4284589
-1.3554182 -0.34670448 2.0815387 -3.2237349 1.1412144 -1.1347091 1.1519635 0.12112612
-3.6595018 0.8644063 -2.0791311 2.4409316 -3.5256348 0.20783707 0.7055828 -0.72619414
0.13408418 -1.3844867 0.48937038 0.09917008 -6.6565466 -0.4060372 -0.5309421 -1.1142436
0.3382178 -1.0344566 1.5765861 0.24117544 2.9364083 -1.9227667 1.9898895 0.33853534
-1.0156579 -1.2348074 1.6889114 -6.049691 -3.5822768 0.39203444 2.2650063 0.986126
0.95502174 2.6779878 -1.6882203 6.214842 0.7684688 1.2422974 -0.03601905 1.2494245
-0.9741661 0.27420947 -0.627959 1.4364209 -2.5546522 3.7521112 -4.4627666 0.023185255

fc2.weight_hh_l0 f4 [4, 1]
00000000: 578a 3b40 c254 d1be 54f6 6a3f 6000 9640
2.9303186 -0.40884978 0.91782117 4.687546

fc2.bias_ih_l0 f4 [4]
00000000: 645c 96bf 0c26 2d3f 0d7f 1f40 7491 52be
-1.1746945 0.6763618 2.4921296 -0.20563298

fc2.bias_hh_l0 f4 [4]
00000000: a6b6 413e 0a48 fcbe 093a f83f c117 36bf
0.18917331 -0.4927371 1.9392711 -0.71129996

fc2.weight_ih_l0_reverse f4 [4, 30]
00000000: 9cf7 68bf 2eab a8be 39f4 25bf afd4 9b3e
00000010: fc32 633f 3417 2bc0 0608 de3f b795 b2bf
00000020: b5f4 f63f f05d 32bf 033a a93e b7da 413f
00000030: 2509 f3bc f7fa 0fbf 1c8e 90bf fd98 65bf
00000040: 358e 1cbf 58f8 a2bd 6d63 32bf 37aa 15bf
00000050: 7857 243e d4c7 e1be a19f bcbd 00c6 0abf
00000060: 54e4 d2bf 86ed 8f3f 8091 893e 478c 33c0
00000070: e168 453f 8b69 cb3f a7ed 783e 018f 69be
00000080: 8348 0dbf 58e2 2ebf b13f d63f 8d6f a8bd
00000090: db2b d9bf e07e a2bf 8e61 c3bf 8a44 f0be
000000a0: 1589 d6bf 6fe9 01bf 9c04 bd3f 7a1f 273f
000000b0: 4e3f 103f e1ea a73e 8781 6c3e 5a81 bdbe
000000c0: eeb3 003e 82e9 883e 77fb ffbe a82c 183f
000000d0: 803e be3e 6cef 813f 286e 5f3f b7a4 f8bd
000000e0: f570 d5be a30f 873f 4639 41bf 582c 00c0
000000f0: 5061 703f bc37 a5be 8cf5 ce3e 9d3f d040
00000100: 73a6 91c0 4587 5340 b556 4dc0 efe6 2a40
00000110: 11cb eabf 0ff9 8a3e 51ec 5440 8350 20c0
00000120: cf3e 01bd b542 543f e461 373f 5944 8abf
00000130: fb0e 003f 70ff ab3c dedb fc3e 0deb 21c0
00000140: 13e5 f03e d706 213f c105 583f 07ac 663f
00000150: 2e4f 3940 6c67 04bf d4b4 7640 e033 a6c0
00000160: 9270 fd3f f1bf 8dc0 5c5f 9f40 236e cabe
00000170: 7079 533e bd80 d7c0 725a 14c0 f9ab f740
00000180: cb8f 2d40 41fc 453f c05c 78bf 32d2 44c0
00000190: bab1 ffbf cee4 f63f a74f a9bf 881f 52bf
000001a0: 1d8f 5340 c37e 9a40 dc81 2e40 0b74 093f
000001b0: 565a 74bf ca1d b13e 5ea2 13bf d1a4 60bf
000001c0: 9a00 413f 4cfb 2c3d ec25 10c1 c70e de3f
000001d0: bc42 1241 88c8 8d40 3cea 3340 b411 80c0
-0.9100282 -0.329431 -0.6482578 0.30435702 0.8874967 -2.6732912 1.7346199 -1.3951939
1.9293429 -0.6967459 0.33052072 0.7572436 -0.029667446 -0.56242317 -1.1293368 -0.89686567
-0.6115449 -0.07957524 -0.6968296 -0.5846285 0.16048992 -0.4409777 -0.09210134 -0.54208374
-1.647593 1.1244361 0.2686882 -2.8054368 0.7711316 1.5891584 0.24309407 -0.22808458
-0.5518877 -0.68314123 1.6738187 -0.082244016 -1.6966509 -1.2694969 -1.5264146 -0.4692729
-1.6760584 -0.50746816 1.4767032 0.65282404 0.56346595 0.32796386 0.23096286 -0.3701275
0.12568638 0.26740652 -0.4999654 0.5944314 0.3715706 1.0151191 0.8727746 -0.12140792
-0.41687742 1.0551647 -0.7547802 -2.0027065 0.9389849 -0.32269084 0.40421712 6.5077653
-4.5515685 3.3051312 -3.2084172 2.670345 -1.8343221 0.27143142 3.3269236 -2.504914
-0.03155404 0.82914287 0.71633744 -1.0802108 0.5002286 0.020995826 0.49386495 -2.5299714
0.4704977 0.6290106 0.8438378 0.9010624 2.8954577 -0.5172031 3.8547869 -5.1938324
1.9799979 -4.4296803 4.9803905 -0.39537153 0.20651793 -6.734465 -2.3180203 7.7397428
2.7119014 0.77338034 -0.97016525 -3.0753293 -1.9976113 1.9288576 -1.3227433 -0.8207936
3.30561 4.827974 2.726676 0.5369269 -0.9545034 0.3459304 -0.5766963 -0.8775149
0.7539154 0.042231843 -9.009258 1.734826 9.141293 4.430729 2.8111715 -4.002161

fc2.weight_hh_l0_reverse f4 [4, 1]
00000000: 37a8 723f 3d17 613e b50f 4cbf 536c c2c0
0.94787925 0.21981521 -0.7971147 -6.075723

fc2.bias_ih_l0_reverse f4 [4]
00000000: fcd0 0fbe a860 d23e 9687 60bf 17f4 98be
-0.14044565 0.41089368 -0.8770689 -0.29873726

fc2.bias_hh_l0_reverse f4 [4]
00000000: 5ef0 053e a591 453f bbe2 a5bf 1488 61be
0.13079974 0.7717536 -1.2959818 -0.22024566

fc2.weight_ih_l1 f4 [4, 2]
00000000: 24f2 703c 07e8 3fc0 aa71 8b3e 2aa1 913f
00000010: 0794 6340 d042 ccbf 5617 5ec0 2f4f 9f40
0.014706168 -2.9985368 0.27235156 1.1377308 3.5559099 -1.595789 -3.4701743 4.978416

fc2.weight_hh_l1 f4 [4, 1]
00000000: 93c3 c53f 6f2c cb3f 5513 423f fd9e 3ebe
1.545031 1.5872935 0.7581075 -0.18615337

fc2.bias_ih_l1 f4 [4]
00000000: 4e83 12c0 e0c6 0540 ba14 a33d 4c5c 24bf
-2.2892642 2.0902634 0.07962938 -0.64203334

fc2.bias_hh_l1 f4 [4]
00000000: f2a5 6bbf 8989 143f 542f 423f d93f 783f
-0.9205009 0.5802236 0.75853467 0.96972424

fc2.weight_ih_l1_reverse f4 [4, 2]
00000000: 784a 0b40 a1b0 803f fa7f 23c0 a6ae 8dbe
00000010: 786f 5040 0a43 90bf 52ca ae3e 618f f33f
2.1764202 1.0053903 -2.554686 -0.2767231 3.2568035 -1.1270459 0.34138733 1.9028131

fc2.weight_hh_l1_reverse f4 [4, 1]
00000000: fc94 6dc0 f537 2640 f32e f0bf fe91 43bf
-3.7122183 2.5971653 -1.8764328 -0.7639464

fc2.bias_ih_l1_reverse f4 [4]
00000000: 5416 80bf 86eb 803f 2ed0 e53e 43d6 1840
-1.0006814 1.0071876 0.4488539 2.3880775

fc2.bias_hh_l1_reverse f4 [4]
00000000: 386f 8fbd 15c5 aa3f f8e0 f63e ee66 2040
-0.07003635 1.3341395 0.48218513 2.5062823

fc2.weight_ih_l2 f4 [4, 2]
00000000: 34ab 693f 9376 33c0 7db0 75bf 74ef 9e3d
00000010: 88a9 de3f 009a e5bf 621b 903f b707 7dbf
0.9127686 -2.8041122 -0.95972425 0.07760516 1.7395487 -1.7937622 1.1258357 -0.98839897

fc2.weight_hh_l2 f4 [4, 1]
00000000: ddac 92be 259b 0240 ae51 9cbe 79e6 af40
-0.2864751 2.0407193 -0.30531067 5.496884

fc2.bias_ih_l2 f4 [4]
00000000: 0e12 97bf df4d d83e 1252 21be 08b4 6d3f
-1.1802385 0.4224691 -0.15753964 0.9285283

fc2.bias_hh_l2 f4 [4]
00000000: 1317 a7bf 8951 d23f 6411 f23e 6133 813e
-1.3053917 1.6431133 0.47278893 0.25234511

fc2.weight_ih_l2_reverse f4 [4, 2]
00000000: fcf8 22bf 14e7 7e3f 7411 5ac0 f183 603f
00000010: 87fc 9c40 4f74 87bf cc00 28bf 2a69 93c0
-0.6366117 0.9957135 -3.4073153 0.87701327 4.905826 -1.058237 -0.65626216 -4.6065874

fc2.weight_hh_l2_reverse f4 [4, 1]
00000000: 28de eebf e092 8740 b18f e4be b64e b83f
-1.8661547 4.236679 -0.44640878 1.4399021

fc2.bias_ih_l2_reverse f4 [4]
00000000: f0ed 04bf 9242 cc3f ba90 703f bae5 623f
-0.51925564 1.5957816 0.93970835 0.88631785

fc2.bias_hh_l2_reverse f4 [4]
00000000: 5c6e 90bf af82 753f 778b 02bf 4f43 3cbe
-1.1283679 0.9590253 -0.50994056 -0.18385051

combination_layer.weight f4 [2, 2]
00000000: da07 8340 48e2 7240 4361 8b40 4b87 4240
4.0947084 3.795061 4.355623 3.0395076

combination_layer.bias f4 [2]
00000000: 5558 de3e 0aa4 673e
0.43426767 0.2262117

projection.weight f4 [1, 2]
00000000: d272 ccbf 9fc0 dabf
-1.597254 -1.7090033

exp_avg f4 [30, 30]
00000000: b8f2 cb39 67ff 793a 730b 8639 2636 e6b6
00000010: f8f8 793a 9bc1 f4b7 cf30 5f38 6672 ac39
00000020: 22ef c338 f8ad fe33 403c 183a d249 7d3a
00000030: c1e7 4a3a b72f 8c39 073e de39 8510 273a
00000040: 1fa2 ac3a 2b39 aa3a 3bea e839 84d7 7a3a
00000050: 1b62 3eb9 aafa 64b9 d447 32b9 55ec 6238
00000060: 279f 07b7 a240 b43a 6ac7 0739 bc68 d2b9
00000070: 1c6e 053b 7f2c a3bb 0400 0000 0400 0000
00000080: 0400 0000 0400 0080 0400 0000 0400 0000
00000090: 0400 0000 0400 0080 0400 0000 0400 0080
000000a0: 0400 0080 0400 0000 0400 0000 0400 0080
000000b0: 0400 0000 0400 0080 0400 0000 0400 0080
000000c0: 0400 0080 0400 0080 0400 0000 0400 0000
000000d0: 0400 0000 0400 0000 0000 0000 0400 0080
000000e0: 0400 0080 0400 0000 0400 0000 0400 0000
000000f0: edf2 8339 fe80 f839 4c70 16b8 f44c 85b7
00000100: 32d3 fd39 f5ec 0d39 424f 5738 5fcb f2b9
00000110: 8bb0 1ab8 dd11 9632 1f21 a6b9 34c4 d639
00000120: 993f 193a c940 93b9 d6f0 6339 4bbb 0db9
00000130: 0ef0 0d3a a5a0 46ba 19cc 51b9 b354 c3ba
00000140: 85eb a6b7 aa13 d5b7 85c4 9db7 0f54 4039
00000150: 63aa 9cba 3616 8bba 248f dcba 8ce1 a3b9
00000160: 114a bb3a 4539 d7ba 99a8 87b9 fcb2 c2b9
00000170: dece e3b8 5ab6 1c35 480a 37ba 4d78 a7b8
00000180: ffd1 9cb8 9361 73b9 b8a5 8cb8 2fb2 0cb4
00000190: 0d23 16b9 2d84 1bba 1dfe 1eba 098f 72b9
000001a0: 91c4 c9b9 e59f 44b9 c96f 75ba e90c 3fba
000001b0: a6a7 efb9 e9f1 52ba 0b8f 41b8 2cb6 6ab8
000001c0: ce5c 34b8 2c78 41b7 7a91 aab9 41bd a4b9
000001d0: 05e8 f3b9 d1b5 c336 b53c 82ba 931f 6039
000001e0: ba87 e4ba a039 57bb 9cc9 42ba 6d85 1838
000001f0: edad 9cbb c408 32b9 5aa8 46b9 1c34 813a
00000200: 25b6 b9b9 c05b 8cb2 11a7 5d3a 9803 d8ba
00000210: 3c36 25bb dfd2 2f3a 13a4 deba 0586 6c39
00000220: 2303 d0bb 804a 7e3a bd40 2d3a 1313 3f3b
00000230: abc5 53b9 1fae 7eb9 ccf9 43b9 e339 4c38
00000240: 4efa e63a 8c4b 25b9 c078 513b e1ca a9ba
00000250: bdaf 173b 446b babb 268f 233b fcb8 a03b
00000260: 5de6 593a 20de a9b7 9ae0 ef3b eb9e 4639
00000270: 5228 3c39 652d 9a38 19b5 403a 8bdf 42b3
00000280: ffb8 2939 96c7 833b 7ded 823b 69c9 3a38
00000290: af2c 5e3b 1d6b 1239 968c 243c 227a 5539
000002a0: 9099 6a38 c4a5 ed34 c92d fab9 cabe 16ba
000002b0: db7d e9b9 bcb5 8439 be83 b4b7 db62 bda8
000002c0: 0f33 6e39 5163 06bb 8c49 5abb 3914 8cbb
000002d0: 8d8f 4a38 1c5b 093a c10b cd38 f29f 3838
000002e0: 4270 103a 55f5 b337 8d84 9d37 3293 873a
000002f0: f84d ce38 9a61 b134 f092 943a b1ff 013b
00000300: 9ba8 3e3a 23c6 573a 38f5 f839 f81d 533a
00000310: b512 633a 52a8 2e3b 4fd4 ad3a f414 163b
00000320: e9aa f339 85db 123a 8d3a e339 0e55 bb37
00000330: 6dd5 423a a8af 5a3a 5fad 0a3b 3dc1 d83a
00000340: 71e9 dc3b 4b3d 1c3a 0400 0000 b7a1 6e97
00000350: 972a 1937 c579 5834 6c33 dab7 6bd4 f735
00000360: c3e7 0236 5bb3 a9b9 4f6d c5b7 e5c2 8834
00000370: 02ab 16b9 9081 b4b9 8539 23b9 f58a 06b8
00000380: 12a8 3cb9 8495 c7b8 8c4f 57b9 be73 f7b9
00000390: 9a0c f539 9afc 08ba 0b34 f0b7 abee 0eb8
000003a0: f1f2 e2b7 0e32 bab6 2f52 bfba 2c86 0739
000003b0: 587a f3b9 3cec 6a39 81bf 823a b557 acba
000003c0: fd23 19bb 9493 8dbb eb5b 52ba b664 ed36
000003d0: 6beb e7bb bd04 e5b7 b243 07b9 9142 763a
000003e0: fabd 55ba bd96 8634 bc7d 8d3a 8637 8bbb
000003f0: bcfc 5dbb a5b7 2b3a b2b3 5abb 0387 383a
0.00038900017 0.0009536654 0.00025567002 -6.860838e-06 0.00095356954 -2.9177221e-05 5.32128e-05 0.0003289163
9.3428665e-05 1.18594414e-07 0.0005807318 0.0009662184 0.00077402225 0.0002673843 0.00042389354 0.0006373006
0.0013170874 0.0012987008 0.00044425004 0.00095688575 -0.00018156359 -0.00021837154 -0.00017002161 5.41027e-05
-8.083683e-06 0.0013752172 0.00012948891 -0.00040132354 0.002035982 -0.0049796696 6e-45 6e-45
6e-45 -6e-45 6e-45 6e-45 6e-45 -6e-45 6e-45 -6e-45
-6e-45 6e-45 6e-45 -6e-45 6e-45 -6e-45 6e-45 -6e-45
-6e-45 -6e-45 6e-45 6e-45 6e-45 6e-45 0.0 -6e-45
-6e-45 6e-45 6e-45 6e-45 0.0002516726 0.00047398353 -3.586737e-05 -1.589067e-05
0.00048413273 0.00013535081 5.133381e-05 -0.0004630936 -3.688088e-05 1.7470422e-08 -0.00031686664 0.00040963443
0.00058459636 -0.00028086294 0.00021738125 -0.0001351658 0.0005414494 -0.00075770385 -0.00020007826 -0.0014902562
-1.9898414e-05 -2.5400735e-05 -1.880737e-05 0.00018341861 -0.0011952635 -0.0010611478 -0.0016827327 -0.00031257828
0.0014289041 -0.0016420266 -0.00025874822 -0.00037135917 -0.000108627355 5.8379885e-07 -0.0006982428 -7.985588e-05
-7.4777745e-05 -0.00023210635 -6.706588e-05 -1.3103339e-07 -0.00014318172 -0.00059324765 -0.00060650875 -0.00023132203
-0.0003848416 -0.00018751582 -0.00093626656 -0.00072879955 -0.0004571054 -0.00080469117 -4.6148005e-05 -5.595961e-05
-4.3001775e-05 -1.1531676e-05 -0.00032533315 -0.00031421523 -0.0004652144 5.832619e-06 -0.0009936305 0.00021374067
-0.0017435469 -0.0032840744 -0.0007430555 3.6363886e-05 -0.0047814758 -0.00016978668 -0.00018945467 0.0009857449
-0.00035421658 -1.6339868e-08 0.0008455376 -0.0016480563 -0.0025209328 0.00067071425 -0.0016986154 0.0002255664
-0.00634803 0.00097004324 0.0006609073 0.0029155656 -0.00020196165 -0.00024288193 -0.00018689706 4.86913e-05
0.0017622204 -0.0001576377 0.0031962842 -0.0012954139 0.002314552 -0.0056890566 0.002495715 0.0049048644
0.000831222 -2.0249805e-05 0.0073204758 0.00018941953 0.00017944098 7.3517476e-05 0.00073512044 -4.5372456e-08
0.00016186012 0.004021595 0.003995596 4.4533434e-05 0.0033901145 0.00013963548 0.010043284 0.00020358761
5.5932964e-05 4.42653e-07 -0.00047717828 -0.00057504757 -0.00044534993 0.00025312405 -2.151902e-05 -2.1026087e-14
0.0002271647 -0.0020505975 -0.0033307998 -0.0042748717 4.8294245e-05 0.00052397116 9.777351e-05 4.401798e-05
0.0005509892 2.1452704e-05 1.8777582e-05 0.001034355 9.837368e-05 3.3039834e-07 0.0011335295 0.0019836242
0.0007273049 0.0008231124 0.00047484948 0.0008053477 0.00086621504 0.002665062 0.0013262125 0.0022900673
0.0004647591 0.0005602169 0.00043340438 2.2331744e-05 0.00074323156 0.0008342215 0.0021160466 0.0016537082
0.0067416956 0.0005960061 6e-45 -7.710606e-25 9.129427e-06 2.0160867e-07 -2.601157e-05 1.8464756e-06
1.9506413e-06 -0.00032367822 -2.353513e-05 2.5473778e-07 -0.0001436882 -0.00034428807 -0.00015566319 -3.2077503e-05
-0.00017991688 -9.516909e-05 -0.00020533631 -0.00047197746 0.0004673943 -0.0005225629 -2.8634464e-05 -3.4077715e-05
-2.7054428e-05 -5.549059e-06 -0.0014596636 0.00012924586 -0.00046439725 0.00022403983 0.0009975286 -0.0013148697
-0.0023367398 -0.004320571 -0.0008024561 7.0748747e-06 -0.0070776246 -2.7301134e-05 -0.00012899822 0.00093940744
-0.0008153614 2.5069122e-07 0.0010794918 -0.0042485623 -0.0033872565 0.00065504975 -0.0033371267 0.0007039161

exp_avg_sq f4 [30, 30]
00000000: 8a26 a936 bc33 0738 4ec6 e635 6339 2f31
00000010: f5c8 1c38 b9bb 0633 cde2 6433 0336 4136
00000020: aacc 9034 7c0d 212b a92d d536 4083 a137
00000030: 5500 6c37 b0fe fe35 8c73 4137 0e89 5936
00000040: 3cf2 ad38 6436 da37 6200 bc36 da5f bc37
00000050: c932 7935 5fe4 b435 54ed 5835 ee37 dd32
00000060: 1bac c133 ffec d637 44a7 4337 1506 1b38
00000070: 6825 1339 f23e c738 f401 0000 f401 0000
00000080: f401 0000 f401 0000 f401 0000 f401 0000
00000090: f401 0000 f401 0000 f401 0000 f401 0000
000000a0: f401 0000 f401 0000 f401 0000 f401 0000
000000b0: f401 0000 f401 0000 f401 0000 f401 0000
000000c0: f401 0000 f401 0000 f401 0000 f401 0000
000000d0: f401 0000 f401 0000 0000 0000 f401 0000
000000e0: f401 0000 f401 0000 f401 0000 f401 0000
000000f0: 7a8a 5936 781a 9637 f35f 2b36 ab24 a730
00000100: f662 cd37 1812 d532 b0f6 9b33 7a05 3238
00000110: 87a7 4c34 22da 8f2c b084 a338 9dd9 7c37
00000120: 87f4 1b37 502d dc37 4f03 e636 e55d 2738
00000130: bfc5 6b38 8312 a039 5a1b a438 e69e 8839
00000140: de3a bd35 2225 0936 75df a535 9250 e632
00000150: 8a93 f037 898a 0738 2b29 9238 c34b 0237
00000160: ef83 1439 3561 5139 fc8f 4636 5d06 ff36
00000170: e8d4 5d36 144d c030 9d39 5c37 00b0 3a34
00000180: 5517 7434 d8b3 3737 4e28 0534 3214 dc2b
00000190: 57b4 aa37 4a09 ad36 46b0 7136 1361 e836
000001a0: 837b 7b36 d1e5 1a37 661c f537 709a b038
000001b0: 3d76 a937 1e60 9338 d3ef d734 cd87 1c35
000001c0: 4f24 bc34 83bd 0932 5b80 9237 dd32 7b38
000001d0: 7a6f 5b36 1161 da36 4f4e a538 c77e 9237
000001e0: 5a4b 7937 d552 9338 d7ca ef36 43e7 dc31
000001f0: 0e8a e138 efa5 8434 1bcd cc34 b6a8 4539
00000200: fba7 9835 c9ee ce2d f7be cb39 3e27 9038
00000210: cd00 4138 8297 0039 3294 3038 bd3f 5539
00000220: a36f 7b39 7aa6 c73a 99d0 c039 2fd8 a33a
00000230: 8f2d 0f37 24bc 4f37 47f5 f936 4d8d f033
00000240: c184 f839 0040 4039 64ce 683a b56e 8838
00000250: 64cb 8a3a 5584 863a 48bc de37 69ef 1939
00000260: 1208 cf36 a761 fa31 9549 5b39 473e f033
00000270: a5e8 9834 1557 7b35 83ca bc35 aa8b c82a
00000280: aec9 0936 3964 cb38 5741 a138 61ff 1e35
00000290: 5621 6338 5645 9635 7b9b ed39 fa66 1237
000002a0: 5c19 0036 ec80 0e34 cc2b 3236 4d5d 8136
000002b0: f81c 1b36 9964 2034 36a3 f135 d282 8c2f
000002c0: abde 2236 d630 7538 7e2d b939 8144 a139
000002d0: 088b e735 5ba9 0b38 5d91 2c35 ff32 7232
000002e0: 1efc 1f38 fa77 e332 1958 3733 c1de 5537
000002f0: e8c2 9634 0ab0 062c e372 d537 f5f6 b237
00000300: 4063 6c37 7d62 0b37 e1dd 5737 4aff 5a37
00000310: 203b b738 0697 d938 bbb1 cc37 6c78 ae38
00000320: f3a9 f935 aa4a 3536 2543 d935 a3c2 be32
00000330: bc93 2538 dea2 e337 0f7f b438 d3ef 0b38
00000340: 696a d539 5a49 7138 0a31 ed2b 3608 a02e
00000350: e3fb 8233 3ccc b230 aed4 1336 d79f 3f30
00000360: 39b0 8831 e1db b938 14c3 e133 f5df 3e2d
00000370: 075e 3939 1741 5636 5f8a 2c35 30aa 7538
00000380: c4b7 e536 78fe c938 5dc5 f736 9909 353a
00000390: a13f 3a39 4b5b 163a fa8f 4c36 f45e 9436
000003a0: 7baa 3236 863a a730 3448 7b39 8d4c 0e38
000003b0: 40f9 063a 7a5c bc37 a899 cb39 4339 b739
000003c0: dbc9 cc37 7b51 0639 ec44 5037 2db6 e530
000003d0: 0e26 3e39 5a64 af34 4b3e f034 004e ee37
000003e0: a86b a935 c0e9 af2c 6c17 7d38 9f8e ab38
000003f0: a57a 8138 6e44 a037 6acd 4338 4619 1238
5.041079e-06 3.223469e-05 1.719405e-06 2.5498472e-09 3.7380454e-05 3.137004e-08 5.329166e-08 2.879068e-06
2.6971003e-07 5.7217404e-13 6.35321e-06 1.9253814e-05 1.40667735e-05 1.8998599e-06 1.1530599e-05 3.2415296e-06
8.2944025e-05 2.6012953e-05 5.602881e-06 2.245598e-05 9.283363e-07 1.347751e-06 8.081163e-07 2.575322e-08
9.018569e-08 2.5621148e-05 1.166185e-05 3.6960544e-05 0.00014032947 9.500784e-05 7e-43 7e-43
7e-43 7e-43 7e-43 7e-43 7e-43 7e-43 7e-43 7e-43
7e-43 7e-43 7e-43 7e-43 7e-43 7e-43 7e-43 7e-43
7e-43 7e-43 7e-43 7e-43 7e-43 7e-43 0.0 7e-43
7e-43 7e-43 7e-43 7e-43 3.2416124e-06 1.7893719e-05 2.5536835e-06 1.2161271e-09
2.4483987e-05 2.4804692e-08 7.262622e-08 4.2443608e-05 1.9059927e-07 4.088522e-12 7.797161e-05 1.50710375e-05
9.295653e-06 2.6247144e-05 6.8549193e-06 3.990335e-05 5.621253e-05 0.0003053137 7.825224e-05 0.0002605833
1.409873e-06 2.0436205e-06 1.2358493e-06 2.6812163e-08 2.8678933e-05 3.231553e-05 6.969491e-05 7.7662435e-06
0.00014163529 0.00019968006 2.958811e-06 7.600333e-06 3.3055494e-06 1.3991746e-09 1.3126436e-05 1.7386628e-07
2.2732759e-07 1.0949523e-05 1.2401253e-07 1.5637546e-12 2.0349557e-05 5.156883e-06 3.6014403e-06 6.9254397e-06
3.7473808e-06 9.232624e-06 2.92195e-05 8.4211e-05 2.0201429e-05 7.0274094e-05 4.0221366e-07 5.8312145e-07
3.5044147e-07 8.0175395e-09 1.7464326e-05 5.9890433e-05 3.269843e-06 6.5082063e-06 7.882399e-05 1.7463592e-05
1.4859101e-05 7.024935e-05 7.1463687e-06 6.429134e-09 0.00010754551 2.4707649e-07 3.8147195e-07 0.00018850234
1.1373771e-06 2.352553e-11 0.00038861457 6.8737645e-05 4.601553e-05 0.00012263472 4.2099688e-05 0.00020337007
0.00023978813 0.0015232109 0.0003677651 0.0012500341 8.534072e-06 1.2381966e-05 7.4493323e-06 1.12015734e-07
0.00047401155 0.00018334389 0.0008880852 6.505606e-05 0.001058918 0.0010262827 2.6552138e-05 0.00014680404
6.1700202e-06 7.2870594e-09 0.00020912879 1.1187199e-07 2.8481477e-07 9.363151e-07 1.406603e-06 3.5624048e-13
2.0531984e-06 9.698462e-05 7.689249e-05 5.923121e-07 5.4152064e-05 1.119605e-06 0.00045320005 8.726254e-06
1.9088247e-06 1.3271682e-07 2.654956e-06 3.8553612e-06 2.3113662e-06 1.4937758e-07 1.80034e-06 2.5558805e-10
2.426949e-06 5.8458034e-05 0.00035319844 0.00030759352 1.7251305e-06 3.3297907e-05 6.4286525e-07 1.4097849e-08
3.8143357e-05 2.6480837e-08 4.2688132e-08 1.2747653e-05 2.808149e-07 1.9140267e-12 2.5445077e-05 2.1334252e-05
1.4089805e-05 8.307977e-06 1.2866659e-05 1.3053252e-05 8.737133e-05 0.00010375497 2.4401457e-05 8.319397e-05
1.8601407e-06 2.7014562e-06 1.6187302e-06 2.2207422e-08 3.9476654e-05 2.713635e-05 8.606735e-05 3.3363536e-05
0.00040705808 5.752719e-05 1.6853474e-12 7.277416e-11 6.099415e-08 1.3009251e-09 2.2028503e-06 6.971254e-10
3.978155e-09 8.862443e-05 1.05128635e-07 1.0849978e-11 0.00017678003 3.1926372e-06 6.427635e-07 5.857105e-05
6.846125e-06 9.6318254e-05 7.3841497e-06 0.0006906032 0.00017762046 0.00057356496 3.0482174e-06 4.4217977e-06
2.66233e-06 1.2167483e-09 0.00023964123 3.392673e-05 0.00051488355 2.245441e-05 0.0003883366 0.00034947143
2.4412691e-05 0.0001280959 1.2413813e-05 1.671372e-09 0.00018133988 3.2669305e-07 4.4748808e-07 2.8408132e-05
1.2622813e-06 4.9997506e-12 6.0341714e-05 8.180481e-05 6.174044e-05 1.9105351e-05 4.668293e-05 3.483265e-05

exp_avg f4 [30]
00000000: ded9 39bb 0400 0000 9279 5fb9 8671 4cba
00000010: 8c8a 5fbb fe0f f4bb 0e4d f03b e260 a6b9
00000020: 8902 32b9 274d b9b8 d972 1cba c11c d2b9
00000030: 757d 733b ea82 553a e0fc c0ba 7527 533b
00000040: 87ae 8639 2b0a fab9 0400 0000 513d 1cbb
00000050: 0400 0000 95d1 8e3b 0400 0000 0400 0000
00000060: 98cc 0dbb 6d14 83ba 4569 81b9 0b78 3639
00000070: 107f 013b 4da6 e9bb
-0.0028358619 6e-45 -0.00021312226 -0.0007798899 -0.003410968 -0.0074481955 0.0073334044 -0.0003173417
-0.00016976347 -8.835858e-05 -0.00059680414 -0.00040075745 0.0037153636 0.0008144813 -0.00147238 0.0032219563
0.00025688505 -0.00047691292 6e-45 -0.0023840258 6e-45 0.00435848 6e-45 6e-45
-0.002163684 -0.0010000594 -0.0002468323 0.00017401592 0.0019759573 -0.0071304203

exp_avg_sq f4 [30]
00000000: 1ffe 7639 f401 0000 d5be b239 0340 cc38
00000010: 53b5 0a3b c570 343a 1ce8 f339 3233 423a
00000020: 2a11 083a 68cc f739 2765 1239 dda9 6d39
00000030: 4886 f039 4b42 b438 5545 3b39 e031 5939
00000040: de48 f439 5733 f538 f401 0000 4669 8f39
00000050: f401 0000 5072 1439 f401 0000 f401 0000
00000060: 542c 3339 513a 8039 0f44 7b39 f367 d337
00000070: ca96 2839 a267 df39
0.00023555056 7e-43 0.00034092987 9.739401e-05 0.0021165207 0.0006883259 0.00046521507 0.00074081414
0.0005190546 0.00047263806 0.00013961327 0.0002266536 0.00045876415 8.595417e-05 0.00017859538 0.00020713313
0.00046593597 0.00011692073 7e-43 0.0002735352 7e-43 0.00014156965 7e-43 7e-43
0.00017087284 0.00024457512 0.00023962579 2.5201565e-05 0.00016077902 0.00042611087

exp_avg f4 [4, 30]
00000000: 2f5a 9639 0400 0080 5d04 5a3a d7be 6c38
00000010: f246 783b fc25 c1b7 18be 1bb6 4cc8 9837
00000020: ace6 2d3b befa 103a deed bd36 d6e3 e0b9
00000030: 1503 89b9 bb0b fe3a 1161 a439 d9be 943a
00000040: d58b 2fba ffb1 26b9 0400 0000 90f2 8cba
00000050: 0400 0000 03b6 10b9 0400 0080 0400 0080
00000060: 536b f139 e7cf a43a a982 9bb8 636a 6837
00000070: 063d 933a a81d 823a 9fdc cc3a 0400 0080
00000080: 1e64 0239 552d e337 6ed3 1e3a b035 b43a
00000090: 5c3e cc36 dfbd e1b7 8563 5e3a 6f4a 9239
000000a0: 6063 59b3 e221 28b8 d315 25b9 a72c 9d3a
000000b0: 8fba 1c3a a96e 0eb7 2f42 2639 5694 6638
000000c0: 0400 0000 383a 0d3a 0400 0000 5967 2e3a
000000d0: 0400 0080 0400 0080 f74d 9d39 5690 5139
000000e0: 502f 943a ff34 ec36 39ef 5f39 6846 ee38
000000f0: 30ee a138 0400 0080 2ef0 a539 1459 9539
00000100: dca2 fb39 5403 9639 db98 2638 9294 b735
00000110: fb11 8fba fc46 e2b9 8485 c435 e075 27b9
00000120: 8c48 fa38 7bda d2b9 0458 b1b8 4eb2 3cb9
00000130: e529 22ba 4140 ff39 0400 0000 f4dd 6739
00000140: 0400 0000 9949 90ba 0400 0080 0400 0080
00000150: 75c4 9837 41a0 4bba 8dd3 15ba 7878 b7b4
00000160: 5631 45ba 9b27 54ba cf71 9239 0400 0080
00000170: 43cd 6c38 f04e 3fb7 8516 f436 8a3b a639
00000180: cfda 03b6 be3d cdb8 85e0 f738 6ec9 6c37
00000190: 35dd 78b5 647b 81b9 6bdc 78b8 d068 7a39
000001a0: 4e79 2739 a251 22b8 4613 0bba e1b8 6e37
000001b0: 0400 0000 730b 8fb9 0400 0000 75fa 1cb9
000001c0: 0400 0080 0400 0080 ec71 b039 048c dfb7
000001d0: ac21 cd39 132e 1039 a575 d737 0027 e436
0.00028677422 -6e-45 0.000831669 5.6444518e-05 0.0037884084 -2.302508e-05 -2.320745e-06 1.8213083e-05
0.0026535196 0.00055305276 5.6603303e-06 -0.0004289436 -0.00026132973 0.0019382158 0.00031352838 0.0011348381
-0.0006696557 -0.00015897302 6e-45 -0.0010753442 6e-45 -0.00013800715 -6e-45 -6e-45
0.00046047065 0.0012574167 -7.415313e-05 1.3853048e-05 0.0011233396 0.0009927051 0.0015629715 -6e-45
0.00012435063 2.7081618e-05 0.0006058727 0.001374891 6.0869334e-06 -2.6910506e-05 0.00084834575 0.00027902747
-5.061463e-08 -4.0085877e-05 -0.00015743756 0.0011991457 0.0005978727 -8.489625e-06 0.00015855649 5.497442e-05
6e-45 0.00053873984 6e-45 0.0006652973 -6e-45 -6e-45 0.00030003462 0.00019985563
0.0011305604 7.0395176e-06 0.00021356055 0.000113618386 7.721444e-05 -6e-45 0.000316502 0.00028485863
0.0004799579 0.0002861271 3.9719842e-05 1.3677802e-06 -0.0010915393 -0.00043158967 1.4641996e-06 -0.00015970273
0.00011934442 -0.00040217102 -8.456412e-05 -0.00017995501 -0.00061860523 0.00048685263 6e-45 0.0002211256
6e-45 -0.0011008262 -6e-45 -6e-45 1.8211294e-05 -0.0007767715 -0.00057154224 -3.417406e-07
-0.0007522305 -0.000809306 0.00027932084 -6e-45 5.645795e-05 -1.1402866e-05 7.2743883e-06 0.00031706347
-1.9647885e-06 -9.786662e-05 0.00011819698 1.4113595e-05 -9.27091e-07 -0.0002469673 -5.9333088e-05 0.00023880904
0.0001597155 -3.8699836e-05 -0.0005305301 1.4228951e-05 6e-45 -0.00027283616 6e-45 -0.00014970622
-6e-45 -6e-45 0.00033654214 -2.6648871e-05 0.00039125734 0.00013750074 2.568478e-05 6.7994697e-06

exp_avg_sq f4 [4, 30]
00000000: ff31 fc36 f401 0000 4928 5e38 1e94 f835
00000010: e826 1a38 3c78 3537 937f 0436 a313 9736
00000020: 9c9d be37 81af df35 f7f8 8633 d4d6 0238
00000030: d3fc 0037 721c f638 1404 e435 85d9 2337
00000040: 03ee 1e39 60d1 6b39 f401 0000 131c ff38
00000050: f401 0000 fa43 f737 f401 0000 f401 0000
00000060: 4c1d 6635 9a21 4437 d9a7 0438 a450 3033
00000070: 8523 4f37 280d 9835 47c2 bf36 f401 0000
00000080: dba8 dd36 1d6a 6834 ef61 5f36 7f48 ce36
00000090: 8bd3 0a34 da01 1235 0b0d e935 bb5f c734
000000a0: 591e f333 6250 3634 6526 aa35 2559 4537
000000b0: 9358 c335 50c4 0135 da1e b236 a2bb 8536
000000c0: f401 0000 dd22 8737 f401 0000 5668 0f37
000000d0: f401 0000 f401 0000 57ad ef34 c96d af34
000000e0: 6d2b fd36 48da 5034 06f1 3135 7ffd a933
000000f0: 88d9 b635 f401 0000 9ddb 6f37 80f1 0336
00000100: 3126 6838 b13f 3d36 56bf 9134 1f3c 8b33
00000110: a67f b337 a31a 9933 d318 1a33 151e 5236
00000120: 0479 d136 5032 4437 b3c4 2f36 78ca 7036
00000130: fd50 3637 e581 3e38 f401 0000 26c5 f137
00000140: f401 0000 0a0f de36 f401 0000 f401 0000
00000150: 620f 1c35 a886 9137 c35d 9836 a42f 6d36
00000160: 4e48 d636 4aa3 8136 0ea7 a035 f401 0000
00000170: 0745 a535 2d8f 3133 a08b a135 513c bc35
00000180: bf99 5134 1d2a 9b35 521f bf34 a781 2d33
00000190: 0347 6a32 dd6a 8436 cfb2 9434 dba6 b335
000001a0: d2fb 9734 bd46 4d33 f13f da37 aaa7 d432
000001b0: f401 0000 9c2e 8137 f401 0000 eeda a836
000001c0: f401 0000 f401 0000 6cf0 9434 99c5 bf32
000001d0: 4779 a736 ac76 0635 d089 0834 b72c a132
7.5160056e-06 7e-43 5.2966443e-05 1.8520548e-06 3.6752695e-05 1.0816435e-05 1.974379e-06 4.5024367e-06
2.2723158e-05 1.6665873e-06 6.285148e-08 3.119449e-05 7.68826e-06 0.000117354924 1.6988511e-06 9.766202e-06
0.0001515672 0.00022489345 7e-43 0.00012164577 7e-43 2.9476349e-05 7e-43 7e-43
8.572431e-07 1.1690334e-05 3.1627573e-05 4.1051536e-08 1.23464315e-05 1.1328711e-06 5.7148604e-06 7e-43
6.6059706e-06 2.1645288e-07 3.3286594e-06 6.147718e-06 1.292921e-07 5.439193e-07 1.7363649e-06 3.7136292e-07
1.13210895e-07 1.6979314e-07 1.2677161e-06 1.1762871e-05 1.4554411e-06 4.8341917e-07 5.308405e-06 3.985552e-06
7e-43 1.6109489e-05 7e-43 8.547757e-06 7e-43 7e-43 4.464334e-07 3.267617e-07
7.545043e-06 1.945092e-07 6.6288374e-07 7.9157864e-08 1.3623367e-06 7e-43 1.4296643e-05 1.9661093e-06
5.534868e-05 2.8200268e-06 2.714757e-07 6.483628e-08 2.1397904e-05 7.129463e-08 3.5878497e-08 3.1309949e-06
6.2427735e-06 1.1694225e-05 2.6191526e-06 3.588064e-06 1.0866902e-05 4.5420504e-05 7e-43 2.8821243e-05
7e-43 6.6178663e-06 7e-43 7e-43 5.8136914e-07 1.7348051e-05 4.5408683e-06 3.5343483e-06
6.3861144e-06 3.863509e-06 1.1969548e-06 7e-43 1.2313548e-06 4.134124e-08 1.2036071e-06 1.4024646e-06
1.9520574e-07 1.1560657e-06 3.559931e-07 4.039762e-08 1.3636739e-08 3.946347e-06 2.769725e-07 1.3385101e-06
2.8309165e-07 4.7794618e-08 2.60174e-05 2.4756293e-08 7e-43 1.5399703e-05 7e-43 5.032277e-06
7e-43 7e-43 2.7742078e-07 2.2325183e-08 4.9911064e-06 5.009158e-07 1.2716123e-07 1.87632e-08

exp_avg f4 [4, 1]
00000000: c675 a4b9 5a8d 6a3a 6a78 6b39 29ea 1ab9
-0.00031368266 0.00089474546 0.00022456204 -0.00014773816

exp_avg_sq f4 [4, 1]
00000000: 0587 4636 944e 8f36 f001 e135 76ae 2435
2.958289e-06 4.27088e-06 1.676437e-06 6.1348635e-07

exp_avg f4 [4]
00000000: 1c62 9d3a 2676 013b c55c c4b9 94f4 7139
0.0012007388 0.001975426 -0.00037453152 0.00023074663

exp_avg_sq f4 [4]
00000000: b00d eb38 52c0 c537 e9d8 0d38 2680 2837
0.00011208223 2.3573786e-05 3.3819033e-05 1.0043417e-05

exp_avg f4 [4]
00000000: 1c62 9d3a 2676 013b c55c c4b9 94f4 7139
0.0012007388 0.001975426 -0.00037453152 0.00023074663

exp_avg_sq f4 [4]
00000000: b00d eb38 52c0 c537 e9d8 0d38 2680 2837
0.00011208223 2.3573786e-05 3.3819033e-05 1.0043417e-05

exp_avg f4 [4, 30]
00000000: 2382 813b 0400 0000 7350 833a 565a 2839
00000010: 2a74 fdb9 144f a43b 674b 4f3a c6e2 1e3a
00000020: 1ed8 28bb d0de 72bb 8bce ffb7 58ea 633a
00000030: f7b4 8bba d529 80bb 04bf 61ba 2132 8739
00000040: 9ad8 b83b b78c 6aba 0400 0080 6f3c a03b
00000050: 0400 0080 a33e a53b 0400 0000 0400 0000
00000060: a22a 0f3a ab7b 6fba 42b2 d63b a1cb d1b8
00000070: 5b42 9f39 c0af 58b9 d529 233b 0400 0000
00000080: 5ff8 ad39 49fc 8e38 b620 933a 1ced 0b3b
00000090: d274 6cb7 5875 0a3a bcba 9c3a 3039 e13a
000000a0: 97f2 c838 4abd f0b8 9080 003a 77d5 393b
000000b0: 0078 c03a 0424 3739 3dce 303a e048 9bba
000000c0: 0400 0080 01d2 57ba 0400 0080 935a cd3a
000000d0: 0400 0000 0400 0000 b1bf 1f37 5ae7 4b3a
000000e0: 1daa be3a 853f 22b9 b0ae 133a 5489 1339
000000f0: a193 9a39 0400 0000 7530 c837 41a8 4538
00000100: 2438 8039 5ba0 5e3a 7f03 89b6 9948 a738
00000110: 492f 2f3a 9739 ac3a 79aa 6bb9 5cbe c937
00000120: 7a23 c538 6250 d73a d10b d33a 4e55 da38
00000130: 2f06 103a 7352 8db9 0400 0080 bed7 043a
00000140: 0400 0000 d7fc a03a 0400 0000 0400 0000
00000150: 3088 a2b6 fb7c c338 db4d a339 20ad 4236
00000160: bb39 b939 7aa5 2138 cafe cc37 0400 0000
00000170: 66e5 7739 f6c2 2a38 7c09 f339 304a 80b8
00000180: 314c 7238 c746 b934 7056 a6b8 19f7 78b9
00000190: 684c 1f37 d30d 00b7 ddcc ee37 3963 8bb9
000001a0: aa49 8ab9 f037 c938 e13f 1839 7075 cb36
000001b0: 0400 0080 34d2 f538 0400 0000 949d 8cb9
000001c0: 0400 0000 0400 0000 2058 93b6 4e41 9938
000001d0: 32c9 a9b6 d801 ecb6 0a23 0d39 b078 ad38
0.003952281 6e-45 0.0010018483 0.00016055381 -0.0004834247 0.0050143097 0.0007907659 0.00060610136
-0.0025763582 -0.0037059076 -3.0494548e-05 0.0008694283 -0.001065879 -0.0039112368 -0.00086115324 0.00025786555
0.0056410553 -0.000894736 -6e-45 0.0048900167 -6e-45 0.0050428673 6e-45 6e-45
0.000546137 -0.00091355544 0.0065520117 -0.000100038254 0.00030376282 -0.00020664837 0.002489676 6e-45
0.00033182182 6.8180794e-05 0.0011224959 0.0021351045 -1.40938955e-05 0.0005281768 0.0011957507 0.0017183181
9.581929e-05 -0.000114793496 0.000490197 0.0028355995 0.00146842 0.00017465657 0.0006744599 -0.001184728
-6e-45 -0.0008232892 -6e-45 0.0015667252 6e-45 6e-45 9.52177e-06 0.00077783095
0.0014546547 -0.00015473187 0.00056336354 0.00014070171 0.0002948316 6e-45 2.3864422e-05 4.712516e-05
0.0002445589 0.0008492523 -4.083325e-06 7.976703e-05 0.0006682766 0.0013139722 -0.00022474852 2.404971e-05
9.4003e-05 0.0016427154 0.0016101544 0.00010410939 0.00054940855 -0.00026955045 -6e-45 0.00050675485
6e-45 0.0012282383 6e-45 6e-45 -4.8438305e-06 9.321604e-05 0.0003114779 2.9009025e-06
0.00035328962 3.8539503e-05 2.443734e-05 6e-45 0.00023641213 4.071273e-05 0.00046355638 -6.117334e-05
5.7768255e-05 3.4510433e-07 -7.931597e-05 -0.00023743174 9.494928e-06 -7.632613e-06 2.8467208e-05 -0.00026586073
-0.00026376295 9.594846e-05 0.00014519646 6.063543e-06 -6e-45 0.00011721664 6e-45 -0.00026820286
6e-45 6e-45 -4.3912005e-06 7.3077725e-05 -5.0600147e-06 -7.0335627e-06 0.00013459861 8.2717626e-05

exp_avg_sq f4 [4, 30]
00000000: 2f70 8838 f401 0000 e3d9 0b39 6ca6 5c35
00000010: fa48 2339 9dbf 9338 345b 9837 0012 d537
00000020: 7546 4b38 6d19 fb37 21c5 4335 dce5 5239
00000030: 6656 7238 1a92 7d39 c9fb cd37 2ad6 6537
00000040: 2998 d23a 9b43 9b39 f401 0000 3a0a b73a
00000050: f401 0000 b8f5 c839 f401 0000 f401 0000
00000060: dc72 e536 31ec 2637 8d56 0b39 d2e4 5936
00000070: 2827 9037 77d2 f535 c85e 7438 f401 0000
00000080: cdb9 ee37 ba0c 0d35 89b3 ce37 96be 8638
00000090: 5768 2537 174a 1b38 9129 cb37 9802 e736
000000a0: 240f 2235 e7dd 1239 c2dc 4137 5d55 cc38
000000b0: 8d4e a737 08d2 3836 00e3 683a b6cb 0539
000000c0: f401 0000 7d4d 433a f401 0000 e1b0 7b39
000000d0: f401 0000 f401 0000 81d0 8236 069d 3636
000000e0: dd7a cb38 9b4e 0e35 6109 cc36 3555 7f34
000000f0: 0814 9236 f401 0000 3641 2f36 47ce 3434
00000100: d03d b335 c604 5c36 695f 1534 b182 3034
00000110: b786 2336 02cc 8036 7483 1d35 d659 c634
00000120: f9a5 5b35 2f2b f837 8d60 8c36 0cba 4935
00000130: 3e9a ff36 efcf 8537 f401 0000 3d87 ba36
00000140: f401 0000 9725 3f37 f401 0000 f401 0000
00000150: 44ee bf32 1cce 1736 fed9 5a36 5596 4431
00000160: 573a f135 065b f333 be5e 3433 f401 0000
00000170: 1915 c635 8f8d 0c33 b067 7436 4253 4033
00000180: 4f8f 2333 ea55 8e31 db1a 9935 e3b3 1b35
00000190: 6c08 4c33 6191 a332 e21c c135 98ff c636
000001a0: 290b 7834 0a16 d433 c241 be34 b559 ea36
000001b0: f401 0000 3bd2 6a36 f401 0000 08fd 9135
000001c0: f401 0000 f401 0000 f5fc cf31 3373 6235
000001d0: 8bf0 9131 f48f 4d32 43e0 8334 0447 bb33
6.505881e-05 7e-43 0.00013337242 8.219856e-07 0.00015572077 7.045197e-05 1.8162282e-05 2.539996e-05
4.846459e-05 2.9933371e-05 7.293002e-07 0.0002011279 5.777776e-05 0.00024182387 2.4555151e-05 1.3699328e-05
0.0016067076 0.00029614274 7e-43 0.001396484 7e-43 0.00038330047 7e-43 7e-43
6.838103e-06 9.949364e-06 0.00013288316 3.246871e-06 1.7184371e-05 1.8315176e-06 5.8262405e-05 7e-43
2.8458331e-05 5.254511e-07 2.4640716e-05 6.425117e-05 9.85906e-06 3.702388e-05 2.4218842e-05 6.8846384e-06
6.0371735e-07 0.0001400631 1.1555096e-05 9.743378e-05 1.994453e-05 2.754039e-06 0.00088839233 0.00012759757
7e-43 0.00074502063 7e-43 0.00024003118 7e-43 7e-43 3.898575e-06 2.7211513e-06
9.7026794e-05 5.301351e-07 6.0807656e-06 2.3779724e-07 4.353471e-06 7e-43 2.611499e-06 1.683885e-07
1.3354529e-06 3.2785333e-06 1.3911416e-07 1.6438823e-07 2.4367307e-06 3.838447e-06 5.867835e-07 3.6945738e-07
8.182538e-07 2.9584013e-05 4.183565e-06 7.514907e-07 7.6175484e-06 1.5951662e-05 7e-43 5.5589758e-06
7e-43 1.1393239e-05 7e-43 7e-43 2.2343677e-08 2.2620725e-06 3.261142e-06 2.8607208e-09
1.7972878e-06 1.1332126e-07 4.1995683e-08 7e-43 1.475829e-06 3.2725037e-08 3.6419187e-06 4.4779206e-08
3.8081733e-08 4.1425112e-09 1.1407204e-06 5.800377e-07 4.750511e-08 1.9041808e-08 1.4388027e-06 5.930615e-06
2.310086e-07 9.876028e-08 3.5438103e-07 6.9841867e-06 7e-43 3.4991087e-06 7e-43 1.0876984e-06
7e-43 7e-43 6.053251e-09 8.43592e-07 4.247402e-09 1.1965302e-08 2.4563823e-07 8.720784e-08

exp_avg f4 [4, 1]
00000000: 3d63 b03a a1d3 393a 7fac 003a 16c6 9437
0.001345731 0.0007088725 0.00049085164 1.7735216e-05

exp_avg_sq f4 [4, 1]
00000000: 68aa 0339 d1bb 0839 f71f 8535 33f1 b635
0.00012556615 0.00013039938 9.918575e-07 1.3630255e-06

exp_avg f4 [4]
00000000: d2d4 793b 0f10 373b 4994 e03a 5078 4fb8
0.0038121236 0.0027933156 0.0017134036 -4.9464696e-05

exp_avg_sq f4 [4]
00000000: cad4 3d3a 48fd f739 5a70 aa37 d572 9536
0.0007241486 0.0004730022 2.0317897e-05 4.4539142e-06

exp_avg f4 [4]
00000000: d2d4 793b 0f10 373b 4994 e03a 5078 4fb8
0.0038121236 0.0027933156 0.0017134036 -4.9464696e-05

exp_avg_sq f4 [4]
00000000: cad4 3d3a 48fd f739 5a70 aa37 d572 9536
0.0007241486 0.0004730022 2.0317897e-05 4.4539142e-06

exp_avg f4 [4, 2]
00000000: 2216 37ba 8e89 adba 189a a8b9 7f51 80ba
00000010: f43d c8b7 1f2d e1b8 6a5f 35ba 474a 543a
-0.0006984194 -0.0013239847 -0.00032158266 -0.0009789913 -2.3870707e-05 -0.000107372405 -0.000691882 0.00080982264

exp_avg_sq f4 [4, 2]
00000000: 2048 ea37 d196 8037 7e27 3536 3479 b036
00000010: 9f56 6e35 6f0f a737 df63 5536 e8ef f838
2.792856e-05 1.5329018e-05 2.699409e-06 5.2593186e-06 8.878796e-07 1.9915138e-05 3.1797606e-06 0.000118702475

exp_avg f4 [4, 1]
00000000: 1173 8dba cbf0 68b9 7447 45b9 5910 803a
-0.0010791739 -0.00022214947 -0.00018814002 0.0009770497

exp_avg_sq f4 [4, 1]
00000000: 3511 b436 efde 1036 7261 7236 1e01 3a37
5.366421e-06 2.1587437e-06 3.611753e-06 1.1086724e-05

exp_avg f4 [4]
00000000: 1822 f339 aab7 903a b779 9dba feb2 bfb9
0.00046373974 0.0011041064 -0.0012014423 -0.00036563718

exp_avg_sq f4 [4]
00000000: 78e9 5339 4d25 5e38 e99c 9739 4066 d739
0.00020209502 5.2963664e-05 0.00028917872 0.00041084178

exp_avg f4 [4]
00000000: 1822 f339 aab7 903a b779 9dba feb2 bfb9
0.00046373974 0.0011041064 -0.0012014423 -0.00036563718

exp_avg_sq f4 [4]
00000000: 78e9 5339 4d25 5e38 e99c 9739 4066 d739
0.00020209502 5.2963664e-05 0.00028917872 0.00041084178

exp_avg f4 [4, 2]
00000000: ef3b 023b 2dca 88ba 8dcf af3a 6c53 eeb8
00000010: 7872 9f3a 6a42 cb39 80e5 2238 7cb7 a4b9
0.001987215 -0.001043623 0.0013413295 -0.00011364263 0.0012164852 0.0003876866 3.883755e-05 -0.00031417224

exp_avg_sq f4 [4, 2]
00000000: c22d c737 c90b bb39 7658 2c37 fc99 fd38
00000010: b0fb 4c37 0f99 d239 a4f0 ac33 5115 6136
2.3743956e-05 0.000356762 1.0272595e-05 0.00012092662 1.2217948e-05 0.0004016836 8.0531464e-08 3.354002e-06

exp_avg f4 [4, 1]
00000000: 4fb1 5dba 81f0 c23a 7393 e2bb 3ed2 2039
-0.0008456902 0.0014872701 -0.00691455 0.0001533711

exp_avg_sq f4 [4, 1]
00000000: 63b9 9439 7ee1 5539 8991 aa3a abe0 bd35
0.00028366884 0.00020397265 0.0013013344 1.4146984e-06

exp_avg f4 [4]
00000000: a665 683b cfdf 82bb 3493 9dbc 7eef ee39
0.0035460978 -0.003993965 -0.019235231 0.00045573333

exp_avg_sq f4 [4]
00000000: c62c 213b 0b38 323a 0e40 103c 7b00 da36
0.0024593337 0.0006798512 0.008804334 6.496962e-06

exp_avg f4 [4]
00000000: a665 683b cfdf 82bb 3493 9dbc 7eef ee39
0.0035460978 -0.003993965 -0.019235231 0.00045573333

exp_avg_sq f4 [4]
00000000: c62c 213b 0b38 323a 0e40 103c 7b00 da36
0.0024593337 0.0006798512 0.008804334 6.496962e-06

exp_avg f4 [4, 2]
00000000: bb61 2f3a 8738 0f3b 9f03 8739 6fc9 c03a
00000010: 39a1 b13a add7 d2b9 9d82 6b38 a78a 4d3a
0.0006690283 0.0021853761 0.00025751904 0.0014708469 0.0013552076 -0.00040215012 5.615001e-05 0.000784079

exp_avg_sq f4 [4, 2]
00000000: 5776 5538 b5da 9038 7f6f 6737 840b 2338
00000010: 3dec 4139 f695 1f3a ca21 fb34 942d 0f37
5.089337e-05 6.9071924e-05 1.3794633e-05 3.8872953e-05 0.0001849392 0.00060877146 4.6776978e-07 8.534076e-06

exp_avg f4 [4, 1]
00000000: 803d fe36 e9f4 85b8 bff0 1e39 b2ee 6ab8
7.5769494e-06 -6.387552e-05 0.00015157739 -5.601225e-05

exp_avg_sq f4 [4, 1]
00000000: 13f5 5a36 87ab 0036 d547 5736 e817 a033
3.2627183e-06 1.9173328e-06 3.2079308e-06 7.454929e-08

exp_avg f4 [4]
00000000: 346a 8f3b 9848 2d3b 2b45 97b9 9f9c bd3a
0.004376674 0.0026440974 -0.00028852499 0.0014466232

exp_avg_sq f4 [4]
00000000: ab62 9c39 2ddf 2939 2593 693b d795 0638
0.00029828152 0.00016200235 0.0035640683 3.208764e-05

exp_avg f4 [4]
00000000: 346a 8f3b 9848 2d3b 2b45 97b9 9f9c bd3a
0.004376674 0.0026440974 -0.00028852499 0.0014466232

exp_avg_sq f4 [4]
00000000: ab62 9c39 2ddf 2939 2593 693b d795 0638
0.00029828152 0.00016200235 0.0035640683 3.208764e-05

exp_avg f4 [4, 2]
00000000: 84e1 d5ba 989b a93a 2a5b afba 0a99 3639
00000010: fb4e 64b9 7ffb b5bb 5c58 003b 6271 2c3a
-0.0016317819 0.0012940047 -0.001337861 0.00017413884 -0.00021773197 -0.0055536623 0.0019583916 0.00065781747

exp_avg_sq f4 [4, 2]
00000000: 2ea6 6139 5594 3a39 e098 9d38 cb6d b738
00000010: 0ed1 1a38 95d7 0b3b c87c 2339 14fa 403a
0.00021519579 0.000177936 7.5148186e-05 8.7465705e-05 3.691116e-05 0.0021338214 0.00015591376 0.00073614833

exp_avg f4 [4, 1]
00000000: 3bf0 37ba 5c26 0fba 055b d9ba 6330 f23a
-0.0007016693 -0.0005460733 -0.0016582912 0.0018477555

exp_avg_sq f4 [4, 1]
00000000: 5c66 4c38 686b 8e37 76ba f838 6840 0239
4.873272e-05 1.6977734e-05 0.000118602926 0.0001242176

exp_avg f4 [4]
00000000: 5203 c3bb 11d2 85bb 83bd 8fbc 5189 2a3b
-0.0059513235 -0.0040838798 -0.01754642 0.0026021788

exp_avg_sq f4 [4]
00000000: d5e9 063b 7edd 233a 9ac1 1b3c 17de 833b
0.0020586152 0.00062509615 0.009506607 0.004024278

exp_avg f4 [4]
00000000: 5203 c3bb 11d2 85bb 83bd 8fbc 5189 2a3b
-0.0059513235 -0.0040838798 -0.01754642 0.0026021788

exp_avg_sq f4 [4]
00000000: d5e9 063b 7edd 233a 9ac1 1b3c 17de 833b
0.0020586152 0.00062509615 0.009506607 0.004024278

exp_avg f4 [2, 2]
00000000: a655 053a fdf0 6337 53d4 313a cdfa 2639
0.000508631 1.3586364e-05 0.0006783653 0.00015924424

exp_avg_sq f4 [2, 2]
00000000: ab8e ac36 6e7d d138 e33e ad36 71e3 ef38
5.142608e-06 9.98926e-05 5.1631228e-06 0.00011438772

exp_avg f4 [2]
00000000: a6f2 00bc 1ff2 3fbc
-0.007870352 -0.011715441

exp_avg_sq f4 [2]
00000000: d5f2 b43b cf93 bf3b
0.005522112 0.0058464776

exp_avg f4 [1, 2]
00000000: 0a7d 4f3a 8f1e 00ba
0.00079150556 -0.0004887366

exp_avg_sq f4 [1, 2]
00000000: 293d cf3a b23d 313a
0.0015811074 0.00067612075
