web/backend/models/LSTM/LSTM_best.pth (torch, 734029 bytes, 75 tensors)

lstm.weight_ih_l0 f4 [120, 30]
0	0x3f6ef0cc	0.93336177
1	0x3f1b133c	0.60576224
2	0xbeadbfea	-0.3393548
3	0x3f64ce01	0.89376837
4	0x3f08b91a	0.5340744
5	0x400d4411	2.2072794
6	0x40151461	2.3293688
7	0xbe648491	-0.22316195
8	0xbd153ba0	-0.036433816
9	0x3dba42f0	0.090947986
10	0xbe2630bc	-0.16229528
11	0x3f31503d	0.6926306
12	0x3f3ebf95	0.7451108
13	0xbe358697	-0.17727123
14	0x3d1976a1	0.03746665
15	0x3cb7ae9f	0.022422133
16	0x3edf0629	0.43559387
17	0xbdfced64	-0.12349966
18	0x3c23491b	0.00996616
19	0xbeaa5892	-0.332707
20	0x3d6e312a	0.058152355
21	0x3d9e223f	0.07721376
22	0x3caac37b	0.020845165
23	0x3fbbc92b	1.4670767
24	0x3e01b79e	0.126677
25	0xbd806593	-0.06269374
26	0x3eec470f	0.46147963
27	0x3ca86332	0.020555113
28	0x3e84d090	0.2594037
29	0x3e2c3d70	0.16820312
30	0xbec46e9d	-0.3836564
31	0xbe5b3c40	-0.21409702
32	0xbec4895e	-0.38386053
33	0xbe3474e6	-0.17622718
34	0x3e59b1f4	0.2125929
35	0xbf4b74ce	-0.79475105
36	0xbfe00efb	-1.7504572
37	0xbe1a5797	-0.15072475
38	0x3dfabb91	0.12242807
39	0xbed6757c	-0.41886508
40	0xbc7e3141	-0.015514673
41	0xbe995462	-0.2994719
42	0x3e9760bd	0.29565993
43	0xbe5544bf	-0.20827006
44	0x3c19784b	0.009367059
45	0xbe9aa4ba	-0.302038
46	0x3db252ed	0.08707223
47	0xbe7f079a	-0.24905244
48	0x3c10594e	0.008810354
49	0x3d99b7f9	0.07505793
50	0x3c772224	0.015083823
51	0xbddea580	-0.1087141
52	0xbda70114	-0.081545025
53	0x3ec488df	0.38385674
54	0xbe6cf526	-0.23140392
55	0x3dc7e6c3	0.09760811
56	0x3bfa47dc	0.007637961
57	0xbeae4fb6	-0.3404519
58	0x3da9e6d4	0.0829598
59	0xbe01b3c3	-0.1266623
60	0x3ee22a06	0.44172686
61	0x3e0e93ea	0.13923612
62	0x3e162d57	0.14665733
63	0x3ef09fff	0.46997067
64	0x3eb4a325	0.3528072
65	0x4022d49c	2.5442266
66	0x402def4b	2.7177303
67	0xbdd2a0d4	-0.10284582
68	0x3e341907	0.17587672
69	0xbea77adb	-0.3271092
70	0xbeb97ebe	-0.3622951
71	0x3dcba72e	0.09943996
72	0x3e84659b	0.2585877
73	0xbdd8425f	-0.10559534
74	0x3ebefc67	0.37301943
75	0xbe9d7578	-0.30753684
76	0x3ecbd0bb	0.39807686
77	0xbc50c1b4	-0.012741495
78	0xbd35d8aa	-0.04439608
79	0x3eb242e8	0.3481667
80	0xbd3f4889	-0.046700034
81	0x3cf7f18d	0.030266548
82	0x3c722749	0.014779874
83	0x3f4a1734	0.78941655
84	0xbe44ef60	-0.1923194
85	0xbefa9998	-0.48945308
86	0xbec8caa2	-0.39217097
87	0xbe6cb179	-0.23114575
88	0x3d56c767	0.05243626
89	0xbd0b0635	-0.033941466
90	0x3f00540d	0.5012825
91	0x3d794b9d	0.060863126
92	0xbec04364	-0.37551415
93	0xbe868bd2	-0.2627855
94	0xbd216c08	-0.039409667
95	0x4011c627	2.2777193
96	0x403380d5	2.8047383
97	0xbdc5ba4c	-0.09654674
98	0xbe5fce07	-0.21855937
99	0xbebcbf64	-0.3686477
100	0x3dd87295	0.1056873
101	0x3eaddfc2	0.33959776
102	0x3e8250e1	0.2545233
103	0x3dd6f5f3	0.1049613
104	0x3e2798f9	0.16366948
105	0xbe9200c8	-0.2851622
106	0x3e887738	0.26653457
107	0xbe485609	-0.1956407
108	0x3d25b84f	0.040458973
109	0xbe5d503e	-0.21612641
110	0x3dbb472a	0.09144433
111	0xbcf9f36e	-0.030511584
112	0xbd1d5306	-0.038409255
113	0x3f1339b8	0.57509947
114	0x3ddc58d1	0.10759128
115	0x3e9c0594	0.30473006
116	0xbe211017	-0.15728794
117	0xbee0497d	-0.43806067
118	0xbd6ddad4	-0.05807002
119	0x3d695edd	0.056975234
120	0x3ff5650f	1.9171466
121	0x3f899cf7	1.0751027
122	0x3f90a5f4	1.1300645
123	0x3e9bd527	0.3043606
124	0x3f98921d	1.191959
125	0x3fef6c8b	1.8705
126	0x402eb253	2.729634
127	0xbe2e57f8	-0.17025745
128	0x3efbc7d1	0.49175885
129	0xbf6a5fe6	-0.9155258
130	0xbd73a241	-0.05948091
131	0x3f9efee1	1.2421533
132	0x3f766a5a	0.9625603
133	0xbe84d996	-0.25947255
134	0x3fa4cfce	1.2875917
135	0xbe70b271	-0.2350557
136	0x3f8c9793	1.0983757
137	0xbe0cd9eb	-0.13755004
138	0xbe1bc044	-0.15210062
139	0xbe7d5e8f	-0.24743102
140	0xbe040bb9	-0.12895097
141	0xbed67d32	-0.4189239
142	0xbea73e17	-0.32664558
143	0x3fd56e92	1.6674368
144	0x3d1e975d	0.03871857
145	0xbce7895f	-0.028263746
146	0x3ebf8438	0.37405562
147	0xbf1ff142	-0.62477505
148	0xbe08e977	-0.1337031
149	0xbdb170bc	-0.086640805
150	0xbe3eec9f	-0.18644951
151	0x3f353223	0.7077963
152	0x3f528974	0.82240987
153	0xbf136c80	-0.5758743
154	0x3eef1184	0.4669305
155	0xbfff64e3	-1.9952663
156	0xc053a42a	-3.3068948
157	0xbe910728	-0.28325772
158	0x3e56b35e	0.2096686
159	0xbf369db8	-0.7133441
160	0xbe9478c4	-0.28998387
161	0x3d11be59	0.03558192
162	0x3ea20f6f	0.316524
163	0xbe86096a	-0.26179057
164	0xbe704046	-0.23462018
165	0x3d7ddc00	0.061977386
166	0x3eadddae	0.3395819
167	0x3ce3606a	0.027755935
168	0xbe7190d6	-0.23590407
169	0xbe6e1549	-0.23250307
170	0x3cc0b196	0.02352218
171	0xbd9e2083	-0.07721045
172	0x3e490dea	0.19634214
173	0xbeebdf7f	-0.4606895
174	0x3e20c9e6	0.15702018
175	0x3edecd58	0.4351604
176	0x3e53b2da	0.20673695
177	0xbd044cfa	-0.032299973
178	0x3c9d5509	0.019205587
179	0xbe400986	-0.18753633
180	0x3f5a04c0	0.851635
181	0x3e5793b7	0.21052442
182	0x3d4d193a	0.050072886
183	0xbf055eed	-0.5209797
184	0x3eefb1b9	0.4681528
185	0x400be378	2.1857586
186	0x4016e101	2.3574831
187	0xbe00a254	-0.12561923
188	0x3e00f5ac	0.12593716
189	0xbf326c60	-0.6969662
190	0x3e22bff7	0.15893541
191	0x3e8cbb38	0.27486587
192	0x3efe4e7a	0.49669248
193	0x3e253925	0.1613508
194	0x3ef16a33	0.47151336
195	0xbdea3771	-0.11436356
196	0x3eebbc5b	0.4604214
197	0xbae54dfc	-0.0017494555
198	0xbd142075	-0.036163766
199	0x3eab49b2	0.33454663
200	0xbcdc9316	-0.026925605
201	0x3dd50d60	0.10402942
202	0x3e6a325c	0.22870773
203	0x3fa358eb	1.2761511
204	0xbeb66adb	-0.356284
205	0x3d498b2d	0.049204994
206	0xbd8b6dfd	-0.06808088
207	0xbe36b825	-0.17843683
208	0x3df0152f	0.117227904
209	0x3dae3762	0.08506657
210	0x3eded739	0.43523577
211	0x3f71f537	0.94514793
212	0x3e32ca96	0.17460093
213	0xbf09e62b	-0.53866833
214	0x3f2e454f	0.68074507
215	0xbebfcca4	-0.37460816
216	0xbf93ee6c	-1.1557136
217	0x3ee53ebd	0.44774428
218	0x3e5eecf8	0.21770084
219	0xbf36a8c5	-0.7135127
220	0x3e5a0d59	0.21294154
221	0x3ec63527	0.38712427
222	0x3f74fc15	0.95697147
223	0xbde17048	-0.11007744
224	0x3dac1592	0.08402552
225	0x3e11eafa	0.14249793
226	0x3f96d708	1.1784372
227	0x3eb6149d	0.35562602
228	0x3d8a99f4	0.067676455
229	0x3d362b7e	0.04447507
230	0x3e9b86a7	0.3037617
231	0x3d861f6a	0.065489605
232	0x3e24958c	0.16072673
233	0xbe75543f	-0.23957919
234	0x3f060cb6	0.52363145
235	0x3f20ab2b	0.6276118
236	0x3e8cd555	0.2750651
237	0xbebb6f12	-0.36608177
238	0x3e92cf9b	0.28674015
239	0x3dc3f04f	0.095673196
240	0x3fb50a39	1.4143745
241	0x3f631eea	0.88719046
242	0xbecd1195	-0.40052477
243	0xbda3e495	-0.08002583
244	0x3f5997e2	0.8499738
245	0x3fe9319c	1.8218265
246	0x400a8424	2.1643152
247	0xbe1425ab	-0.14467494
248	0x3f62d468	0.88605356
249	0xbee7941e	-0.45230192
250	0xbeaef645	-0.34172264
251	0x3f035c45	0.5131267
252	0x3f55c9ea	0.8351122
253	0xbe295811	-0.16537501
254	0x3f8246a7	1.0177811
255	0xbe9d2437	-0.30691692

lstm.weight_hh_l0 f4 [120, 30]
0	0x3df67d7b	0.12035652
1	0xbdecc76f	-0.115614764
2	0xbd77597f	-0.060388085
3	0x3e07103b	0.13189785
4	0x3edc24e6	0.429969
5	0x3f3d6390	0.73980045
6	0x3d96f438	0.073708
7	0x3f5abdd5	0.8544591
8	0x3e0a3dc9	0.13500132
9	0x3cf3af11	0.029746564
10	0x3e74cfa0	0.23907328
11	0x3d98c59a	0.074595645
12	0xbd891cf1	-0.06694973
13	0xbdd908d3	-0.10597386
14	0x3d3335fc	0.043752655
15	0xbe82def0	-0.25560713
16	0xbe756343	-0.23963647
17	0xbf100c64	-0.56268907
18	0xbd3ce94a	-0.04612092
19	0xbdb00371	-0.085944064
20	0xbf120099	-0.5703216
21	0x3e7ac858	0.24490488
22	0x3e76c300	0.24097824
23	0xbeb8fd8f	-0.3613095
24	0x3d0b2f42	0.033980615
25	0x3d217221	0.039415482
26	0xbca3dc2e	-0.02000245
27	0xbd55fb24	-0.05224146
28	0xbeb29f68	-0.34887242
29	0xbe707ba2	-0.23484662
30	0xbec98b90	-0.3936429
31	0x3ec636a9	0.38713577
32	0x3d6b3872	0.057426877
33	0x3dd2d875	0.10295192
34	0xbe3967e9	-0.18106045
35	0xbea7cede	-0.32775015
36	0x3eb09620	0.34489536
37	0x3de72255	0.11285845
38	0x3ee17c18	0.4403999
39	0x3ea66b02	0.32503515
40	0xbe728168	-0.23682177
41	0x3ef39854	0.47577155
42	0x3ec4617b	0.38355622
43	0xbcb3fc9d	-0.021971041
44	0xbe8dfce3	-0.27732
45	0x3ea2fc8a	0.31833297
46	0x3e7cc353	0.24683885
47	0x3dc2062a	0.09473832
48	0xbe9a6238	-0.3015306
49	0x3f11166a	0.56674826
50	0xbdcb78c5	-0.09935144
51	0xbccb233b	-0.024797073
52	0x3f1993d4	0.5999119
53	0xbeaab5c2	-0.33341795
54	0x3e7b74d6	0.24556288
55	0x3e8dce85	0.27696624
56	0xbb7680ce	-0.0037613395
57	0x3e5d515e	0.2161307
58	0x3c553769	0.013013699
59	0x3e920d85	0.2852594
60	0xbed6b3a3	-0.41933927
61	0xbe571735	-0.21004947
62	0xbe4dda6d	-0.20102854
63	0x3e91dbac	0.2848791
64	0xbf03c87b	-0.51477784
65	0xbe1fb215	-0.15595277
66	0xbe78c4dd	-0.24293847
67	0xbe9cf74e	-0.30657429
68	0x3f29efa2	0.66381276
69	0x3ebccc1d	0.36874476
70	0x3d0b87aa	0.034064926
71	0xbe14ebad	-0.14543028
72	0x3edcef8e	0.43151516
73	0xbe20041f	-0.15626572
74	0x3e2c6a4f	0.16837429
75	0x3ec61552	0.3868814
76	0x3e2dd248	0.16974747
77	0xbe302c71	-0.17204453
78	0x3efded21	0.49594977
79	0x3a6df835	0.0009077818
80	0x3cbda5ef	0.023150412
81	0x3de5daa7	0.11223345
82	0x3dff0efe	0.124540314
83	0x3e580e66	0.21099243
84	0xbe8d5a1e	-0.27607816
85	0x3e91eb87	0.28500006
86	0x3ef5ebd9	0.480315
87	0xbeda8946	-0.42682856
88	0xbf349592	-0.70540726
89	0x3b91cee0	0.0044497102
90	0xbe08beef	-0.13354085
91	0xbdf470db	-0.11935588
92	0x3ea68454	0.32522833
93	0x3e21a04c	0.15783805
94	0xbde5da75	-0.11223308
95	0xbef46959	-0.47736624
96	0xbe1cc3b3	-0.15309028
97	0xbe81afa3	-0.25329313
98	0x3eba782b	0.36419806
99	0x3da4e537	0.08051532
100	0xbdc15bc8	-0.09441334
101	0xbe822f22	-0.25426584
102	0xbe4ba8b9	-0.19888581
103	0xbe39dbda	-0.18150273
104	0xbe25ac66	-0.16179046
105	0x3ec6e06e	0.388431
106	0x3f1236bc	0.5711477
107	0xbda434c2	-0.08017875
108	0xbdd5b72a	-0.104353264
109	0x3ddf71ea	0.10910399
110	0x3d2ea80e	0.04264074
111	0x3ede2a5f	0.43391702
112	0x3ed3e413	0.41384944
113	0xbd0eb844	-0.0348437
114	0x3dbc1bbb	0.09184977
115	0x3862af49	5.4045846e-05
116	0xbce51895	-0.027965823
117	0xbe7cd068	-0.24688876
118	0xbe11d024	-0.14239556
119	0x3ed91446	0.4239828
120	0xbf0ed9f4	-0.5580132
121	0x3ed5cde6	0.4175865
122	0xbf1cb665	-0.6121581
123	0x3f200932	0.6251403
124	0xbf40cfd3	-0.75317115
125	0xbe32cb76	-0.17460427
126	0xbec9d36f	-0.39419124
127	0x3d055019	0.03254709
128	0x3f5060f2	0.81397927
129	0x3e9508a3	0.29108152
130	0xbf03865e	-0.51376903
131	0xbd2f6e65	-0.04282989
132	0x3f073d42	0.52827847
133	0xbf153865	-0.58289176
134	0x3dacc65f	0.08436274
135	0x3e8d9092	0.2764936
136	0x3e80eef5	0.2518231
137	0xbe8eb5b5	-0.27873006
138	0x3e17c5c9	0.14821543
139	0xbf1c651c	-0.6109178
140	0x3f60d2df	0.87821764
141	0xbe7da79d	-0.2477097
142	0x3f2fdcff	0.6869659
143	0xbe7c240d	-0.24623127
144	0xbeb71977	-0.35761616
145	0x3f2c34d9	0.6726814
146	0x3f494f8a	0.7863699
147	0xbe56aa71	-0.20963456
148	0x3f337a07	0.70108074
149	0x3daa3d07	0.08312421
150	0x3edce1f6	0.43141145
151	0x3f0c99f1	0.54922396
152	0x3ec2d71c	0.3805474
153	0xbece8843	-0.40338334
154	0x3f6b77a9	0.9197946
155	0x3f2e5ba2	0.6810857
156	0x3eadede0	0.33970547
157	0x3f5a6aba	0.853191
158	0xbf8487fe	-1.0354002
159	0xbf2e61ad	-0.6811779
160	0x3d5a61d6	0.05331596
161	0x3e8318e7	0.25604936
162	0x3d488f70	0.048964918
163	0x3ded8fdb	0.11599704
164	0x3e1b75f6	0.15181717
165	0xbf5dd630	-0.8665495
166	0xbf741e01	-0.9535828
167	0xbed0a318	-0.4074943
168	0xbe4865e9	-0.19570126
169	0x3ebad9df	0.36494347
170	0xbf5f3d8c	-0.8720329
171	0x3c9554cf	0.018228916
172	0x3e2941b6	0.16528973
173	0xbeaf24c2	-0.3420773
174	0xbde1b93b	-0.11021658
175	0xbf4c02df	-0.7969188
176	0xbeb403c0	-0.3515911
177	0x3f07886d	0.52942544
178	0x3ddfd0fb	0.10928532
179	0xbf0ad04a	-0.54224074
180	0xbe8d4814	-0.27594054
181	0xbe55b1b0	-0.20868564
182	0xbea56721	-0.32305244
183	0x3e5db4db	0.21651022
184	0xbeb33991	-0.35004857
185	0xbdad8f8b	-0.08474644
186	0xbe41fa4f	-0.18943141
187	0x3e420bf7	0.18949877
188	0x3f20012a	0.62501776
189	0x3e3eab55	0.18620045
190	0xbe8de645	-0.27714744
191	0xbe650aa3	-0.22367339
192	0x3eaaf0ee	0.3338694
193	0x3e422c81	0.1896229
194	0x3ed2c5f4	0.4116665
195	0xbad9881c	-0.001659635
196	0x3dc90895	0.0981609
197	0xbd2eb8ed	-0.042656828
198	0x3a0cb91d	0.000536816
199	0xbc3c2cbd	-0.011485276
200	0xbe48604b	-0.19567983
201	0xbe0209ef	-0.12699102
202	0xbdd34b5b	-0.10317107
203	0xbe548a3c	-0.20755857
204	0xbddb6310	-0.10712254
205	0x3eb62ef4	0.35582697
206	0x3f00cc78	0.50311995
207	0xbeec3cbc	-0.46140087
208	0xbddb2d73	-0.10702028
209	0x3dc31de8	0.095271885
210	0xbe1ff779	-0.15621747
211	0x3db0a01a	0.08624287
212	0xbd9dde7b	-0.077084504
213	0xbc896b4e	-0.0167748
214	0x3f08555e	0.5325526
215	0x3f0f4c77	0.5597605
216	0xbe067049	-0.13128771
217	0x3ed79b04	0.42110455
218	0xbc1b42fc	-0.00947642
219	0xbe96ee41	-0.29478648
220	0x3e37de0c	0.17955798
221	0x3f08807a	0.5332104
222	0x3eff6538	0.4988191
223	0xbe0c5467	-0.13704072
224	0xbe80d80e	-0.25164837
225	0xbe9d440c	-0.30715978
226	0x3ed997fa	0.4249876
227	0xbe62a26b	-0.2213227
228	0x3dc7f0b5	0.09762708
229	0xbe2ef7a8	-0.17086661
230	0xbe6a9568	-0.22908556
231	0xbe04e3ac	-0.12977475
232	0x3f0b06ce	0.5430726
233	0x3c9b9c58	0.018995449
234	0xbe7a0f43	-0.24419884
235	0xbd0a44b8	-0.03375694
236	0xbd264d9c	-0.040601358
237	0x3d0c50cc	0.03425674
238	0x3f200545	0.6250804
239	0xbee1da4a	-0.44111854
240	0xbf2f0475	-0.68366176
241	0x3e23125f	0.15924977
242	0xbec0a5bb	-0.37626442
243	0x3ef24fa0	0.47326374
244	0xbf142fad	-0.5788525
245	0x3e107405	0.14106758
246	0xbe0f3381	-0.13984491
247	0xbe86aad1	-0.26302198
248	0x3f00da03	0.5033266
249	0x3f0b903c	0.5451696
250	0xbef145d0	-0.47123575
251	0xbdfc94b3	-0.123330496
252	0x3ec7a45b	0.3899258
253	0xbeb306c8	-0.3496611
254	0x3f0e6c56	0.5563406
255	0x3e8e9edc	0.27855575

lstm.bias_ih_l0 f4 [120]
0	0x3da8a8ad	0.08235297
1	0xbe818d2c	-0.25303018
2	0x3d96d4dc	0.073648185
3	0x3d0658cf	0.03279954
4	0xbedb229b	-0.4279984
5	0xbe00298e	-0.12515852
6	0x3df2630a	0.118352965
7	0xbda898f9	-0.08232302
8	0xbe74c97b	-0.23904984
9	0x3e604eab	0.2190501
10	0xbda118f1	-0.07866085
11	0x3dda171d	0.1064894
12	0x3d5bb189	0.053636108
13	0x3e559abd	0.20859809
14	0xbc4db0b2	-0.0125543345
15	0x3ea1e1eb	0.31617674
16	0xbd9c2b57	-0.07625454
17	0xbc9903fc	-0.018678658
18	0xbd1f54b2	-0.03889913
19	0x3dd3d079	0.103424974
20	0xbd33b7b8	-0.04387638
21	0xbec795e8	-0.38981557
22	0xbcf8511c	-0.030312113
23	0x3d8cb26f	0.06869971
24	0x3d925dc2	0.07146789
25	0xbe477a6d	-0.19480295
26	0x3e6ff1db	0.23432104
27	0xbe9bfcd0	-0.30466318
28	0xbd8d6e8d	-0.069058515
29	0xbd340d45	-0.043957967
30	0x3c64fa19	0.013975644
31	0xbd999db9	-0.07500786
32	0xbc805864	-0.015667148
33	0x3db77c57	0.08959263
34	0x3e43645d	0.19081254
35	0xbd586bd8	-0.052837223
36	0xbd41276d	-0.04715674
37	0x3d905e9b	0.070492946
38	0x3eaeb6b7	0.34123775
39	0x3c4a5746	0.012349909
40	0x3e11dc2a	0.14244142
41	0xbe58634e	-0.21131632
42	0x3d1bbc53	0.038021397
43	0x3d2ed0f2	0.042679735
44	0x3e055b19	0.13023032
45	0x3d2ab0a5	0.041672368
46	0xbe569a6c	-0.20957345
47	0xbd93af60	-0.072111845
48	0xbd9a0a7f	-0.07521533
49	0x3d1a6e1e	0.037702672
50	0x3e7ed097	0.24884258
51	0x3dffbd37	0.12487262
52	0x3ccf9ac7	0.025342358
53	0xbe1b03ad	-0.15138121
54	0xbdc3ed49	-0.09566743
55	0x3e76c606	0.24098977
56	0xbd291391	-0.041278426
57	0xbe647f9c	-0.22314304
58	0x3d4f06a6	0.05054345
59	0xbda47fc3	-0.08032181
60	0x3c1a1589	0.009404548
61	0xbe3f0f7d	-0.18658252
62	0x3b58c6a4	0.0033077383
63	0xbce91bff	-0.028455732
64	0xbc82afe2	-0.015953008
65	0x3e4594a8	0.19294989
66	0xbdebea97	-0.11519354
67	0x3e131eb3	0.1436718
68	0xbdb46667	-0.08808594
69	0x3da1ba08	0.07896811
70	0x3d13932f	0.036029037
71	0x3dd0012e	0.10156475
72	0x3d16a909	0.0367823
73	0x3cbca884	0.023029573
74	0xbe3588d2	-0.17727974
75	0x3d36f8f4	0.044671014
76	0x3e170530	0.14748073
77	0xbe254631	-0.16140057
78	0xbdb1770f	-0.08665287
79	0x3e091cca	0.13389888
80	0xbdf98e48	-0.12185341
81	0x3e4cae07	0.19988261
82	0x3e243120	0.16034365
83	0xbdf9e7d2	-0.12202419
84	0xbc234a6d	-0.009966475
85	0xbe047390	-0.12934709
86	0xbe0a606e	-0.13513348
87	0xbe052023	-0.1300054
88	0xbe2684ef	-0.16261648
89	0xbd254e13	-0.04035766
90	0x3ec6d170	0.38831663
91	0xbe66f752	-0.22555283
92	0x3d7b206c	0.061310217
93	0x3e257530	0.16157985
94	0x3ebd39d6	0.36958188
95	0x3e82b3d6	0.2552783
96	0x3e9bf970	0.30463743
97	0x3ec9ebbe	0.3943767
98	0x3edc48bd	0.43024245
99	0x3d90251f	0.0703833
100	0x3dbd579b	0.09245225
101	0x3e84fa7b	0.2597235
102	0x3eb0807a	0.3447302
103	0xbb857b9a	-0.0040735723
104	0xbe05dc52	-0.13072327
105	0x3cf550e5	0.0299458
106	0x3e23f50b	0.16011445
107	0xbdc86cfd	-0.09786413
108	0xbd9c01db	-0.076175414
109	0xbc8a89eb	-0.016911468
110	0xbe2f340b	-0.17109697
111	0xbe19a993	-0.15006094
112	0xbd8f7758	-0.07005185
113	0xbdc2a4fa	-0.09504123
114	0x3d4a1b66	0.049342535
115	0x3e0de0fe	0.13855359
116	0x3e9cf51e	0.3065576
117	0xbe508f0c	-0.20367068
118	0xbd6c620f	-0.057710703
119	0xbd7e4eb3	-0.062086772

lstm.bias_hh_l0 f4 [120]
0	0x3e207642	0.15670112
1	0xbcfe248b	-0.031023284
2	0x3df7f935	0.12108079
3	0xbd068390	-0.03284031
4	0xbed0313d	-0.40662566
5	0x3da3f799	0.0800621
6	0xbdf4a8f7	-0.1194629
7	0x3e041f9f	0.12902687
8	0xbcd64702	-0.026156906
9	0x3da410da	0.08011027
10	0x3e2a1644	0.16610056
11	0x3e840094	0.2578169
12	0x3e184c3f	0.14872836
13	0xbdd76c91	-0.10518754
14	0xbe5a8759	-0.21340694
15	0x3ea148ac	0.31500757
16	0x3cb0638b	0.02153184
17	0xbe273464	-0.16328579
18	0xbd0f2051	-0.03494293
19	0x3e5915e0	0.21199751
20	0xbe0a0670	-0.13479018
21	0xbe0bfb91	-0.13670184
22	0x3df19b28	0.11797172
23	0xbdad06cb	-0.08448561
24	0x3cc420f2	0.02394149
25	0xbeae9a38	-0.34102035
26	0x3df24a66	0.118305966
27	0xbe36ac82	-0.17839244
28	0xbe9c2bd7	-0.30502197
29	0xbd85a3ee	-0.06525408
30	0x3e6f0fb9	0.23345841
31	0xbd40b1b9	-0.04704449
32	0x3d6d5373	0.05794091
33	0x3e00517e	0.12531087
34	0x3e6595ac	0.22420377
35	0x3d5f40a5	0.05450501
36	0x3d8b8f9e	0.06814502
37	0xbe47cc9c	-0.19511646
38	0x3eba2afb	0.36360916
39	0x3dfd426a	0.12366183
40	0x3e267c7a	0.16258422
41	0xbe73532e	-0.237622
42	0x3cc37d9e	0.02386361
43	0x3d4ad820	0.04952252
44	0xbca4875f	-0.020084081
45	0xbe4b7710	-0.19869637
46	0xbea2b1bd	-0.3177623
47	0xbdde9dde	-0.108699545
48	0xbd8dcdd0	-0.06924021
49	0xbc1cac57	-0.009562573
50	0xbcd93695	-0.026515285
51	0x3d555eb5	0.052092273
52	0x3dc5a014	0.09649673
53	0xbdbe2f47	-0.09286361
54	0xbe003a48	-0.12522233
55	0x3e5f9c18	0.21836889
56	0x3e6d603b	0.2318124
57	0xbdf9e18d	-0.122012235
58	0x3c93b3c0	0.018030047
59	0xbe9eb8b6	-0.31000298
60	0x3c95c615	0.01828293
61	0x3d804711	0.06263555
62	0xbdb50926	-0.088396356
63	0x3e0ef9da	0.13962498
64	0xbdf8db8d	-0.12151251
65	0x3e5f5ccb	0.21812741
66	0x3db2bf98	0.0872795
67	0x3d7a793d	0.061150778
68	0x3e287e65	0.16454466
69	0x3dc34d2c	0.09536204
70	0xbe394a34	-0.18094712
71	0x3d8a105d	0.06741402
72	0x3e5d62db	0.21619742
73	0x3e2abd57	0.1667379
74	0x3c377dd6	0.011199435
75	0x3e2d0c9d	0.16899343
76	0xbe207ff3	-0.15673809
77	0xbce8e077	-0.028427346
78	0x3c6c61b0	0.014427587
79	0x3e350c67	0.17680512
80	0xbdedb6cc	-0.11607131
81	0xbcd7fe75	-0.026366452
82	0xbe235fc2	-0.15954497
83	0xbc1cedc1	-0.009578169
84	0xbd6982b4	-0.057009414
85	0x3e1c229c	0.15247577
86	0x3e38f8c2	0.18063644
87	0xbd481b84	-0.048854366
88	0xbdf3d211	-0.11905301
89	0x3dc9c164	0.098513395
90	0x3e4831c9	0.19550242
91	0x3d6ef259	0.05833659
92	0x3de293d1	0.1106335
93	0x3e2ac509	0.16676725
94	0x3ec5397f	0.3852043
95	0x3ed3119d	0.41224375
96	0x3e883f49	0.26610783
97	0x3ea09ca3	0.31369504
98	0x3e0ce09d	0.13757558
99	0x3e71b4ec	0.23604172
100	0xbd93fe2e	-0.07226215
101	0x3d8bf48a	0.068337515
102	0x3ea0fd68	0.31443334
103	0x3e7263ac	0.23670834
104	0x3e244368	0.16041338
105	0x3e33cf70	0.175596
106	0xbd9ed633	-0.07755699
107	0x3d88c6f1	0.0667857
108	0xbdc94051	-0.098267205
109	0xbdd0e887	-0.10200601
110	0xbdfe7a6f	-0.12425696
111	0x3d34a878	0.044105977
112	0x3e0fb89e	0.1403527
113	0x3d30a9f7	0.04313084
114	0x3e69df8c	0.22839183
115	0x3e668d28	0.22514784
116	0x3e902014	0.28149474
117	0xbe064feb	-0.13116424
118	0xbd4db003	-0.050216686
119	0x3e53af76	0.20672402

lstm.weight_ih_l0_reverse f4 [120, 30]
0	0x3e21d830	0.15805125
1	0x3e4ded27	0.20109998
2	0xbdc991e8	-0.098422825
3	0x40078448	2.1174488
4	0x3eadb165	0.33924404
5	0x402027c8	2.502428
6	0x3f45ebf8	0.77313185
7	0x3e9962a4	0.2995807
8	0x3ecfe2b1	0.4060264
9	0x3f4ae4e1	0.7925549
10	0x3e792e7b	0.24334137
11	0x3e21d129	0.15802445
12	0x3df5f772	0.12010087
13	0x3ed091c7	0.4073622
14	0x3ebf5e9c	0.3737687
15	0x3e10f5fb	0.14156334
16	0x3e9a12a1	0.30092338
17	0x3e6c488d	0.23074551
18	0x3d3a4c89	0.045483146
19	0x3d6d41d6	0.057924114
20	0xbdf46403	-0.11933138
21	0xbde561da	-0.11200304
22	0xbcb805ca	-0.022463698
23	0x3ef4d3e3	0.47817907
24	0xbea05cd7	-0.3132083
25	0xbea0c108	-0.3139727
26	0x3e5b87d0	0.21438527
27	0xbe1a2414	-0.15052825
28	0x3dd8ad7f	0.10579967
29	0xbe590577	-0.21193491
30	0x3df8bf67	0.12145882
31	0xbd747dc8	-0.059690267
32	0xbdb41a02	-0.08794023
33	0x3fa60094	1.2968926
34	0x3ea3b1cc	0.31971586
35	0x3f2337e3	0.6375715
36	0x3ef5c003	0.47998056
37	0xbd7c436b	-0.061587732
38	0x3ebe96e4	0.37224495
39	0x3f5f5bbf	0.8724937
40	0xbe392a67	-0.18082581
41	0x3f2596a8	0.6468301
42	0x3f277e35	0.6542695
43	0xbe83c3f4	-0.25735438
44	0x3e629df6	0.2213057
45	0x3b801c90	0.003909655
46	0x3ec559e3	0.3854514
47	0xbe361cbe	-0.17784402
48	0xbeab9384	-0.33510983
49	0x3dc329d3	0.09529462
50	0xbe1a14d5	-0.1504701
51	0xbe1b5978	-0.15170848
52	0xbdddf68f	-0.10838043
53	0x3f0fe046	0.5620159
54	0x3f714190	0.94240665
55	0x3e226b44	0.15861231
56	0x3e9ab0a5	0.30212894
57	0x3db670cf	0.08908235
58	0x3e46ab2c	0.19401234
59	0xbe274c5a	-0.1633772
60	0xbd1800bd	-0.03711008
61	0xbd281d16	-0.041043364
62	0x3e648237	0.22315298
63	0x3f652847	0.89514583
64	0xbcf5e26b	-0.030015191
65	0x3f24aff7	0.64331
66	0x3f7ce0ac	0.9878032
67	0x3e5380d4	0.20654613
68	0x3ecc01cb	0.39845118
69	0x3e21573a	0.1575593
70	0x3f05861d	0.52157766
71	0x3f02a6f9	0.5103603
72	0x3e979873	0.29608497
73	0x3e19e8a2	0.15030149
74	0x3e520245	0.20508678
75	0x3eb47d2c	0.3525175
76	0x3e46dc31	0.19419934
77	0x3e3d1d0f	0.18468116
78	0x3e2f0586	0.17091951
79	0x3e047d81	0.12938501
80	0xbcea83d4	-0.028627314
81	0xbd48ee62	-0.049055465
82	0xbcfea9d2	-0.031086836
83	0x3c6e6400	0.014550209
84	0xbc821da7	-0.01588328
85	0xbe59ed62	-0.2128196
86	0x3ee0e779	0.439266
87	0x3e3a1597	0.18172298
88	0x3e403126	0.18768749
89	0x3e1c7ac8	0.15281212
90	0x3e6f09d1	0.23343588
91	0x3d19cb57	0.037547436
92	0xbdd2643e	-0.10273026
93	0x3f80a775	1.0051104
94	0x3dd535fa	0.10410686
95	0x3ec24cb2	0.3794914
96	0x3f107ec5	0.56443435
97	0x3dec4a44	0.115376025
98	0x3ee033b5	0.4378945
99	0x3e657f36	0.22411808
100	0x3e78566e	0.2425172
101	0xbcbcff4a	-0.02307095
102	0x3d8e6356	0.069525406
103	0x3db5361f	0.088482134
104	0x3e4d6253	0.20057039
105	0x3ee9c20c	0.4565586
106	0x3dd614c4	0.104531795
107	0x3e7fee64	0.24993283
108	0x3e736f05	0.2377282
109	0x3e4331a8	0.19061911
110	0x3ddfa26a	0.1091965
111	0x3c852188	0.01625134
112	0xbc982dee	-0.018576588
113	0x3e49ff5c	0.19726318
114	0x3e2139c9	0.157447
115	0xbd6969e0	-0.056985736
116	0x3e045361	0.12922432
117	0xbc05d4e6	-0.008168435
118	0x3d4a48ac	0.04938571
119	0x3d964c3f	0.073387615
120	0xbdc6f205	-0.0971413
121	0x3e8e7a3c	0.27827632
122	0x3f02cd7e	0.51094806
123	0xbfd81879	-1.6882468
124	0x3e99d42f	0.30044696
125	0xbfd7371d	-1.6813694
126	0xbfac64c7	-1.3468255
127	0x3cdd155b	0.026987722
128	0x3db4d478	0.08829588
129	0xbf307c05	-0.6893924
130	0x3b21c6a7	0.0024685056
131	0x3e8d675e	0.27617925
132	0x3e510f0a	0.20415893
133	0x3df80a48	0.12111336
134	0x3e2fa9d0	0.17154622
135	0x3c752b59	0.014963948
136	0x3d106ad4	0.03525813
137	0x3d1711f1	0.036882345
138	0x3d48e86a	0.049049772
139	0xbcf1be8d	-0.029509807
140	0x3d708c6f	0.058727678
141	0x3d9bf272	0.07614602
142	0x3e577a87	0.21042834
143	0xbe961a21	-0.2931681
144	0xbdda6af6	-0.106649324
145	0x3e91719e	0.28406996
146	0xbcb33533	-0.021875953
147	0x3e1eeffb	0.15521233
148	0x3e00652c	0.12538594
149	0x3d83a04f	0.06427061
150	0xbdf17a45	-0.11790899
151	0x3e883c18	0.26608348
152	0xbe4f4199	-0.20239867
153	0x3f66b4cb	0.9011962
154	0xbe057d36	-0.13036045
155	0xbe53b771	-0.20675446
156	0x3dd3104e	0.10305844
157	0x3e74707e	0.23871037
158	0x3f2af724	0.66783357
159	0x3e0ced04	0.1376229
160	0x3ef31d07	0.47483084
161	0x3f2c9cd9	0.6742683
162	0x3f02f9b1	0.5116225
163	0xbd397af3	-0.04528327
164	0xbe7e8ae1	-0.24857666
165	0x3e2ec400	0.17066956
166	0x3c5689f8	0.013094418
167	0x3d552622	0.05203832
168	0x3d8f6734	0.07002106
169	0x39e9a1f0	0.00044561876
170	0xbbc7a23d	-0.0060923384
171	0xbe03a472	-0.128557
172	0x3e4f8e37	0.20269094
173	0xbe6a1d61	-0.2286277
174	0x3d0cefbf	0.034408327
175	0xbe3546d5	-0.17702802
176	0x3eb823e8	0.35964894
177	0xbca43088	-0.020042673
178	0xbdea334a	-0.11435564
179	0xbbd67df2	-0.0065457756
180	0x3b082c42	0.0020778333
181	0x3e552144	0.20813471
182	0x3f533f42	0.825184
183	0x3ece52a8	0.40297437
184	0x3e8d07ce	0.27545017
185	0x3eb394fc	0.35074604
186	0x3c9ff4ae	0.019525852
187	0x3dfc6f97	0.123259716
188	0x3ed8c9db	0.42341504
189	0x3d471f15	0.048613627
190	0x3e814252	0.2524591
191	0xbe16afab	-0.1471545
192	0x3e433dda	0.19066563
193	0x3ee2c198	0.44288325
194	0x3ee75996	0.45185536
195	0x3e8de295	0.2771193
196	0x3e819d03	0.25315103
197	0x3e91dc14	0.2848822
198	0x3eceffaa	0.4042943
199	0x3f105063	0.5637266
200	0x3c842b63	0.01613397
201	0x3e6a7e02	0.2289963
202	0xbc2a8ca4	-0.010409508
203	0xbdd7fec5	-0.1054664
204	0x3d86bfe3	0.06579568
205	0x3c7970c6	0.015224641
206	0x3e20e041	0.15710546
207	0x3e98f955	0.29877725
208	0x3e1dc678	0.15407741
209	0x3d47085a	0.04859195
210	0xbe0b0203	-0.13574986
211	0xbd9f41db	-0.07776233
212	0xbe8d3a6d	-0.27583638
213	0x3ff2bde8	1.8964205
214	0xbdbf16e6	-0.093305394
215	0x3f8c7e4f	1.0976046
216	0x3f948869	1.1604129
217	0xbd6f4b47	-0.0584214
218	0x3f3c34f4	0.735183
219	0x3ef014cb	0.46890864
220	0x3d4e20dd	0.05032431
221	0x3e92883d	0.28619567
222	0x3ec63ce9	0.38718346
223	0xbde78090	-0.11303818
224	0x3edf645b	0.43631253
225	0x3eb8a11b	0.36060414
226	0x3d01a991	0.03165585
227	0x3e682f8d	0.22674389
228	0x3ce4990f	0.027905015
229	0x3d3c2a24	0.045938626
230	0xbe40617e	-0.1878719
231	0xbe94b979	-0.29047754
232	0xbde21c05	-0.110405006
233	0xbe05eeb1	-0.13079335
234	0x3ed4f357	0.41591904
235	0xbcdc4edd	-0.026893074
236	0x3f1bc5e4	0.6084883
237	0x3e0c8b1e	0.13724944
238	0x3dc4b480	0.0960474
239	0xbe3fc5e3	-0.18727832
240	0xbe80a453	-0.2512537
241	0x3e769ab6	0.24082455
242	0xbedcf121	-0.43152717
243	0x3f4fb772	0.8113929
244	0x3d95a0c0	0.07306051
245	0x3da7e503	0.081979774
246	0xbe714186	-0.23560151
247	0xbb4892a2	-0.0030604978
248	0x3e98d586	0.29850405
249	0x3c43a16d	0.011940342
250	0x3d8fe8c5	0.07026819
251	0x3f05ebff	0.52313226
252	0x3f01b329	0.50664
253	0x3dc0d441	0.09415484
254	0x3e066a00	0.13126373
255	0x3d9fc6fd	0.07801626

lstm.weight_hh_l0_reverse f4 [120, 30]
0	0xbbe0abc4	-0.0068564136
1	0x3d968796	0.0735008
2	0x3e476be3	0.1947475
3	0xbd8e962b	-0.06962236
4	0xbeb9236b	-0.36159834
5	0xbd456dde	-0.04820048
6	0xbe6909f8	-0.22757709
7	0x3d715cc2	0.05892635
8	0xbe3d517a	-0.18488112
9	0xbe1e75b1	-0.15474583
10	0x3e549abc	0.20762151
11	0xbd97d8a7	-0.0741437
12	0x3ef8f080	0.48620987
13	0xbe576348	-0.21033967
14	0x3effd322	0.4996577
15	0x3f06c81e	0.52649105
16	0xbe851203	-0.25990304
17	0x3e02c4da	0.12770405
18	0x3dddf37b	0.10837456
19	0xbe7f16d7	-0.24911056
20	0x3d2551da	0.040361263
21	0x3e3948e7	0.18094216
22	0x3e0f5ad4	0.13999492
23	0xbda82415	-0.08210007
24	0xbdd945b7	-0.10609
25	0xbc4dd266	-0.01256237
26	0xbdce081e	-0.10060142
27	0x3e2f607d	0.17126651
28	0x3de18f22	0.110136285
29	0xbe3822b9	-0.17981996
30	0xbdac1e07	-0.08404165
31	0xbe37b054	-0.17938358
32	0x3d076f17	0.033064928
33	0xbbc643ef	-0.006050579
34	0xbead1185	-0.3380243
35	0x3eb28d1d	0.34873286
36	0xbececfe8	-0.40392995
37	0xbe38dbd8	-0.18052614
38	0xbe66c0c5	-0.22534473
39	0xbe52ec86	-0.20598039
40	0x3e9a3b7d	0.3012351
41	0x3e301c5f	0.17198323
42	0x3e403b08	0.18772519
43	0xbf1874e0	-0.5955334
44	0x3db89a65	0.090138234
45	0x3e0cc2b2	0.13746145
46	0xbddf7dbc	-0.10912654
47	0xbefb498a	-0.49079543
48	0xbf06d706	-0.5267185
49	0xbebf45c7	-0.37357923
50	0xbe1db8b6	-0.15402493
51	0x3ba8eaf0	0.00515496
52	0xbe978313	-0.2959219
53	0xbdcd6bfa	-0.100303605
54	0xbe97075a	-0.29497796
55	0xbf395f1b	-0.72410744
56	0x3d923eb2	0.071408644
57	0xbe830244	-0.25587666
58	0xbedf2e28	-0.43589902
59	0x3eb2b50d	0.34903756
60	0xbe864472	-0.26224095
61	0xbeab4486	-0.33450717
62	0xbd7b8017	-0.061401453
63	0xbdd28ba1	-0.10280538
64	0xbe933c1c	-0.28756797
65	0x3e9c4c15	0.30526796
66	0xbe6b7e69	-0.2299744
67	0xbd1a06b1	-0.037604038
68	0xbe676dac	-0.2260043
69	0xbe5c5368	-0.21516192
70	0x3e5f04b3	0.21779136
71	0x3def68cc	0.1168991
72	0xbe07884d	-0.13235588
73	0xbdf6a29c	-0.12042734
74	0x3e60941a	0.21931496
75	0x3da1dccf	0.07903444
76	0xbd063654	-0.032766655
77	0xbf007954	-0.5018513
78	0xbede6afd	-0.43441
79	0xbeb8035e	-0.3594007
80	0xbe5d996d	-0.21640559
81	0x3e72a14f	0.23694347
82	0xbe9b73a4	-0.30361664
83	0x3e0b6eb3	0.13616447
84	0xbe87fc78	-0.26559806
85	0xbed9a88f	-0.42511413
86	0xbd850861	-0.06495739
87	0x3d8db4dd	0.069192626
88	0xbe99fb0e	-0.30074352
89	0x3e34ef93	0.17669515
90	0xbecbb750	-0.39788294
91	0xbe20d310	-0.15705514
92	0x3e3f3ddf	0.18675946
93	0xbdc64f63	-0.096831106
94	0xbe329aa1	-0.17441799
95	0x3e415150	0.18878675
96	0xbe83cef0	-0.25743818
97	0xbe0d1a4c	-0.13779563
98	0xbd97dd57	-0.07415264
99	0xbea2a7bd	-0.317686
100	0x3dbf4592	0.09339441
101	0x3d0f3db3	0.03497095
102	0x3ea5845e	0.3232755
103	0xbc69beb1	-0.014266656
104	0x3eb0fba6	0.34566993
105	0x3ed8d8ea	0.42352992
106	0xbd89a878	-0.06721586
107	0xbee4342c	-0.44571054
108	0xbe1a6ab4	-0.15079767
109	0xbf274fd1	-0.65356165
110	0xbe7fe4ea	-0.24989668
111	0x3dc82d47	0.09774261
112	0xbed950b5	-0.42444387
113	0xbe382750	-0.17983747
114	0xbd54a506	-0.05191519
115	0xbe8df719	-0.27727583
116	0xbd407409	-0.04698566
117	0xbdf2ef5a	-0.11862059
118	0xbeb94ff8	-0.36193824
119	0x3e540972	0.20706728
120	0x3e99e009	0.30053738
121	0x3e768207	0.24073039
122	0x3af8eeff	0.0018992125
123	0xbe24d3f9	-0.16096486
124	0x3daae5a2	0.0834458
125	0xbe88ad88	-0.26694894
126	0x3e888dc5	0.26670662
127	0x3e70c337	0.23511969
128	0x3da8c657	0.08240955
129	0x3eb24574	0.34818614
130	0x3e05d0fe	0.13068005
131	0xbe67323e	-0.2257776
132	0xbd630941	-0.055428747
133	0x3f1dff14	0.61717343
134	0xbebece90	-0.3726697
135	0x3e052684	0.13002974
136	0xbccb23f0	-0.02479741
137	0x3e787300	0.24262619
138	0x3df8f869	0.121567555
139	0x3ec645c2	0.38725096
140	0x3e5fe693	0.21865301
141	0x3d223dc1	0.039609674
142	0x3c137326	0.0089996215
143	0x3d45ec41	0.048321012
144	0xbe7c9b29	-0.24668564
145	0x3e17058b	0.14748208
146	0xbe27c45c	-0.16383499
147	0x3ce0f8ce	0.02746239
148	0x3daa90c8	0.08328396
149	0xbe0b5b59	-0.13609065
150	0xbdfba9c3	-0.12288239
151	0xbe5df7d0	-0.21676564
152	0xbb5b4ec8	-0.0033463705
153	0x3e4000f9	0.18750371
154	0xbd081962	-0.033227332
155	0x3df7faaf	0.12108361
156	0x3e1161e1	0.14197494
157	0xbd7412cf	-0.05958825
158	0xbd80bd9b	-0.062861644
159	0xbe08badd	-0.13352533
160	0xbe405689	-0.1878301
161	0xbdacaf8c	-0.084319204
162	0xbdd576ba	-0.10423036
163	0xbec9c87e	-0.39410776
164	0x3e0f3d80	0.13988304
165	0xbdd7c702	-0.105360046
166	0x3e2dde1e	0.16979262
167	0xbeab5c2e	-0.33468765
168	0xbdd90aaa	-0.10597737
169	0xbe9815c3	-0.29704103
170	0xbe5ca8ed	-0.21548815
171	0x3dbfe48f	0.09369766
172	0xbe0703b0	-0.13185
173	0x3e11c6c8	0.14235985
174	0xbc4d7ae1	-0.012541504
175	0xbe861de3	-0.26194677
176	0xbec25c6e	-0.37961143
177	0x3e9537c7	0.29144117
178	0xbe3071e7	-0.1723095
179	0x3ec679af	0.38764712
180	0xbec214b7	-0.3790643
181	0xbdf23f3a	-0.11828466
182	0xbdac61d1	-0.084170945
183	0xbdd3e4dd	-0.103463866
184	0xbe2683ef	-0.16261266
185	0xbd2edb45	-0.04268958
186	0xbe23914a	-0.15973392
187	0xbdef47c0	-0.11683607
188	0x3b4a78a5	0.0030894664
189	0x3d9e3abf	0.07726049
190	0x3e57a551	0.21059157
191	0x3e60d0dd	0.21954675
192	0x3df0755e	0.11741136
193	0x3d0cf4b0	0.03441304
194	0x3f38a42e	0.7212552
195	0x3ec7c8ed	0.39020482
196	0xbeb25606	-0.34831256
197	0xbdd5d657	-0.10441273
198	0xbd837a2f	-0.06419789
199	0xbee98630	-0.4561019
200	0xbe09ed97	-0.1346954
201	0x3e0d7157	0.13812767
202	0xbebb3808	-0.36566186
203	0xbdc618ae	-0.09672676
204	0xbd9de2f9	-0.07709307
205	0xbe8a4f17	-0.27013466
206	0x3debccf1	0.11513699
207	0xbe34d8ad	-0.1766078
208	0x3c4ceeae	0.012508078
209	0x3e3d4cf9	0.18486394
210	0xbeabf49c	-0.3358506
211	0xbe156e1c	-0.14592785
212	0xbc12c8a6	-0.008958971
213	0xbe5ff48f	-0.21870635
214	0xbefee639	-0.4978502
215	0x3c475eb1	0.012168572
216	0xbe5e5370	-0.21711516
217	0xbd597d29	-0.053097878
218	0xbed4b4c1	-0.41544154
219	0x3d8811af	0.06643998
220	0x3e812966	0.25226897
221	0x3e0e44a4	0.13893372
222	0x3eb0a486	0.3450052
223	0xbecfa99d	-0.40559092
224	0xbce777ee	-0.02825543
225	0xbda14386	-0.07874207
226	0xbdfb9f80	-0.122862816
227	0xbeb82e3d	-0.35972777
228	0xbe6e3ee9	-0.23266186
229	0xbe6ce665	-0.23134764
230	0x3d315600	0.043294907
231	0x3ebd4aa7	0.36971018
232	0xbe289a4e	-0.16465113
233	0x3de3f4cc	0.11130676
234	0xbe2d6de9	-0.16936459
235	0xbf38b5f0	-0.72152615
236	0xbe875dbc	-0.264387
237	0xbeed1d52	-0.46311432
238	0xbe1630b7	-0.1466702
239	0x3e8324b9	0.25613955
240	0xbd843b1f	-0.06456589
241	0xbc946d5d	-0.018118555
242	0x3dddd0ac	0.108308166
243	0x3cdd0728	0.026980951
244	0xbef6ec8c	-0.48227346
245	0xbb595c57	-0.003316661
246	0xbeae55d2	-0.3404985
247	0x3d41a5e7	0.047277357
248	0xbe0d15a0	-0.1377778
249	0xbd815ea4	-0.063168794
250	0x3e874b01	0.2642441
251	0x3e46a800	0.19400024
252	0x3de4f03c	0.111786336
253	0xbec4e478	-0.38455558
254	0x3e819ff1	0.25317338
255	0xbe24d23c	-0.16095823

lstm.bias_ih_l0_reverse f4 [120]
0	0x3cdf80f3	0.027283167
1	0x3d45fcfb	0.048336964
2	0xbcd8a3ea	-0.026445348
3	0xbcb5f1d3	-0.022210037
4	0xbd2c45e7	-0.04205885
5	0x3e153213	0.14569883
6	0x3e54bae0	0.20774412
7	0xbe239512	-0.15974835
8	0x3d93fc88	0.07225901
9	0xbdcdc8e8	-0.100480855
10	0xbe0a3384	-0.13496214
11	0xbd0d0cab	-0.03443591
12	0x3dbcbdb1	0.09215868
13	0xbc93200b	-0.017959615
14	0xbdbc7ab0	-0.09203088
15	0xbba5aa31	-0.005055689
16	0xbe1a9c80	-0.15098763
17	0x3e78a436	0.24281392
18	0xbdf78b71	-0.12087143
19	0x3e0870d9	0.13324298
20	0x3e313177	0.17304026
21	0xbe9932e2	-0.29921633
22	0x3d1d8de1	0.038465384
23	0xbe3e0b9d	-0.18559118
24	0x3c8a0bda	0.016851354
25	0x3d72df3c	0.059294924
26	0xbbfe17b3	-0.00775429
27	0xbdfcbd8c	-0.12340841
28	0x3e586473	0.21132068
29	0x3d7004c7	0.058598306
30	0x3dcd8d25	0.10036687
31	0x3e708c25	0.23490961
32	0xbbd541c0	-0.006508082
33	0xbd9d7199	-0.07687683
34	0xbec5f18b	-0.38660845
35	0x3e601c0a	0.21885696
36	0x3df95f6b	0.12176403
37	0x3da5397a	0.080676034
38	0x3e88b9a7	0.26704141
39	0xbc996585	-0.018725166
40	0xbe3a6810	-0.18203759
41	0x3e44baa3	0.19211821
42	0x3dcb50fc	0.09927556
43	0xbe15171a	-0.14559594
44	0x3e23f115	0.16009934
45	0x3dfbe853	0.12300172
46	0xbd3ff35e	-0.046862952
47	0xbd2fe3c5	-0.042941827
48	0x3d5bcc71	0.053661767
49	0x3e549a47	0.20761977
50	0xbd041ca5	-0.03225388
51	0x3d7c6f77	0.06162974
52	0x3df9c903	0.12196543
53	0x3e9120f1	0.28345445
54	0x3d95f848	0.073227465
55	0xbc2c9f34	-0.010536004
56	0x3e3a1424	0.18171746
57	0xbd9f6587	-0.07783037
58	0x3e2317a4	0.15926987
59	0x3e90983c	0.28241146
60	0x3bf5efd2	0.0075053954
61	0xbd866656	-0.06562488
62	0x3c434be2	0.011919947
63	0xbb4a73c4	-0.0030891756
64	0x3d4d9e8e	0.050200038
65	0xbdbf6503	-0.09345438
66	0xbc8d0ee1	-0.017219009
67	0x3df2f55d	0.118632056
68	0x3e2e92f2	0.17048243
69	0x3bffd6aa	0.0078075724
70	0x3d99027f	0.07471179
71	0xbd9cd781	-0.076582916
72	0xbe88421d	-0.2661294
73	0xbc91098c	-0.017704748
74	0x3cd9be5e	0.026580032
75	0xbd972589	-0.07380206
76	0xbe54e791	-0.2079146
77	0xbd348ea6	-0.044081353
78	0x3d9e546a	0.077309445
79	0x3a676d1b	0.00088282087
80	0xbc867344	-0.016412385
81	0xbe313eb6	-0.17309079
82	0x3d241f9b	0.040069204
83	0xbdacd81b	-0.08439656
84	0xbdf8d1c2	-0.12149383
85	0x3e306cbe	0.17228982
86	0xbd716e20	-0.058942914
87	0xbd9841d2	-0.07434429
88	0xbdf370d6	-0.11886756
89	0x3d423a3e	0.047418825
90	0xbe203e78	-0.1564883
91	0xbd2d1d57	-0.04226431
92	0x3d8cb890	0.0687114
93	0xbe1080d6	-0.14111647
94	0xbe275bf8	-0.16343677
95	0xbd7debab	-0.06199233
96	0xbdb0ed59	-0.086390205
97	0xbe6610a4	-0.22467285
98	0x3db49eca	0.08819349
99	0xbe4ebc15	-0.20188935
100	0x3dd0e215	0.10199372
101	0xbd3bbd20	-0.04583466
102	0x3dd2c73d	0.10291908
103	0x3e0424cf	0.12904666
104	0x3ddc15cb	0.10746344
105	0x3dbc7368	0.092016995
106	0x3e454a66	0.19266662
107	0x3c0c6bfc	0.008570667
108	0xbd5ec16f	-0.05438369
109	0xbb201ed9	-0.002443245
110	0x3dc1a22f	0.09454762
111	0xbd26bc57	-0.04070696
112	0xbe00cbfd	-0.12577815
113	0x3e22dd7b	0.159048
114	0x3e65b8f4	0.22433835
115	0x3ea3b555	0.31974283
116	0x3bf7f877	0.007567461
117	0x3e08364c	0.13301963
118	0x3dbd30f6	0.09237854
119	0xbe2556de	-0.16146418

lstm.bias_hh_l0_reverse f4 [120]
0	0xbd6d66ab	-0.05795924
1	0x3d7f7e72	0.062376447
2	0x3e1faae1	0.15592529
3	0xbcbfbc44	-0.023405202
4	0x3cfcab22	0.030843321
5	0x3e45125b	0.19245283
6	0x3e60d0d5	0.21954663
7	0xbcee0126	-0.029053282
8	0x3e5d82bc	0.21631902
9	0xbe33bddf	-0.17552899
10	0xbe4bbb0a	-0.19895568
11	0xbc10001e	-0.00878909
12	0xbd830284	-0.06396964
13	0xbdb0b3e5	-0.08628062
14	0xbdff5dd6	-0.1246907
15	0xbe190f21	-0.14947177
16	0x3e2070d1	0.15668036
17	0x3dbd2b93	0.09236827
18	0xbe798865	-0.24368437
19	0x3da83f23	0.082151674
20	0x3e204756	0.15652213
21	0xbce49463	-0.027902788
22	0xbe6f5bb9	-0.23374833
23	0xbda08e1c	-0.07839605
24	0x3e84c192	0.25928932
25	0x3d05ffd8	0.032714695
26	0x3e48a984	0.19595915
27	0xbe0e40e6	-0.13891944
28	0x3e170962	0.14749673
29	0xbd45ce3b	-0.04829238
30	0xbd8536ef	-0.065046184
31	0x3e5c7ccf	0.21531986
32	0x3df37937	0.11888354
33	0xbdb60447	-0.088875346
34	0xbf088d83	-0.5334093
35	0x3d0f7e6a	0.035032667
36	0x3e17c156	0.14819846
37	0xbdc4cd9a	-0.09609528
38	0x3ecbfa32	0.3983932
39	0xbe04131b	-0.12897913
40	0x3db510b7	0.08841079
41	0x3d0cf8a3	0.034416806
42	0x38e0dfbc	0.00010722826
43	0xbdc4955d	-0.09598801
44	0x3e81d622	0.25358683
45	0x3ce254cc	0.027628325
46	0x3db7eb80	0.08980465
47	0x3c06cdff	0.008227824
48	0x3dd9f6fc	0.10642812
49	0x3c117569	0.00887809
50	0xbdbcc04c	-0.09216365
51	0x3e5b8b4b	0.21439855
52	0x3dfd98a1	0.12382627
53	0x3dd628e1	0.10457016
54	0x3b083a24	0.0020786608
55	0x3de1883a	0.11012311
56	0x3d5ee18c	0.054414317
57	0x3e7876eb	0.24264114
58	0x3d1bfcb9	0.038082812
59	0x3e729c4f	0.2369244
60	0xbb655db6	-0.0034998483
61	0x3e0df6af	0.13863634
62	0xbd40a597	-0.04703292
63	0x3d9d1ddf	0.07671713
64	0x3d1b4193	0.037904333
65	0x3d3c39b2	0.04595346
66	0x3df173fb	0.117897
67	0xbbc88149	-0.0061189276
68	0x3dad81f9	0.08472056
69	0x3d03152a	0.032002605
70	0x3e1fda9a	0.15610734
71	0x3d8cd01f	0.068756334
72	0xbe1dc84e	-0.15408441
73	0x3e9957bd	0.29949751
74	0x3dcbafe5	0.099456586
75	0xbd7b88b4	-0.061409667
76	0xbe005562	-0.12532571
77	0x3e489d57	0.1959127
78	0x3d93bb3d	0.07213447
79	0xbbcaf90a	-0.0061942386
80	0xbdcc2ca8	-0.09969455
81	0x3e03a678	0.12856472
82	0xbd368f24	-0.044570103
83	0x3db76f9b	0.08956834
84	0x3e03cdb0	0.12871432
85	0x3d32f405	0.043689746
86	0x3e42f4c5	0.19038685
87	0xbcc72c87	-0.024313224
88	0x3db50521	0.08838869
89	0xbc5ed81c	-0.013601329
90	0xbe79cff9	-0.24395742
91	0x3dbe4bd6	0.09291808
92	0xbd96daf7	-0.07365983
93	0x3d033d84	0.032041088
94	0xbd8ab2b3	-0.067723654
95	0x3d752d5a	0.059857704
96	0x3ddc8a8d	0.10768614
97	0x3da9e6c6	0.0829597
98	0x3cac2a78	0.021016344
99	0xbe8acd00	-0.27109528
100	0x3dbb1476	0.09134762
101	0x3d0b3827	0.033989098
102	0xbd138d46	-0.0360234
103	0xbc02b230	-0.0079770535
104	0x3baacbe0	0.005212292
105	0xbe321663	-0.17391352
106	0x3e8243eb	0.25442442
107	0x3d8c6dd7	0.06856888
108	0xbe004091	-0.1252463
109	0xbce6b60e	-0.028162982
110	0xbd08a272	-0.033358045
111	0x3e195c2b	0.14976566
112	0xbdb9725b	-0.09055015
113	0xbdbf25df	-0.09333395
114	0x3e589697	0.21151195
115	0x3e2b269c	0.16713947
116	0xbdc3e676	-0.09565441
117	0xbc8be027	-0.017074658
118	0x3daa726e	0.08322607
119	0xbe2ddef9	-0.16979589

lstm.weight_ih_l1 f4 [120, 60]
0	0xbcb738b9	-0.022365915
1	0x3e5fb57b	0.21846573
2	0x3ecb6686	0.39726657
3	0xbe0b8bb2	-0.13627508
4	0x3e8a396b	0.2699693
5	0x3d9a9786	0.07548432
6	0xbe671b5c	-0.2256903
7	0xbdb1503f	-0.08657884
8	0x3e2db329	0.16962875
9	0xbc935c2f	-0.017988293
10	0x3dc1ff47	0.094725184
11	0xbee49273	-0.44642982
12	0xbf08d407	-0.5344853
13	0xbe46d461	-0.19416954
14	0xbf0d352a	-0.55159247
15	0x3ca26ee0	0.01982826
16	0x3e866330	0.2624755
17	0xbed2a61f	-0.41142365
18	0xbec89c8e	-0.39181942
19	0xbead8a3b	-0.33894524
20	0x3d87c995	0.066302456
21	0x3ed195f1	0.4093471
22	0x3dbb6f1c	0.09152052
23	0xbe586721	-0.2113309
24	0x3e18bfaa	0.14916864
25	0xbe9fce4f	-0.31212088
26	0xbf042cb2	-0.516307
27	0xbe9a3716	-0.30120152
28	0xbf00ea93	-0.5035793
29	0x3dbd8b66	0.09255104
30	0xbe6eebb1	-0.23332097
31	0x3d84d8e6	0.064866826
32	0x3dbd98c1	0.09257651
33	0x3ea8afbc	0.32946575
34	0x3e87fa98	0.26558375
35	0xbe4a5da2	-0.1976228
36	0x3db2a382	0.08722593
37	0x3e9a9fd3	0.3020006
38	0xbd886d41	-0.066614635
39	0xbe84abe7	-0.259124
40	0xbe94a6a6	-0.29033393
41	0xbdc855a1	-0.097819574
42	0x3dc51867	0.09623795
43	0xbf2467f2	-0.6422111
44	0x3e177a83	0.14792828
45	0xbbbade94	-0.005702803
46	0xbdf76ff4	-0.120819
47	0xbcb3c745	-0.021945605
48	0xbe199407	-0.14997874
49	0xbe6ac396	-0.22926173
50	0xbea0bda3	-0.3139468
51	0xbe9156f1	-0.28386644
52	0xbd358f4c	-0.04432611
53	0x3cd622d0	0.026139647
54	0xbe726266	-0.23670349
55	0x3e34ba94	0.17649299
56	0xbdc0b84c	-0.09410152
57	0x3db4d47e	0.08829592
58	0xbde7f5ef	-0.11326205
59	0x3e1bf972	0.15231875
60	0xbeb3c241	-0.3510914
61	0xbdc46075	-0.0958871
62	0xbedf9521	-0.43668464
63	0x3e9032ad	0.28163663
64	0xbd12cb43	-0.035838377
65	0x3efb2244	0.4904958
66	0xbe491abb	-0.19639103
67	0xbcff9e7c	-0.0312035
68	0x3ec64a09	0.3872836
69	0x3e4223ed	0.18959017
70	0xbee75a99	-0.45186308
71	0x3f36587c	0.71228766
72	0x3eb36e32	0.3504501
73	0xbcf96c80	-0.030447245
74	0x3e20052d	0.15626974
75	0x3ec07832	0.37591702
76	0xbe61d11d	-0.22052427
77	0xbe55bd60	-0.20873022
78	0x3e5eefc5	0.21771152
79	0x3e109595	0.14119561
80	0xbe30412c	-0.17212361
81	0x3d0bb8c3	0.03411175
82	0x3dc70f71	0.09719742
83	0xbe4cf873	-0.20016651
84	0xbe057bda	-0.13035527
85	0x3ef29e5d	0.47386447
86	0x3ea449ce	0.32087559
87	0xbea736b6	-0.3265893
88	0xbf167896	-0.5877775
89	0xbea589eb	-0.32331786
90	0xbeb13d07	-0.34616873
91	0xbee569d0	-0.4480729
92	0xbe205541	-0.15657522
93	0x3e1f1b59	0.15537776
94	0x3efb7aef	0.49117228
95	0x3ce559b7	0.027996881
96	0xbd6858e3	-0.056725394
97	0x3d6bab3a	0.05753634
98	0xbcfc775c	-0.030818634
99	0x3e9e3c35	0.3090531
100	0x3e190a97	0.14945446
101	0x3cc4fd47	0.024046553
102	0xbe923c82	-0.2856179
103	0x3d1cff61	0.038329486
104	0x3e468d7e	0.19389912
105	0xbe95ecfd	-0.2928237
106	0xbe875b1b	-0.26436695
107	0x3e96da0f	0.2946324
108	0xbf02fdc9	-0.51168495
109	0x3e8f03c7	0.2793257
110	0x3dbd794c	0.09251651
111	0x3e8f9eb2	0.28050762
112	0xbe3b1e60	-0.18273306
113	0xbe0800c8	-0.13281548
114	0xbcaf8e2b	-0.021430096
115	0x3efd6741	0.4949284
116	0x3e0adb24	0.13560158
117	0xbe0f81ee	-0.14014408
118	0x3b3c059f	0.0028689874
119	0x3e59fc2a	0.21287599
120	0x3c4dfc38	0.012572341
121	0x3ed70de5	0.42002788
122	0x3daccaa1	0.08437086
123	0x3e78ee22	0.2430959
124	0xbee3a314	-0.44460356
125	0xbe625c35	-0.22105487
126	0xbf1b271d	-0.6060656
127	0xbf368569	-0.7129732
128	0x3f53ec1d	0.82782155
129	0x3ef8c83a	0.4859026
130	0xbe2d1dbf	-0.16905878
131	0x3ec69fae	0.387937
132	0x3ec65903	0.38739786
133	0xbe708a9f	-0.2349038
134	0x3f30ea9c	0.69107985
135	0xbdb4a059	-0.088196464
136	0x3e31cf22	0.17364171
137	0x3e9d33a6	0.30703467
138	0x3e8b3f71	0.2719684
139	0xbe34f9d1	-0.17673422
140	0x3e3eebfc	0.18644708
141	0xbe9ef2c4	-0.3104459
142	0x3e6b236d	0.22962733
143	0xbeb3c852	-0.3511377
144	0x3c9ac979	0.018894898
145	0x3ebb0c9a	0.36533052
146	0xbd5daa2e	-0.054117374
147	0x3ee4f8d6	0.44721097
148	0x3dfa175c	0.12211487
149	0xbdf10ec3	-0.11770394
150	0xbeb8d66e	-0.36101097
151	0xbec76e04	-0.38951123
152	0xbe06f556	-0.13179526
153	0xbe26a6f4	-0.16274625
154	0xbe6a19a1	-0.22861339
155	0x3e49df88	0.19714177
156	0x3e05217c	0.13001055
157	0xbe89580a	-0.2682498
158	0xbef0b6ba	-0.4701441
159	0x3d6b6a85	0.05747463
160	0x3e410d9d	0.1885285
161	0x3e8d6191	0.276135
162	0x3ea8cf31	0.32970574
163	0x3d211be7	0.03933325
164	0x3cc1cafe	0.023656365
165	0xbef9e867	-0.4881012
166	0xbe199037	-0.1499642
167	0xbe28d31b	-0.1648678
168	0xbec54858	-0.38531756
169	0x3e4d1412	0.20027187
170	0x3dfb8137	0.12280505
171	0x3efc7f4e	0.49315876
172	0xbf27df4e	-0.6557511
173	0xbe007b5b	-0.12547056
174	0xbe88a6b6	-0.2668969
175	0x3e291227	0.16510831
176	0xbe97c470	-0.29642057
177	0xbe88f89f	-0.26752183
178	0xbe1c8066	-0.15283355
179	0x3f39736a	0.7244173
180	0xbe9850c2	-0.29749113
181	0xbbb7f169	-0.005613495
182	0x3e2244ae	0.15846512
183	0x3e8570d0	0.26062632
184	0xbed6cf48	-0.41955018
185	0x3df1bdb6	0.118037626
186	0xbec362db	-0.38161358
187	0x3d5e10b7	0.05421516
188	0x3ed47b9f	0.41500565
189	0x3ef31891	0.4747968
190	0xbd968e47	-0.07351356
191	0xbd5ad3e2	-0.053424723
192	0xbcaeb7d2	-0.021327887
193	0xbe5b5ffa	-0.21423331
194	0xbc55caf8	-0.01304888
195	0x3ea4f34f	0.3221688
196	0x3da0825f	0.07837366
197	0x3d80071d	0.06251357
198	0x3ef5532e	0.47915024
199	0xbd77fddc	-0.060544834
200	0xbf610885	-0.87903625
201	0x3d7cee76	0.06175085
202	0xbc9aea0a	-0.018910427
203	0xbdc2b069	-0.09506304
204	0xbe03a733	-0.1285675
205	0xbda206a9	-0.079114266
206	0x3ea1564b	0.3151115
207	0x3e0a8ffe	0.13531491
208	0xbf6e5984	-0.9310534
209	0x3ef00cf7	0.4688489
210	0x3ed5d6e3	0.41765508
211	0xbed564fb	-0.41678604
212	0xbe4df314	-0.20112258
213	0x3d03b064	0.03215064
214	0xbe973f20	-0.29540348
215	0x3e86b848	0.2631247
216	0x3db81dd9	0.08990068
217	0xbe3d8cc7	-0.18510734
218	0xbe4c76a7	-0.19967137
219	0x3e3cdd47	0.18443786
220	0xbcf17aef	-0.029477565
221	0x3d8da878	0.069168985
222	0x3d194f95	0.03742941
223	0xbe03d94b	-0.1287586
224	0x3db68a60	0.08913112
225	0xbe14e7fc	-0.1454162
226	0x3da24a4b	0.079243265
227	0xbf64a957	-0.8932089
228	0xbe65e090	-0.22448945
229	0xbe70ecd0	-0.23527837
230	0xbdfbf3a1	-0.12302328
231	0xbc7f8537	-0.015595726
232	0xbe4cfb0d	-0.20017643
233	0xbe89aab5	-0.26888052
234	0xbd3b5623	-0.045736443
235	0x3db039c8	0.08604771
236	0x3d51df6f	0.051238474
237	0x3d443e1a	0.047910787
238	0xbe3c7f15	-0.18407853
239	0x3e82afd7	0.2552478
240	0xbe0e889d	-0.13919301
241	0x3ed98d22	0.42490488
242	0xbe408bfb	-0.18803398
243	0xbe03c8c8	-0.1286956
244	0x3d641c68	0.055691153
245	0x3ed879e3	0.42280492
246	0x3eb3116d	0.34974232
247	0x3e87f540	0.26554298
248	0xbe9dce65	-0.3082153
249	0x3e1e8749	0.15481295
250	0xbefa61e6	-0.48902816
251	0xbe39b951	-0.18137099
252	0xbd3ba349	-0.045810018
253	0x3ee693cb	0.45034632
254	0xbe87a099	-0.26489714
255	0xbf04d7fd	-0.5189207
